sart/models/cifar_new_5x50/cifar_net_new_5x50.onnx (onnx, 658880 bytes, 12 tensors)

linear_relu_stack.0.weight f4 [50, 3072]
0.003280919 0.005571021 -0.019192899 -0.003921776 0.014200438 -0.013192694 -0.006527475 -0.016352974
-0.014855826 0.0018979111 0.0053618248 -0.017271012 0.011709509 0.006969549 -0.0042755133 -0.010133382
-0.014953773 0.004198855 0.014567075 0.001588145 -0.0006322608 -0.0029796988 0.0055249524 -0.016156416
0.0084494045 0.016015742 -0.014391498 -0.014594238 -0.0060344813 -0.015938547 0.014313139 -0.008671438
0.011594736 -6.308016e-05 0.0021402459 0.01469611 0.012757506 -0.011572505 -0.013081293 0.00025443718
-0.015813127 -0.010445159 0.008559144 0.005702341 -0.008896311 -0.0062651793 0.007579901 0.013258574
0.012428065 0.0008895095 -0.018745884 -0.005713635 0.01600647 -0.0003928047 0.00052439555 -0.018953722
-0.01305516 0.00021917616 0.01594599 -0.011809978 -0.015906686 -0.019362886 -0.01004829 -0.010260609
-0.012054036 -0.0028132987 -0.009646426 0.015675759 0.006671002 -0.015975391 -0.006857377 0.0152620375
0.011852782 0.0038205096 -0.012869189 -0.0038470684 0.0039265384 -0.014403955 -0.017233364 0.010849677
-0.008460117 0.007417874 -0.00784953 -0.015245124 -0.009588665 -0.015782133 -0.0014374607 0.0070601217
0.011213825 -0.006070553 -0.0024541193 -0.016371708 0.008942839 -0.015707886 0.0142392395 -0.017401453
-0.0013879779 -0.0073688785 0.0042030853 -0.002392602 0.013311026 0.015380604 0.0061503663 -0.01838655
-0.01901938 -0.008061593 -0.0027419464 0.00034776636 0.015247754 -0.018923355 0.008489148 0.0014637337
-0.0033662068 0.010298788 0.01159238 -0.0048067626 0.008701313 0.00037927084 -0.0055980994 -0.0012269295
0.00024932288 0.012816689 0.008692379 -0.007081304 0.0118931625 0.008241484 0.0122336885 -0.014239064
0.0073536467 0.0113852555 0.006861199 -0.008322889 -0.01916272 -0.0021385464 0.001782547 0.014979676
-0.004536438 -0.010993471 0.015515329 0.0031316148 -0.0154232355 0.01576867 0.015767878 0.009348017
-0.0008600114 -0.0087829 -0.0010716798 0.005619182 0.013234316 -0.0029683816 -0.0063461224 -0.011349108
-0.011194806 -0.011838451 -0.0016501829 -0.009449822 -0.0129674 0.011963492 -0.016992714 0.004387332
-0.0077738394 0.009741735 -0.009220579 -0.014116038 0.0076100817 0.0018813048 -0.0057499786 -0.01665106
0.014110342 0.0047382186 0.0033397994 -0.0018646739 -0.019779747 6.9981543e-06 0.0077547953 -0.016818486
-0.009435139 0.007499183 -0.010135174 0.0023021896 -0.0058743055 0.0075035878 -0.0084708175 -0.0035012327
0.013818254 0.008905536 0.014636504 -0.0021703118 0.014914305 0.0042099683 0.014674426 -0.0079896245
-0.010814745 0.0049020643 -0.0035791672 0.0014991311 0.006322195 0.014621568 -0.011880771 0.0052333116
0.006420902 0.012086569 0.009511563 -0.0037172006 -0.011672617 -0.0022820104 -0.015828174 -0.019704556
0.00092037296 0.015904365 0.009340407 -0.007191225 -0.010106433 -0.0066073244 0.015182614 -0.014636932
-0.013065854 -0.013964126 0.013992414 -0.0027131494 -0.007010459 -0.008755983 -0.006011584 -0.015344736
0.013192165 0.014316652 0.009551073 0.0042541516 0.007452256 -0.0073215524 -0.0006964465 0.00801753
-0.019782484 -0.016227 0.0067853965 0.0069126114 0.005347461 -0.015512556 -0.01172194 0.01228707
0.012804476 -0.01148605 -0.0062609413 -0.0017721849 -0.008270952 0.006272236 -0.0014789776 0.009596518
-0.009508269 0.0038689966 -0.01360625 0.008662787 0.012305708 -0.017695049 0.009034285 -0.019633155
00000000: b004 573b 1d8d b63b 6d3a 9dbc 3e82 80bb
00000010: f4a8 683c 2b26 58bc 6ee4 d5bb acf6 85bc
00000020: da65 73bc 54c3 f83a 3fb2 af3b f07b 8dbc
00000030: 3ed9 3f3c d160 e43b 9b19 8cbb 7c06 26bc
00000040: ab00 75bc 8c96 893b beaa 6e3c 4e29 d03a
00000050: 4ebe 25ba 0d47 43bb a90a b53b 765a 84bc
00000060: 5f6f 0a3c 7233 833c 51ca 6bbc ac1c 6fbc
00000070: e6bc c5bb 8e91 82bc a881 6a3c a612 0ebc
00000080: d9f7 3d3c e749 84b8 5e43 0c3b f4c7 703c
00000090: dc04 513c 9b9a 3dbc eb52 56bc fb65 8539
000000a0: 888a 81bc 2c22 2bbc a73b 0c3c b4da ba3b
000000b0: d5c1 11bc 224c cdbb d160 f83b 7d3a 593c
000000c0: 159f 4b3c f92d 693a f890 99bc 7239 bbbb
000000d0: 0020 833c 5bf1 cdb9 9777 093a d644 9bbc
000000e0: 4fe5 55bc a7d2 6539 2aa1 823c a37e 41bc
000000f0: bd4e 82bc ea9e 9ebc 95a1 24bc 1d1c 28bc
00000100: 4b7e 45bc 525f 38bb 0b0c 1ebc 736a 803c
00000110: 6c98 da3b d3de 82bc d9b3 e0bb a00d 7a3c
00000120: 2c32 423c 8461 7a3b 4ad9 52bc 191f 7cbb
00000130: 31aa 803b 91fe 6bbc fc2c 8dbc d8c2 313c
00000140: 4d9c 0abc a311 f33b 519b 00bc afc6 79bc
00000150: c719 1dbc 8849 81bc 2d69 bcba 9858 e73b
00000160: 31ba 373c 7deb c6bb 4ad5 20bb f61d 86bc
00000170: fc84 123c d3ad 80bc b34b 693c 7e8d 8ebc
00000180: cfec b5ba a276 f1bb 09ba 893b 33cd 1cbb
00000190: 7d16 5a3c eefe 7b3c 0389 c93b 649f 96bc
000001a0: 88ce 9bbc c614 04bc 3ab2 33bb 6954 b639
000001b0: b7d1 793c 2705 9bbc 1116 0b3c c1da bf3a
000001c0: 949b 5cbb 3fbc 283c f7ed 3d3c 0c82 9dbb
000001d0: f48f 0e3c dfd8 c639 4370 b7bb ecd0 a0ba
000001e0: 8db7 8239 17fd 513c 7b6a 0e3c 490a e8bb
000001f0: 8adb 423c 4a07 073c cf6f 483c f74a 69bc
00000200: dcf6 f03b 3989 3a3c e9d3 e03b ba5c 08bc
00000210: 23fb 9cbc db26 0cbb 5aa4 e93a 516d 753c
00000220: 66a6 94bb f61d 34bc 0234 7e3c c73b 4d3b
00000230: bdb1 7cbc 4c2d 813c a32b 813c 6d28 193c
00000240: 6372 61ba 27e6 0fbc 9b77 8cba 1d21 b83b
00000250: bfd4 583c 2e89 42bb 22f3 cfbb 9cf1 39bc
00000260: 6b6a 37bc 10f6 41bc f34a d8ba 6dd3 1abc
00000270: 3875 54bc 8602 443c 4e34 8bbc 9cc3 8f3b
00000280: b1bb febb cc9b 1f3c e911 17bc f446 67bc
00000290: fe5d f93b 1d96 f63a 516a bcbb ce67 88bc
000002a0: 102f 673c 0f43 9b3b 89e0 5a3b 1368 f4ba
000002b0: 2309 a2bc b0d1 ea36 f01b fe3b ecc6 89bc
000002c0: d795 1abc b5bb f53b 000e 26bc 55e0 163b
000002d0: 3f7d c0bb a8e0 f53b 2fc9 0abc f074 65bb
000002e0: f565 623c 86e8 113c f3cd 6f3c ca3b 0ebb
000002f0: 215b 743c c6f3 893b 016d 703c eae6 02bc
00000300: 5430 31bc 7fa1 a03b 7690 6abb 7e7e c43a
00000310: 6a2a cf3b 4d8f 6f3c 91a7 42bc 337c ab3b
00000320: 6e66 d23b bf06 463c 63d6 1b3c 479c 73bb
00000330: 813e 3fbc c88d 15bb 16aa 81bc 736b a1bc
00000340: 2f45 713a df49 823c 8208 193c 5ea4 ebbb
00000350: 7495 25bc 4182 d8bb 80c0 783c becf 6fbc
00000360: 2a12 56bc cac9 64bc 7040 653c 18cf 31bb
00000370: feb7 e5bb 4175 0fbc d2fc c4bb 7d68 7bbc
00000380: f323 583c 6490 6a3c 1b7c 1c3c 6966 8b3b
00000390: 0e32 f43b a2e9 efbb bc91 36ba f55b 033c
000003a0: e00e a2bc 7cee 84bc 0858 de3b 3083 e23b
000003b0: c139 af3b 6028 7ebc 610d 40bc b54f 493c
000003c0: ddc9 513c fc2f 3cbc 9528 cdbb a848 e8ba
000003d0: e382 07bc 5487 cd3b 41da c1ba b73a 1d3c
000003e0: 92c8 1bbc fe8e 7d3b c0ec 5ebc 5dee 0d3c
000003f0: e19d 493c 35f5 90bc 8a04 143c b6d5 a0bc

linear_relu_stack.0.bias f4 [50]
-0.018611275 -0.049119003 -0.021802498 0.1587008 0.016831568 -0.1540916 -0.017231373 0.14650325
-0.12451162 -0.0004921537 0.0037733277 0.006149912 -0.002866646 0.004671214 -0.018793747 0.012332646
-0.012995743 -0.015805386 0.27858338 -0.19132325 0.0042806724 -0.023280406 0.13944 -0.014876461
0.01277157 0.029615998 -0.015385907 -0.08198633 -0.009016475 -0.03054782 -0.008809469 -0.008658457
-0.025879772 -0.019101894 0.0076126484 -0.12263679 0.08759985 0.07134784 0.201094 0.11690643
-0.12880875 -0.010019127 -0.064210355 -0.08616345 0.049332313 -0.1272062 -0.017232127 0.0003021913
0.22999324 -0.019001648
00000000: ac76 98bc 0231 49bd 279b b2bc 7682 223e
00000010: 5be2 893c 30ca 1dbe cf28 8dbc f304 163e
00000020: f3ff febd e003 01ba ef49 773b 3385 c93b
00000030: 57de 3bbb fc10 993b 58f5 99bc de0e 4a3c
00000040: 19ec 54bc 4c7a 81bc 7ba2 8e3e 3eea 43be
00000050: e244 8c3b 8db6 bebc 5cc9 0e3e 66bc 73bc
00000060: d93f 513c 409d f23c 2c15 7cbc 73e8 a7bd
00000070: d6b9 13bc 6c3f fabc 9755 10bc 33dc 0dbc
00000080: d101 d4bc 937b 9cbc 8673 f93b ff28 fbbd
00000090: 8d67 b33d d11e 923d 96eb 4d3e a36c ef3d
000000a0: 71e6 03be 4427 24bc b880 83bd 7676 b0bd
000000b0: ae10 4a3d 5842 02be 642a 8dbc 6e6f 9e39
000000c0: 5983 6b3e 58a9 9bbc

linear_relu_stack.2.weight f4 [50, 50]
-0.12919289 -0.03728601 0.019267853 0.12064576 -0.09625837 -0.268689 0.002118497 -0.32444584
0.089003116 -0.0883957 0.06907521 -0.032527138 -0.08961797 -0.021287331 0.0037961188 0.11371786
0.07479075 0.033213712 -0.052866668 -0.17106526 -0.07962771 0.04017813 0.2530304 0.02443529
0.089332476 0.035801794 0.07906526 -0.121214926 0.02341167 -0.15550297 -0.109193474 -0.03301724
0.0643148 -0.10297161 -0.22585653 -0.0043789786 0.035381053 0.13444571 0.1142461 -0.057486966
-0.023085658 -0.09371357 -0.17635944 0.1429232 0.13289374 0.059166465 -0.13418587 -0.011826184
-0.123066284 0.092267685 -0.013621343 0.15474336 0.068014264 0.0124190105 0.04901988 0.21285076
0.13279763 0.027621193 -0.11032824 0.1320203 -0.08579599 -0.08292682 -0.13820773 -0.006120923
-0.08406976 -0.078656666 -0.09595441 0.042102642 0.045910962 -0.15314798 0.079405285 0.15105864
-0.075904466 -0.26018986 0.025837881 -0.13499331 0.0737551 0.05838794 -0.12907101 0.14394236
-0.01833042 0.02227821 -0.11945453 0.090367235 0.15094459 -0.25629598 0.080583885 0.116725385
0.054659013 -0.2386477 0.086933106 0.022077464 0.11325008 -0.20766963 0.11616442 0.09464496
0.05024828 0.04607096 0.047863662 -0.0389504 0.124729276 -0.07371944 0.06903612 0.07079399
-0.044372566 0.15106393 -0.11946193 -0.16850598 -0.2878597 0.0037474919 -0.14034843 -0.075596705
-0.0850078 -0.0838853 -0.09479737 0.09795003 0.027300656 -0.07765581 -0.05619908 0.078840524
0.17526971 0.1384189 -0.15938212 -0.050973166 0.03326868 -0.13507882 -0.082004614 -0.09720627
0.00072987477 0.109940365 0.011200846 0.08517832 -0.1956346 0.07507631 0.11261074 -0.044694364
-0.3383823 0.03895816 -0.1319293 -0.0045897625 0.06908266 -0.022804312 0.13296376 0.111644834
-0.047152925 0.13320951 0.00885679 0.046319738 -0.042416424 0.036842592 -0.09441507 0.018901663
-0.18419285 -0.1275583 0.12734629 0.12046364 0.11498833 -0.08230843 -0.0037060403 0.038093675
0.010309482 0.049375217 -0.023132479 -0.11483021 -0.08005397 -0.07108079 0.08052535 -0.04533794
-0.037889827 0.047612354 -0.1831856 0.16604456 0.25648603 -0.06942281 0.12694257 0.14178972
0.027026495 -0.097755745 -0.038170602 -0.17307165 -0.040797748 -0.022581773 0.166514 0.12606728
0.00043382027 -0.08597356 -0.19012485 0.035836753 0.059278883 0.19057177 -0.12817536 -0.008344064
0.18339011 0.21039696 -0.09354942 0.11461147 -0.13748716 -0.118818015 0.0030743356 -0.025780581
0.017918512 -0.06719713 -0.0042147776 0.033399273 0.013547064 0.028052064 -0.0075068534 0.049429316
-0.31325957 -0.032721065 -0.036812622 0.1116438 -0.010120315 0.013784137 -0.09607397 0.008154511
-0.08210471 0.0037538384 0.48945257 -0.16187805 0.10128436 0.0042107087 0.26323336 0.011549413
-0.010986347 -0.07398327 0.10942568 0.18100178 0.09639194 -0.15142545 -0.06756285 -0.08215394
0.086375386 0.13702857 0.04884878 0.17685741 -0.046637405 -0.13906813 -0.14685449 0.11635621
-0.34698945 0.06178145 0.14209014 0.11237754 0.0903202 0.122984104 0.10839834 -0.026449617
-0.078782305 0.122294575 0.11988335 -0.13205363 0.15470767 0.106815 0.09753343 -0.004302547
00000000: 244b 04be 37b9 18bd 9ed7 9d3c 2015 f73d
00000010: 1c23 c5bd 9b91 89be 7bd6 0a3b c41d a6be
00000020: 4447 b63d ce08 b5bd 4e77 8d3d 2d3b 05bd
00000030: a089 b7bd c562 aebc 4ec8 783b e9e4 e83d
00000040: e52b 993d 1a0b 083d b88a 58bd bb2b 2fbe
00000050: da13 a3bd d391 243d 338d 813e 842c c83c
00000060: f2f3 b63d e7a4 123d f8ec a13d 883f f8bd
00000070: d5c9 bf3c 2c3c 1fbe d4a0 dfbd 163d 07bd
00000080: 7ab7 833d c8e2 d2bd ef46 67be 897d 8fbb
00000090: b9eb 103d 23ac 093e dcf9 e93d 7477 6bbd
000000a0: 221e bdbc e6ec bfbd 9297 34be 765a 123e
000000b0: 4c15 083e 8958 723d 0568 09be 9cc2 41bc
000000c0: 2d0a fcbd d7f6 bc3d 0e2c 5fbc 0b75 1e3e
000000d0: 104b 8b3d 1b79 4b3c 12c9 483d 8df5 593e
000000e0: 1afc 073e d745 e23c c6f3 e1bd 5430 073e
000000f0: cfb5 afbd 89d5 a9bd 5486 0dbe 0692 c8bb
00000100: c42c acbd bf16 a1bd bf83 c4bd d273 2c3d
00000110: 220d 3c3d d3d2 1cbe 3d9f a23d 1eaf 1a3e
00000120: cd73 9bbd 9b37 85be f7a9 d33c b03b 0abe
00000130: ea0c 973d 3128 6f3d 312b 04be a065 133e
00000140: ad29 96bc cb80 b63c 94a4 f4bd 7512 b93d
00000150: 3891 1a3e 3a39 83be 2a09 a53d b80d ef3d
00000160: 21e2 5f3d 1060 74be fc09 b23d ccdb b43c
00000170: a8ef e73d 59a7 54be 9de7 ed3d 37d5 c13d
00000180: 24d1 4d3d e7b4 3c3d b00c 443d 748a 1fbd
00000190: 1072 ff3d 38fa 96bd cf62 8d3d 70fc 903d
000001a0: 02c0 35bd 81b0 1a3e 75a8 f4bd d58c 2cbe
000001b0: 5962 93be 7b98 753b 80b7 0fbe 72d2 9abd
000001c0: 9218 aebd 0ecc abbd 2025 c2bd 069a c83d
000001d0: a0a5 df3c 020a 9fbd 0231 66bd 2477 a13d
000001e0: e779 333e afbd 0d3e 1135 23be 3dc9 50bd
000001f0: bd44 083d 1a52 0abe 09f2 a7bd 1514 c7bd
00000200: 1155 3f3a 6a28 e13d c183 373c f971 ae3d
00000210: 7054 48be 9cc1 993d 76a0 e63d 7011 37bd
00000220: 7240 adbe 9792 1f3d 7918 07be b865 96bb
00000230: 367b 8d3d 1cd0 babc a727 083e 0ca6 e43d
00000240: 6d23 41bd 1368 083e 121c 113c c4b9 3d3d
00000250: d8bc 2dbd 42e8 163d b05c c1bd a9d7 9a3c
00000260: 0d9d 3cbe a59e 02be 1167 023e a4b5 f63d
00000270: 007f eb3d 5291 a8bd 0ae1 72bb 1d08 1c3d
00000280: 1ae9 283c ab3d 4a3d 5380 bdbc 1a2c ebbd
00000290: 56f3 a3bd ce92 91bd 7aea a43d 47b4 39bd
000002a0: 5d32 1bbd 2c05 433d 0295 3bbe 9607 2a3e
000002b0: 2352 833e 8c2d 8ebd 3cfd 013e 5331 113e
000002c0: ab66 dd3c 2a34 c8bd c758 1cbd b239 31be
000002d0: 8a1b 27bd 69fd b8bc a582 2a3e c817 013e
000002e0: 5f72 e339 e812 b0bd 17b0 42be 8fc9 123d
000002f0: 6ace 723d 3f25 433e 6740 03be 8ab5 08bc
00000300: 9eca 3b3e 4d72 573e d796 bfbd 6bb9 ea3d
00000310: 6fc9 0cbe dc56 f3bd cb7a 493b cc31 d3bc
00000320: d8c9 923c a69e 89bd 1e1c 8abb adcd 083d
00000330: 81f4 5d3c 71cd e53c 0dfc f5bb 6576 4a3d
00000340: 8f63 a0be 8606 06bd d5c8 16bd 81a5 e43d
00000350: adcf 25bc dcd6 613c 6ec2 c4bd 809a 053c
00000360: 8426 a8bd f502 763b 8799 fa3e 5cc3 25be
00000370: 2d6e cf3d fcf9 893b 86c6 863e c039 3d3c
00000380: 1400 34bc 8a84 97bd 921a e03d 8858 393e
00000390: 2369 c53d 460f 1bbe 645e 8abd 5340 a8bd
000003a0: 94e5 b03d 3851 0c3e a915 483d 1c1a 353e
000003b0: dd06 3fbd e067 0ebe 0661 16be 2a4c ee3d
000003c0: 9aa8 b1be 8c0e 7d3d 1480 113e 3226 e63d
000003d0: ccf9 b83d 17df fb3d f3ff dd3d deac d8bc
000003e0: 9e58 a1bd 9475 fa3d 6785 f53d 1139 07be
000003f0: b06b 1e3e d3c1 da3d 9bbf c73d 61fc 8cbb

linear_relu_stack.2.bias f4 [50]
0.15870771 0.15808938 -0.0030603306 0.15355967 0.15591086 0.009163125 0.068638965 -0.13259584
0.034693625 -0.033211835 0.06993819 0.14300662 -0.044629663 -0.0445842 0.104611866 0.17841351
0.25506458 0.23323542 0.08217567 -0.053824108 0.005517659 -0.15912886 0.0150050195 -0.092589825
0.07905484 0.06963387 0.075701274 0.19435833 0.17798369 0.10791979 -0.07737091 0.1628299
-0.076818 0.084132835 0.15571904 0.25224623 0.04875179 0.2643866 -0.0562508 0.13463843
-0.14944108 0.06842998 0.3503008 -0.30064642 0.045686204 0.031576842 0.067051336 -0.23865205
0.13763483 -0.18276587
00000000: 4684 223e 2fe2 213e d48f 48bb bf3e 1d3e
00000010: 19a7 1f3e ef20 163c 9692 8c3d 34c7 07be
00000020: e71a 0e3d 2209 08bd c13b 8f3d 5470 123e
00000030: 98cd 36bd ec9d 36bd bf3e d63d 08b2 363e
00000040: d397 823e 44d5 6e3e b84b a83d ab76 5cbd
00000050: 7acd b43b adf2 22be 9dd7 753c bc9f bdbd
00000060: 81e7 a13d 349c 8e3d 4509 9b3d df05 473e
00000070: 5b41 363e 0d05 dd3d a474 9ebd e2bc 263e
00000080: c152 9dbd d64d ac3d d074 1f3e 6b26 813e
00000090: f5af 473d ae5d 873e 3d67 66bd a8de 093e
000000a0: 1507 19be 0425 8c3d a05a b33e 54ee 99be
000000b0: 7521 3b3d b856 013d 3652 893d 3461 74be
000000c0: 25f0 0c3e fa26 3bbe

linear_relu_stack.4.weight f4 [50, 50]
-0.08525772 -0.06708337 0.0853178 -0.12948915 -0.058977526 0.014887931 -0.09125645 0.043826345
-0.081475005 0.07677329 -0.056498293 -0.07637384 -0.11238454 -0.0022051195 -0.10198216 -0.13970336
0.08291869 0.049028523 -0.114589825 -0.021742415 0.11838211 0.03225547 -0.14225681 -0.086825036
-0.09620973 0.06752006 -0.088192366 -0.09257044 -0.0412459 -0.060127918 0.10556625 0.10748348
-0.07856239 -0.11415274 -0.024184564 -0.055190526 -0.10472278 -0.10464513 -0.05891745 -0.070357814
0.11853171 0.042980008 -0.035394024 0.065550454 0.086454116 -0.09897887 0.06607269 -0.14758812
0.053519506 0.12753136 0.117814675 -0.051056676 -0.12775941 0.2860881 -0.21696003 0.023112588
-0.3269901 0.11502258 -0.25765467 0.01652624 0.071602955 -0.10404413 0.01818759 0.06326966
-0.15141608 0.100577354 -0.029432083 -0.067636594 -0.045664653 0.04775937 0.09291128 0.13214156
0.19334446 0.032344807 -0.018164726 0.06253408 -0.08607025 0.14103417 0.054607507 -0.26764816
0.0954976 -0.13465153 -0.123528555 -0.18868758 0.01716759 -0.23566747 0.055767715 0.13179764
0.13578276 0.3655593 0.10354946 0.124705076 -0.104630165 0.17203623 0.26709008 0.0017490118
-0.10410619 0.12081663 -0.00035964602 -0.09703198 -0.05596536 -0.29399878 0.18019642 -0.14261267
0.22947226 0.06828616 -0.27764994 -0.048765127 -0.09000269 0.12048578 0.016591242 -0.045712527
0.088051766 -0.1504181 0.031821497 -0.025010586 -0.15838431 0.51693 0.034618825 0.032319315
-0.06262186 -0.10326416 -0.10032825 0.059803177 0.06340017 0.114976056 0.25373197 0.18197963
-0.10430976 0.025771063 -0.06884722 -0.08450768 0.16931042 -0.22215648 -0.059240043 -0.2752399
0.044113625 0.060005896 -0.12419208 -0.15063438 -0.03264578 0.02449919 1.2504702e-05 0.21382451
0.3219678 0.1916186 -0.058155067 -0.05973693 -0.10941793 0.12458037 -0.112409174 -0.044002436
0.3029092 -0.18514921 0.07796124 0.056015003 0.016062807 0.05827497 0.40810868 -0.12716937
-0.09004727 0.10747958 -0.13419405 -0.055602893 0.13424288 0.06528221 -0.17559205 -0.13700475
0.14216939 0.15937026 0.14065099 -0.00565208 0.11502998 0.16056697 -0.0838884 -0.12858456
-0.21355693 0.08038469 0.0034997724 0.037714638 -0.048808023 -0.09014898 0.030732471 0.09742885
0.057665583 -0.31177798 -0.06180014 0.0012827872 -0.08121892 -0.14283864 0.10814834 -0.06431331
0.11601266 0.17273083 -0.06611816 0.18848531 0.078632705 0.109529935 0.12890106 0.005559462
0.14642744 -0.0004653818 -0.18682402 0.14267744 0.044885185 0.120832026 -0.21723972 -0.27359533
0.14598033 0.048660632 0.06986494 0.14690259 -0.022327999 -0.14119083 0.13407426 0.048177246
-0.023588171 0.35815454 0.063075796 0.07692992 -0.012480179 -0.07667234 -0.0017174775 0.15358841
-0.28922918 -0.15558486 0.23444149 -0.117850535 0.2722841 -0.2583821 0.20501898 -0.063387185
0.048045363 -0.07809004 0.09942299 0.04718255 0.06451922 -0.104264244 -0.13140553 -0.00646831
0.18336147 0.1171285 -0.07762083 0.20651928 0.30848488 0.16900952 0.09459844 -0.12667662
0.0747044 -0.0062328447 0.11634519 -0.12379898 0.0426304 0.062330082 0.08302638 -0.001349892
00000000: 999b aebd 0263 89bd 19bb ae3d ce98 04be
00000010: 6b92 71bd 82ec 733c a9e4 babd 4183 333d
00000020: 5edc a6bd 513b 9d3d c16a 67bd e369 9cbd
00000030: de29 e6bd c483 10bb 06dc d0bd 660e 0fbe
00000040: 46d1 a93d 22d2 483d 12ae eabd 261d b2bc
00000050: 5272 f23d 501e 043d c5ab 11be 53d1 b1bd
00000060: 9b09 c5bd f547 8a3d 339e b4bd 9295 bdbd
00000070: 76f1 28bd b148 76bd 1e33 d83d 4c20 dc3d
00000080: 51e5 a0bd e9c8 e9bd b51e c6bc 760f 62bd
00000090: e678 d6bd 3050 d6bd 6d53 71bd c217 90bd
000000a0: c1c0 f23d ce0b 303d 53f9 10bd 513f 863d
000000b0: db0e b13d 6fb5 cabd 1e51 873d 5721 17be
000000c0: 4537 5b3d 9597 023e d248 f13d ce20 51bd
000000d0: 5dd3 02be 247a 923e c52a 5ebe 9c56 bd3c
000000e0: 3f6b a7be f590 eb3d 50eb 83be 0a62 873c
000000f0: 92a4 923d 1715 d5bd 24fe 943c 8693 813d
00000100: d10c 1bbe 80fb cd3d 8d1b f1bc 0e85 8abd
00000110: dc0a 3bbd 549f 433d 4548 be3d 1e50 073e
00000120: 17fc 453e fd7b 043d 31ce 94bc de11 803d
00000130: 9945 b0bd 436b 103e 1fac 5f3d 2e09 89be
00000140: 3f94 c33d 17e2 09be 8afc fcbd 5137 41be
00000150: 0ca3 8c3c d052 71be b06c 643d f6f5 063e
00000160: a30a 0b3e 972a bb3e bd11 d43d 6065 ff3d
00000170: 5748 d6bd 442a 303e 08c0 883e 193f e53a
00000180: a035 d5bd b66e f73d df8e bcb9 b4b8 c6bd
00000190: ef3b 65bd 0287 96be 6985 383e 0e09 12be
000001a0: c7fa 6a3e 9dd9 8b3d 2228 8ebe f1bd 47bd
000001b0: 5553 b8bd 40c1 f63d 5bea 873c 0f3d 3bbd
000001c0: 7c54 b43d 3407 1abe 4257 023d 00e3 ccbc
000001d0: 7f2f 22be 8655 043f 78cc 0d3d 4261 043d
000001e0: e43f 80bd 297c d3bd e678 cdbd 2df4 743d
000001f0: f3d7 813d 9178 eb3d 28e9 813e de58 3a3e
00000200: 5ba0 d5bd d61d d33c c5ff 8cbd 5d12 adbd
00000210: b65f 2d3e fd7c 63be b0a5 72bd 3fec 8cbe
00000220: 7db0 343d bec8 753d 6b58 febd e63f 1abe
00000230: 95b7 05bd 86b2 c83c 49cb 5137 d0f4 5a3e
00000240: f7d8 a43e ab37 443e 0234 6ebd b6ae 74bd
00000250: 8216 e0bd fe23 ff3d c836 e6bd e63b 34bd
00000260: ea16 9b3e c197 3dbe 25aa 9f3d fd6f 653d
00000270: 2696 833c bcb1 6e3d 9ff3 d03e b038 02be
00000280: b46a b8bd 411e dc3d 2a6a 09be dcbf 63bd
00000290: f776 093e aeb2 853d 67ce 33be f94a 0cbe
000002a0: da94 113e f531 233e d006 103e 1535 b9bb
000002b0: d794 eb3d ab6b 243e aecd abbd acab 03be
000002c0: abae 5abe baa0 a43d 705c 653b aa7a 1a3d
000002d0: ecea 47bd 07a0 b8bd aac2 fb3c c788 c73d
000002e0: bf32 6c3d 5da1 9fbe 2522 7dbd 3223 a83a
000002f0: 1b56 a6bd 4b44 12be e07c dd3d b2b6 83bd
00000300: 0c98 ed3d 5ae0 303e f568 87bd 4b02 413e
00000310: 2f0a a13d 3b51 e03d a4fe 033e 262c b63b
00000320: 13f1 153e 7dfe f3b9 cc4e 3fbe 091a 123e
00000330: 87d9 373d c876 f73d 1774 5ebe b014 8cbe
00000340: de7b 153e 5f50 473d 5a15 8f3d a26d 163e
00000350: 35e9 b6bc 5494 10be c34a 093e 8155 453d
00000360: fb3b c1bc 0860 b73e e22d 813d 6f8d 9d3d
00000370: aa79 4cbc 6306 9dbd fb1c e1ba 4846 1d3e
00000380: d915 94be a351 1fbe 6e11 703e 9f5b f1bd
00000390: d268 8b3e a94a 84be 7ff0 513e 24d1 81bd
000003a0: 37cb 443d aced 9fbd 489e cb3d 7d42 413d
000003b0: a722 843d 7e88 d5bd 2c8f 06be 1ef4 d3bb
000003c0: 1cc3 3b3e 11e1 ef3d abf7 9ebd ca79 533e
000003d0: bbf1 9d3e d510 2d3e d4bc c13d 84b7 01be
000003e0: 9ffe 983d e43c ccbb 6346 ee3d 528a fdbd
000003f0: 379d 2e3d d44d 7f3d bc09 aa3d dcee b0ba

linear_relu_stack.4.bias f4 [50]
-0.11756523 -0.083827995 0.19579676 -0.15597765 -0.07859939 -0.04148158 0.09037028 0.27996808
0.08751561 0.098106615 -0.14855081 0.35868007 0.08952728 -0.019136567 0.2908065 0.20291686
0.08830015 0.19057588 -0.012878604 0.01706086 0.043503024 0.0038775406 0.30417034 -0.35976073
0.1550027 0.04292514 0.037221216 0.11730596 0.31020424 -0.013000819 0.124502175 -0.28764296
0.033683658 0.008626124 0.10824065 0.20055194 -0.31712946 -0.20722099 0.1294716 0.13063097
0.44408613 -0.09799913 0.25583208 0.01836544 -0.24767293 0.15757968 -0.20676535 0.00077595987
0.046568573 -0.039745513
00000000: 0ac6 f0bd 03ae abbd f27e 483e 9bb8 1fbe
00000010: b8f8 a0bd 97e8 29bd 0e14 b93d fa57 8f3e
00000020: 623b b33d 1fec c83d b41d 18be eaa4 b73e
00000030: 145a b73d 4ac4 9cbc 97e4 943e 70c9 4f3e
00000040: b6d6 b43d 5326 433e c800 53bc 37c3 8b3c
00000050: 3a30 323d 561e 7e3b 37bc 9b3e 8f32 b8be
00000060: 07b9 1e3e 46d2 2f3d 4675 183d 1b3e f03d
00000070: 17d3 9e3e 6301 55bc fffa fe3d f045 93be
00000080: e0f7 093d 9654 0d3c 46ad dd3d 7d5d 4d3e
00000090: cb5e a2be bd31 54be 3494 043e 20c4 053e
000000a0: 425f e33e c5b3 c8bd 6cfc 823e 1f73 963c
000000b0: f99d 7dbe 915c 213e 4cba 53be c969 4b3a
000000c0: b0be 3e3d 31cc 22bd

linear_relu_stack.6.weight f4 [50, 50]
-0.123374864 0.036654722 -0.3022759 0.0026841604 -0.24377659 0.117688574 0.036785148 0.10672254
0.24793497 -0.4732791 -0.21086845 0.08451355 0.52514493 -0.13691227 -0.31309718 0.16765486
0.047846653 0.024594173 0.38404953 0.11046738 -0.081702635 0.008795648 -0.08756449 0.016842414
-0.21734479 0.211443 0.09465187 0.36859018 0.15657097 0.19535162 0.14101687 -0.18210451
-0.17924006 -0.17698313 0.055275477 -0.0062219375 -0.06469137 -0.46799317 0.062016524 -0.20528373
0.07756551 0.12528805 0.01656295 0.13201423 0.09835108 0.06303499 0.20454022 0.059601907
-0.21313408 -0.04382606 -0.10273396 -0.23172545 -0.076315075 0.1137973 0.02315051 -0.013925583
0.047622703 0.04586899 0.015718892 0.057512403 -0.012604385 0.12319154 0.006662801 0.50690377
-0.13287607 0.09783078 0.17241572 -0.2364132 -0.13402508 0.024917766 -0.059599955 -0.1848655
0.20368749 -0.18322927 -0.024507228 0.036677346 0.06782419 0.11021537 0.20902318 0.02343983
0.0006286451 0.22519086 0.048757944 0.20115723 0.14256 0.10591382 0.11932624 0.11327784
0.017528066 -0.113239154 0.055575904 -0.04098904 0.05808292 -0.16155767 -0.43813932 -0.055025678
-0.14205755 -0.15614876 0.09042274 -0.027444836 -0.043794714 0.087928854 0.0990219 0.06687642
0.04615113 0.09410041 0.05548393 -0.24910073 -0.14429481 -0.03469865 -0.12027224 0.15527883
0.28827426 -0.09085167 0.23969157 -0.114704326 -0.080658644 0.09285366 -0.0015199857 0.12516029
-0.09746595 -0.16840531 -0.14671284 0.14248475 -0.07875928 -0.08384824 0.07544752 -0.10215416
-0.00024164283 -0.12983204 0.029065788 -0.15331298 -0.030476727 -0.21414566 -0.05132219 0.08516965
0.070798054 -0.21724598 0.11832699 0.1209952 0.31884733 0.045913648 -0.046319064 0.053247955
-0.12979741 0.13404955 0.20603155 0.066006884 0.06780795 0.12668453 0.046008173 0.12874249
0.22799526 0.011240631 -0.11395416 0.1148928 0.029297518 -0.28984308 0.06624472 0.17382635
0.16765952 0.28833959 0.06854831 0.4845951 0.13294964 -0.037274253 -0.01106394 -0.21167856
-0.18305093 0.17539525 -0.005683629 0.0740874 -0.079335675 0.09641817 0.46523064 0.09823885
-0.09805232 0.053739153 0.14173172 -0.2400122 0.15201357 0.14759639 0.16191205 0.1452289
-0.044146582 -0.062919304 -0.102848314 -0.022375572 -0.115088835 0.25091475 -0.060975786 0.071936905
0.008007245 -0.1079139 -0.09741021 0.120707646 0.010358096 0.102038234 -0.2581493 0.107949115
0.063224316 0.14560314 0.078476585 -0.117489375 0.06678401 0.025514206 0.12649754 0.072245
0.1486807 -0.19760446 0.0912133 0.20960273 -0.16931137 -0.35072926 0.20076357 0.091946095
-0.11670456 -0.12503318 0.056480434 -0.1253242 0.07995879 0.22573932 0.101987466 -0.09383517
-0.12843466 0.11663174 0.11955017 -0.034466967 0.21498471 0.19896165 -0.034960646 0.0084519535
0.06707627 0.13510819 -0.017118797 0.07641314 -0.29421768 0.09695331 0.0369773 0.3479174
0.08928985 0.014929223 0.043445874 -0.117666595 0.20021287 0.07914788 -0.16009618 0.17590575
0.04700035 -0.0069713267 0.04273332 0.12060724 -0.12058963 -0.008852169 -0.16546859 -0.20566961
00000000: f6ab fcbd 4323 163d e8c3 9abe bde8 2f3b
00000010: 92a0 79be b506 f13d 06ac 163d 5991 da3d
00000020: aae2 7d3e a351 f2be e6ed 57be 7115 ad3d
00000030: e66f 063f bb32 0cbe 464e a0be b7ad 2b3e
00000040: dafa 433d b879 c93c 24a2 c43e b93c e23d
00000050: b653 a7bd 9f1b 103c 0355 b3bd 1af9 893c
00000060: a28f 5ebe 8484 583e d7d8 c13d dab7 bc3e
00000070: 2454 203e 410a 483e ba66 103e 9b79 3abe
00000080: b58a 37be 113b 35be 8a68 623d 65e1 cbbb
00000090: e97c 84bd cd9c efbe 0a05 7e3d e635 52be
000000a0: abda 9e3d 834b 003e 06af 873c bd2e 073e
000000b0: 4b6c c93d 7d18 813d fe72 513e 2121 743d
000000c0: d23f 5abe f482 33bd 2f66 d2bd 7049 6dbe
000000d0: 144b 9cbd 8f0e e93d 23a6 bd3c 2128 64bc
000000e0: 0610 433d 1fe1 3b3d e8c4 803c 2092 6b3d
000000f0: 9f82 4ebc d94b fc3d a053 da3b 72c4 013f
00000100: aa10 08be 815b c83d bf8d 303e 4d16 72be
00000110: df3d 09be 5820 cc3c 151f 74bd 624d 3dbe
00000120: 7493 503e 74a0 3bbe 62c3 c8bc fc3a 163d
00000130: 69e7 8a3d 99b8 e13d 2c0a 563e e304 c03c
00000140: a9cb 243a 6f98 663e 69b6 473d 29fc 4d3e
00000150: 40fb 113e 58e9 d83d 5161 f43d 36fe e73d
00000160: 0597 8f3c eee9 e7bd 8fa3 633d 20e4 27bd
00000170: 5be8 6d3d 606f 25be cc53 e0be 9b62 61bd
00000180: 8977 11be 76e5 1fbe 8f2f b93d fed3 e0bc
00000190: 1662 33bd 0b14 b43d fecb ca3d 81f6 883d
000001a0: f808 3d3d b7b7 c03d 1e43 633d 4314 7fbe
000001b0: 05c2 13be 2c20 0ebd 4b51 f6bd 6a01 1f3e
000001c0: af98 933e 7110 babd b571 753e 1aea eabd
000001d0: 5c30 a5bd 0f2a be3d 423a c7ba 052a 003e
000001e0: 3a9c c7bd 7172 2cbe e43b 16be 86e7 113e
000001f0: 8c4c a1bd a0b8 abbd 3b84 9a3d 3336 d1bd
00000200: 8161 7db9 b1f2 04be 601b ee3c 14fe 1cbe
00000210: 54aa f9bc 0049 5bbe 3737 52bd 6d6d ae3d
00000220: 92fe 903d bb75 5ebe 6c55 f23d 55cc f73d
00000230: f53f a33e f30f 3c3d 0fb9 3dbd 871a 5a3d
00000240: 9de9 04be 4944 093e eff9 523e 9e2e 873d
00000250: e5de 8a3d 97b9 013e 1173 3c3d 12d5 033e
00000260: 9777 693e a02a 383c cc60 e9bd eb4c eb3d
00000270: 5901 f03c 5066 94be 50ab 873d 89ff 313e
00000280: f0ae 2b3e 3fa1 933e 0e63 8c3d d91c f83e
00000290: f323 083e e3ac 18bd 8745 35bc 44c2 58be
000002a0: b471 3bbe d09a 333e bc3d babb 23bb 973d
000002b0: be7a a2bd e476 c53d b632 ee3e 7331 c93d
000002c0: a8cf c8bd 961d 5c3d 1f22 113e c2c5 75be
000002d0: 72a9 1b3e 8223 173e 46cc 253e e2b6 143e
000002e0: 0cd3 34bd d6db 80bd 23a2 d2bd fa4c b7bc
000002f0: b2b3 ebbd e677 803e bfc1 79bd a853 933d
00000300: d230 033c f601 ddbd 017f c7bd 9235 f73d
00000310: 01b5 293c 6cf9 d03d 252c 84be 6d14 dd3d
00000320: c07b 813d fd18 153e 55b8 a03d 459e f0bd
00000330: 0ec6 883d 2b03 d13c 9288 013e 30f5 933d
00000340: c13f 183e d358 4abe 0ace ba3d 19a2 563e
00000350: f65f 2dbe c992 b3be f794 4d3e 3c4e bc3d
00000360: cd02 efbd b308 00be 0758 673d fd54 00be
00000370: 6fc1 a33d 3528 673e cede d03d a72c c0bd
00000380: 6084 03be 9fdc ee3d b8d6 f43d 3c2d 0dbd
00000390: f424 5c3e 9abc 4b3e e532 0fbd 107a 0a3c
000003a0: 495f 893d cd59 0a3e b83c 8cbc 7e7e 9c3d
000003b0: b3a3 96be 758f c63d 8275 173d 3b22 b23e
000003c0: 99dd b63d b399 743c 4df4 313d 2ffb f0bd
000003d0: 9a04 4d3e 4918 a23d 41f0 23be a320 343e
000003e0: 7083 403d ba6f e4bb 2209 2f3d ee00 f73d
000003f0: b2f7 f6bd b008 11bc 9970 29be 0e9b 52be

linear_relu_stack.6.bias f4 [50]
0.15606107 0.08143382 -0.028148977 -0.0028412999 0.15512902 -0.17179513 -0.17010258 0.18541071
-0.004000424 0.45479494 0.15505478 -0.056897238 0.23280014 0.063086316 0.011425022 0.16421628
0.048443016 -0.14937888 -0.021475596 -0.049617916 -0.060500093 0.044447504 -0.07366497 0.024665441
-0.15959823 0.117971785 0.16815114 -0.081628285 -0.017645944 0.050556406 0.13403697 0.04133916
0.080670446 -0.1370212 0.14592628 -0.004309427 0.1266533 0.2615321 0.12791668 0.13477139
0.103952155 -0.109847896 0.19279394 -0.13455662 -0.03787384 0.1645111 -0.06138098 0.08282676
0.08537967 -0.19041914
00000000: 79ce 1f3e c6c6 a63d af98 e6bc 1a35 3abb
00000010: 24da 1e3e 10eb 2fbe 5f2f 2ebe 4edc 3d3e
00000020: fd15 83bb e2da e83e aec6 1e3e 140d 69bd
00000030: 2963 6e3e 6633 813d 0430 3b3c 5028 283e
00000040: 2f6c 463d c7f6 18be 97ed afbc 283c 4bbd
00000050: f2ce 77bd 960e 363d a9dd 96bd 2e0f ca3c
00000060: b86d 23be 319b f13d d02f 2c3e bb2c a7bd
00000070: 3a8e 90bc 3c14 4f3d fd40 093e 4053 293d
00000080: 8c36 a53d 494f 0cbe b36d 153e 1836 8dbb
00000090: 67b1 013e 89e7 853e 97fc 023e 8301 0a3e
000000a0: dee4 d43d eff7 e0bd c66b 453e 36c9 09be
000000b0: 9a21 1bbd 9975 283e 9f6a 7bbd 14a1 a93d
000000c0: 89db ae3d 3cfd 42be

linear_relu_stack.8.weight f4 [50, 50]
-0.064022064 -0.09989711 -0.018737657 -0.006726685 0.11112712 0.07610908 -0.030777657 0.121096626
-0.03512879 -0.24549744 0.26403993 0.20014486 0.07503567 0.18939814 -0.20522015 -0.13234353
-0.091373496 0.19074729 0.09770505 -0.03962045 -0.010377248 0.18300495 0.11544781 0.19402847
-0.35538718 0.117489204 -0.21647158 0.100429535 0.18945205 0.24180405 0.0792583 0.18225048
0.06242454 0.23848853 0.07598192 -0.097849704 0.24416862 0.007138527 -0.02705027 -0.1383252
-0.014647017 -0.034885574 -0.021527806 0.07205901 0.26546878 -0.32670736 0.13713261 -0.068116926
-0.068664536 -0.32000297 0.12770483 -0.12267862 0.030241178 0.23814182 0.10978087 0.008863586
0.06253519 0.15098187 -0.15336761 -0.34989536 -0.15211421 -0.12744008 -0.041407976 0.14918661
-0.018226052 -0.24086943 0.0073329406 0.1400003 -0.072525024 0.1719877 0.19036323 0.08963113
-0.07686611 0.15850937 -0.2553469 0.17071037 -0.15622249 0.032760896 0.21264432 0.40218398
-0.10314207 0.12790635 -0.15464246 -0.017881315 -0.0068586855 -0.09624415 0.09932409 -0.05302413
-0.08690763 0.16819268 -0.010602098 0.09209277 0.021071723 -0.07232254 0.0019310442 -0.0015138268
-0.0037220302 0.028905883 -0.16829555 -0.010177889 -0.11706466 -0.09231127 0.1562822 0.059932217
-0.104292735 -0.19794881 -0.0065687667 0.21152188 0.049262516 -0.2122035 0.24403933 -0.19686031
0.1915506 0.20203413 0.16534245 -0.042567864 0.030283114 0.24671958 0.108193815 0.016204566
0.04255847 -0.021473493 0.02627234 -0.027877953 0.1315192 0.28669697 0.09694357 -0.2277712
0.2511704 0.14485364 -0.2603389 -0.038885124 0.06946523 0.01336669 0.017933855 -0.004863661
0.49302962 0.17753148 -0.1885445 0.10483715 0.13361025 0.17122503 -0.09053737 -0.2222696
-0.15471502 0.051428385 -0.19798179 0.012339111 -0.14870703 -0.20325214 -0.10331436 0.046795208
0.022091938 0.14575891 -0.017780323 -0.034855697 0.10771154 -0.006355933 0.050988592 -0.21261635
0.5611225 0.012065946 0.07244992 -0.09402989 0.2080509 -0.082078956 -0.05147608 0.19324933
-0.10511792 0.028348275 0.06551191 0.06052028 0.14048213 -0.3165924 0.100286715 -0.0632048
0.07490313 -0.067037724 0.23129833 -0.16452062 0.12868463 0.082337186 0.10020196 0.043185547
0.06125982 0.03905129 -0.31237498 0.100690275 0.16988084 0.012500806 -0.029170848 0.016306888
-0.01370177 -0.0067467815 -0.21826778 0.019993152 0.24178432 0.10691991 0.097418725 -0.24142227
0.123558 0.22634318 0.07186516 -0.09659547 -0.075256236 -0.052427042 -0.09104185 -0.0875536
0.05396993 0.3968716 -0.10971829 -0.009899637 0.15186529 0.12920049 -0.14652266 0.11455093
-0.09944806 -0.17884016 0.12304817 -0.11933358 0.1773231 0.029432438 -0.054511674 -0.120399274
-0.31000227 0.02504528 0.09351518 -0.29838914 -0.11880346 0.07601638 0.07197958 0.21298683
0.09376475 -0.055317733 0.23068081 0.060213517 -0.17278606 -0.19613498 0.06823228 0.08508245
-0.013605678 -0.13490124 0.1876 -0.24629287 0.05414859 0.54341 0.016933912 -0.19371086
0.07037608 -0.2700903 -0.027608396 0.08716507 -0.043474805 -0.019779546 -0.045831997 0.11816943
00000000: 001e 83bd db96 ccbd b77f 99bc 866b dcbb
00000010: 9e96 e33d 14df 9b3d 6d21 fcbc 8201 f83d
00000020: 35e3 0fbd ae63 7bbe 3e30 873e c6f2 4c3e
00000030: 4dac 993d 96f1 413e 3b25 52be 1085 07be
00000040: 0722 bbbd 4253 433e 9619 c83d 0e49 22bd
00000050: 5505 2abc a665 3b3e e76f ec3d 66af 463e
00000060: 4ff5 b5be 2e9e f03d baaa 5dbe 00ae cd3d
00000070: b8ff 413e 7b9b 773e 2d52 a23d df9f 3a3e
00000080: e0b0 7f3d 5636 743e 699c 9b3d 6d65 c8bd
00000090: 5707 7a3e 4eea e93b 8798 ddbc 1fa5 0dbe
000000a0: 0bfa 6fbc 2de4 0ebd 155b b0bc ad93 933d
000000b0: 86eb 873e 3046 a7be 7e6c 0c3e e380 8bbd
000000c0: fe9f 8cbd 6ed7 a3be 0ec5 023e ee3e fbbd
000000d0: 59bc f73c 73db 733e cbd4 e03d 9338 113c
000000e0: 7312 803d fe9a 1a3e 660c 1dbe 7c25 b3be
000000f0: d4c3 1bbe a77f 02be 699b 29bd 60c4 183e
00000100: cd4e 95bc 7aa6 76be 2a49 f03b 3d5c 0f3e
00000110: 0088 94bd 8b1d 303e 94ee 423e 8790 b73d
00000120: fb6b 9dbd 4850 223e d4bc 82be b3ce 2e3e
00000130: caf8 1fbe 4a30 063d 6fbf 593e 0feb cd3e
00000140: 263c d3bd e2f9 023e 985a 1ebe d67b 92bc
00000150: d3be e0bb a71b c5bd 6e6a cb3d d52f 59bd
00000160: a1fc b1bd b43a 2c3e 6cb4 2dbc 229b bc3d
00000170: 9b9e ac3c d71d 94bd 171b fd3a 996b c6ba
00000180: 4eed 73bb 08cc ec3c ab55 2cbe 29c1 26bc
00000190: 99bf efbd b10d bdbd 7108 203e 7c7b 753d
000001a0: 6e97 d5bd 18b3 4abe cf3e d7bb 3199 583e
000001b0: 7ec7 493d e04b 59be 72e5 793e c095 49be
000001c0: d725 443e 09e2 4e3e 884f 293e a45b 2ebd
000001d0: 4b14 f83c 0fa4 7c3e b894 dd3d 70bf 843c
000001e0: ca51 2e3d 2ee9 afbc 1739 d73c 4e60 e4bc
000001f0: f8ac 063e f2c9 923e 5a8a c63d da3c 69be
00000200: 6899 803e 8354 143e 244b 85be 0246 1fbd
00000210: c943 8e3d f6ff 5a3c 05ea 923c 585f 9fbb
00000220: 616e fc3e d0ca 353e cf11 41be dcb4 d63d
00000230: 20d1 083e 9d55 2f3e a86b b9bd a49a 63be
00000240: 9d6d 1ebe 92a6 523d bdbb 4abe fc29 4a3c
00000250: a846 18be 5421 50be 7b96 d3bd 55ac 3f3d
00000260: 27fa b43c d341 153e 0aa8 91bc d9c4 0ebd
00000270: de97 dc3d 6e45 d0bb 6ad9 503d 1ab8 59be
00000280: b9a5 0f3f 3fb0 453c a060 943d be92 c0bd
00000290: 4c0b 553e 0319 a8bd 95d8 52bd 27e3 453e
000002a0: 1048 d7bd a43a e83c 1c2b 863d 1de4 773d
000002b0: 8cda 0f3e 6618 a2be 1f63 cd3d 8571 81bd
000002c0: d066 993d 134b 89bd 78d9 6c3e 1878 28be
000002d0: e7c5 033e 66a0 a83d af36 cd3d 54e3 303d
000002e0: 94eb 7a3d 3ff4 1f3d 9def 9fbe b436 ce3d
000002f0: 3ef5 2d3e 2ed0 4c3c b4f7 eebc 0696 853c
00000300: 647d 60bc 1b14 ddbb 9781 5fbe aec8 a33c
00000310: 4f96 773e d3f8 da3d 7883 c73d 6637 77be
00000320: fa0b fd3d 82c6 673e 0a2e 933d d9d3 c5bd
00000330: f11f 9abd bdbd 56bd 2674 babd 4d4f b3bd
00000340: 930f 5d3d c132 cb3e fcb3 e0bd 1632 22bc
00000350: 9382 1b3e 224d 043e 090a 16be ae99 ea3d
00000360: 6dab cbbd e021 37be ae00 fc3d 2a65 f4bd
00000370: 3094 353e 4c1c f13c a247 5fbd e593 f6bd
00000380: 9eb8 9ebe c22b cd3c e384 bf3d 76c6 98be
00000390: 3a4f f3bd 7aae 9b3d 086a 933d 3819 5a3e
000003a0: bc07 c03d d994 62bd 9737 6c3e 73a2 763d
000003b0: d4ee 30be 9cd7 48be 5ebd 8b3d b53f ae3d
000003c0: 5aea 5ebc 8d23 0abe 371a 403e 3334 7cbe
000003d0: e9ca 5d3d eb1c 0b3f fdb8 8a3c 245c 46be
000003e0: 5621 903d 4749 8abe 012b e2bc 9a83 b23d
000003f0: a312 32bd b708 a2bc 55ba 3bbd d002 f23d

linear_relu_stack.8.bias f4 [50]
-0.17321567 -0.047526766 0.12418291 -0.05193053 0.13006182 -0.001751799 0.1068034 0.0682838
0.18488552 0.2483148 0.047958083 0.11446241 -0.24249296 0.2242037 0.09005555 0.13223562
-0.01805686 -0.024605878 -0.058431163 0.11254714 0.21921054 0.21131776 0.07908257 0.023285927
-0.08402466 0.24473317 0.2013019 -0.09292596 -0.0693803 0.008883055 0.104723 -0.16574802
-0.08693672 -0.31568038 0.1405322 0.18028164 -0.12520556 0.42287982 -0.11308438 0.17758782
0.1735929 0.07535493 0.13878103 -0.23359703 0.25663593 0.082731076 -0.098317236 0.38819626
-0.17008957 -0.03704945
00000000: 735f 31be 6dab 42bd 9c53 fe3d 1cb5 54bd
00000010: ed2e 053e 9f9c e5ba bebb da3d 60d8 8b3d
00000020: a152 3d3e 3c46 7e3e b26f 443d 456b ea3d
00000030: 1350 78be a895 653e 0b6f b83d c668 073e
00000040: fbeb 93bc 4492 c9bc 8455 6fbd 1d7f e63d
00000050: ba78 603e af63 583e 0bf6 a13d 21c2 be3c
00000060: 1f15 acbd 559b 7a3e 1622 4e3e f74f bebd
00000070: 4217 8ebd 3c8a 113c 0379 d63d d9b9 29be
00000080: e10b b2bd dca0 a1be ace7 0f3e c09b 383e
00000090: e335 00be b483 d83e c998 e7bd 95d9 353e
000000a0: 56c2 313e af53 9a3d 9d1c 0e3e 0f34 6fbe
000000b0: c965 833e e96e a93d 8c5a c9bd a9c1 c63e
000000c0: f62b 2ebe 2ac1 17bd

linear_relu_stack.10.weight f4 [10, 50]
-0.06483556 0.17641668 0.26492178 -0.039208952 0.16787928 0.13672149 -0.025688374 0.001366727
-0.19066657 0.1777005 0.17398751 -0.073360294 0.29859936 -0.2108324 -0.057985507 0.08148265
0.05852336 0.052541338 0.004780506 -0.21920963 0.20639281 -0.1037021 -0.102706015 -0.22173686
-0.1645905 -0.063222416 -0.09621795 -0.56757796 -0.06872322 -0.1152446 0.025129195 0.24340542
-0.12879194 0.22062503 -0.19025275 -0.03274764 0.05642323 -0.6625111 0.12345832 -0.24818185
-0.30549666 0.21930525 0.064208925 0.17147283 -0.13874371 -0.14656766 0.16571157 0.09864212
0.40163112 0.3242588 0.19629508 0.20445342 -0.025411654 -0.1900365 -0.24167357 -0.14487526
0.29198083 0.062126525 -0.23082459 0.14549936 0.015692184 0.11956615 0.5660371 0.13021591
0.07214279 0.13315257 0.08623084 0.24000072 -0.4549847 0.14206603 -0.40398365 -0.23239382
-0.24202284 -0.002708538 0.09798126 0.1762661 -0.12703203 -0.12131173 -0.077234566 0.015060688
-0.34156805 -0.33476433 0.13159135 0.1497831 -0.10932888 -0.21987593 -0.1458818 0.24857493
0.17061615 -0.61633563 0.2817128 -0.21292354 -0.25414023 -0.038861644 0.004315869 -0.40279183
0.18287401 0.13254155 -0.29944557 -0.48487 -0.2107044 -0.24702588 0.0999228 0.049183708
-0.14811844 0.02839524 -0.007203185 0.12565431 -0.06495255 0.33167198 0.1179356 -0.22404136
-0.19831528 -0.14647283 -0.07342502 -0.22009382 -0.27572137 -0.04697919 0.2693909 -0.053591676
0.15256366 0.16233443 0.21277194 0.12675191 -0.22863965 0.3004305 0.14583896 -0.1925146
-0.2061378 0.13523799 0.16990188 0.30320284 -0.06327303 -0.16811898 0.057150412 0.19166185
0.0005536799 0.29513532 -0.3345214 -0.08688327 -0.098673165 0.097274184 0.1301949 -0.07746208
-0.1748873 0.07490302 0.208215 0.32818717 0.18484387 -0.31822833 -0.049425893 -0.08615318
-0.12972477 0.15619445 0.18393424 -0.06053913 -0.21635646 -0.12868425 0.15646842 -0.47411054
0.020754829 0.14899814 0.19793387 0.1064533 0.073922 -0.17232478 0.16108856 0.052931145
-0.24327901 -0.06087996 -0.3449445 0.10662239 -0.019168058 0.1070137 -0.06260288 0.11524992
0.18981883 0.22297193 -0.03699197 -0.00017713479 -0.14265725 -0.0343352 -0.22216576 -0.14304796
-0.05286721 -0.050617915 -0.097271845 -0.3101823 0.020269547 -0.059095178 -0.68851453 -0.004174156
0.09016522 -0.31906855 -0.15787934 0.013327888 0.13819543 -0.14945297 -0.1565166 0.04358208
-0.3494604 0.052663833 0.1955501 -0.08261216 0.1591563 -0.08311928 -0.19617726 0.052807115
0.1924567 -0.08703235 -0.21135488 -0.07680999 -0.16388613 -0.12521863 -0.19837794 0.13362631
-0.54124904 -0.15964402 0.11317277 -0.10479851 0.17227323 -0.058075804 0.063925765 -0.27770782
-0.19309881 -0.024383713 0.15497644 0.066463575 -0.2958116 0.038703874 0.19707894 0.0878477
-0.13016464 -0.13416378 -0.13781615 -0.11520462 -0.13392603 0.3073936 0.123352416 0.12219271
0.20146307 0.09648914 0.16994028 -0.23625647 0.27589038 -0.17478324 0.26772246 0.19692814
-0.18200094 -0.3539822 0.021807382 -0.14982317 -0.17426732 0.15087149 -0.09657006 -0.1531252
00000000: 82c8 84bd 93a6 343e d4a3 873e 9199 20bd
00000010: 8ce8 2b3e b800 0c3e 6d70 d2bc c023 b33a
00000020: 193e 43be 1ff7 353e c829 323e ec3d 96bd
00000030: 04e2 983e 73e4 57be 3682 6dbd 60e0 a63d
00000040: 31b6 6f3d 9635 573d caa5 9c3b 7d78 60be
00000050: a358 533e c461 d4bd 8857 d2bd fd0e 63be
00000060: 698a 28be c17a 81bd eb0d c5bd ca4c 11bf
00000070: c2be 8cbd 5c05 ecbd bedb cd3c 453f 793e
00000080: 09e2 03be 87eb 613e 9ed1 42be 6422 06bd
00000090: 0b1c 673d 549a 29bf b7d7 fc3d 6223 7ebe
000000a0: 0f6a 9cbe 8e91 603e f87f 833d 9396 2f3e
000000b0: d512 0ebe d515 16be 4bb0 293e e104 ca3d
000000c0: 98a2 cd3e 4005 a63e 9401 493e 3d5c 513e
000000d0: 1a2c d0bc ee98 42be 4779 77be 2e5a 14be
000000e0: 837e 953e 6278 7e3d 485d 6cbe c9fd 143e
000000f0: e58c 803c 19df f43d cfe7 103f 5257 053e
00000100: 99bf 933d 2659 083e cb99 b03d c0c2 753e
00000110: c1f3 e8be c279 113e f2d6 cebe a5f8 6dbe
00000120: d6d4 77be ba81 31bb 66aa c83d 1a7f 343e
00000130: af14 02be 4972 f8bd 282d 9ebd 1bc1 763c
00000140: 02e2 aebe 3b66 abbe e2bf 063e be60 193e
00000150: d2e7 dfbd 2827 61be 0a62 15be 6d8a 7e3e
00000160: 00b6 2e3e 2cc8 1dbf a93c 903e a108 5abe
00000170: ab1e 82be 632d 1fbd 226c 8d3b bb3a cebe
00000180: 5343 3b3e f9b8 073e ee50 99be e140 f8be
00000190: e5c2 57be 5af4 7cbe 53a4 cc3d db74 493d
000001a0: 5cac 17be 229d e83c b208 ecbb 86ab 003e
000001b0: d805 85bd e9d0 a93e 3888 f13d 196b 65be
000001c0: 2913 4bbe f9fc 15be db5f 96bd 4660 61be
000001d0: 5a2b 8dbe 406d 40bd 9bed 893e f282 5bbd
000001e0: a639 1c3e ff3a 263e e3e0 593e 41cb 013e
000001f0: 8320 6abe 07d2 993e cf56 153e 8c22 45be
00000200: ca15 53be d47b 0a3e c2fa 2d3e 673d 9b3e
00000210: 4a95 81bd 6227 2cbe 8d16 6a3d 0143 443e
00000220: d424 113a fa1b 973e 6446 abbe dbef b1bd
00000230: 2815 cabd b037 c73d d051 053e 70a4 9ebd
00000240: a815 33be c166 993d 5036 553e 2608 a83e
00000250: b647 3d3e d3ee a2be ce72 4abd 1471 b0bd
00000260: 92d6 04be 70f1 1f3e 4259 3c3e e1f7 77bd
00000270: 8c8c 5dbe cec5 03be 4239 203e 9ebe f2be
00000280: 0806 aa3c f892 183e 2daf 4a3e 3004 da3d
00000290: 6b64 973d e875 30be 66f4 243e 54ce 583d
000002a0: 221e 79be 445d 79bd 919c b0be d75c da3d
000002b0: 5506 9dbc 002a db3d f035 80bd 2608 ec3d
000002c0: de5f 423e c152 643e e484 17bd 42bd 39b9
000002d0: be14 12be 11a3 0cbd 6c7f 63be 2a7b 12be
000002e0: 4a8b 58bd bb54 4fbd 7636 c7bd 37d0 9ebe
000002f0: 520c a63c c90d 72bd 7d42 30bf 5cc7 88bb
00000300: 8ba8 b83d f45c a3be 1fab 21be 375d 5a3c
00000310: 1a83 0d3e 330a 19be e345 20be 2083 323d
00000320: 79ec b2be 08b6 573d 493e 483e 9030 a9bd
00000330: def9 223e 713a aabd b1e2 48be 464c 583d
00000340: 5f13 453e 043e b2bd 6a6d 58be 8e4e 9dbd
00000350: c4d1 27be 5039 00be 9623 4bbe 56d5 083e
00000360: 4c8f 0abf b979 23be 20c7 e73d 9aa0 d6bd
00000370: 6568 303e e5e0 6dbd 83eb 823d b82f 8ebe
00000380: b2bb 45be 5ac0 c7bc 25b2 1e3e 0e1e 883d
00000390: 9e74 97be f487 1e3d 10cf 493e 7fe9 b33d
000003a0: e149 05be 3b62 09be ad1f 0dbe 66f0 ebbd
000003b0: e823 09be b262 9d3e 31a0 fc3d 2c40 fa3d
000003c0: 564c 4e3e 199c c53d d304 2e3e 37ed 71be
000003d0: 8141 8d3e 61fa 32be eb12 893e 88a7 493e
000003e0: 745e 3abe 283d b5be 65a5 b23c 3f6b 19be
000003f0: 2273 32be 0e7e 1a3e 86c6 c5bd dacc 1cbe

linear_relu_stack.10.bias f4 [10]
-0.20621264 0.086159 0.05031421 0.020639727 0.25192484 -0.12912509 -0.08079769 -0.12642461
0.028950995 0.0031423832
00000000: 6829 53be 2174 b03d 4616 4e3d a514 a93c
00000010: 4bfc 803e 5e39 04be 4279 a5bd 7475 01be
00000020: a32a ed3c 71f0 4d3b
