sart/models/mnist_new_6x100/mnist_net_new_6x100.onnx (onnx, 521722 bytes, 14 tensors)

linear_relu_stack.0.weight f4 [100, 784]
0	0xbced76a5	-0.028987238
1	0x3c4b683c	0.012414988
2	0xbbca5eca	-0.0061758505
3	0xbd09e5fa	-0.03366659
4	0xbcb46ea1	-0.022025408
5	0x3cc2ce23	0.023779934
6	0x38c25493	9.266394e-05
7	0x3ce53c61	0.027982892
8	0xbc56cd2a	-0.013110438
9	0xbcf8e96e	-0.030384745
10	0x3c9f7d1a	0.019468833
11	0x3cfe446e	0.03103849
12	0x3c551868	0.013006307
13	0x3d5295c1	0.051412348
14	0x3d2edc47	0.04269054
15	0x3c8dce4a	0.01731028
16	0x3c049a40	0.008093417
17	0x3d10c9a2	0.035348542
18	0x3c76ecce	0.015071107
19	0x3cc50605	0.024050722
20	0x3cba18ea	0.022716958
21	0x3ce1d3f5	0.02756689
22	0x3c779e65	0.015113448
23	0xbcb37a91	-0.02190903
24	0x3c9992f3	0.018746829
25	0xbd0641ae	-0.03277748
26	0xbce5616c	-0.028000556
27	0x3cbd9385	0.023141632
28	0x3c911dfc	0.017714493
29	0xbc419473	-0.011815178
30	0xbc844093	-0.016144073
31	0xbd112562	-0.03543604
32	0xbc9efab4	-0.019406654
33	0xbc7420d0	-0.014900401
34	0x3ce2b54f	0.027674345
35	0x3c91ccc2	0.017797831
36	0x3d58641d	0.05282985
37	0xbcb58d65	-0.022162149
38	0xbd1614f9	-0.036641095
39	0x3d4fa93c	0.050698504
40	0x3e15a21c	0.14612621
41	0xbab628ed	-0.0013897695
42	0x3c4e652f	0.012597366
43	0xbcd71ac9	-0.02625789
44	0x3d817d37	0.06322711
45	0x3cb85261	0.022500219
46	0x3d4caea5	0.04997124
47	0x3d1cad92	0.038251467
48	0xbcbe6e2b	-0.023245892
49	0x3ca42cb7	0.020040853
50	0xbc8a63cc	-0.01689329
51	0x3c1e565a	0.0096641425
52	0xbcdd8041	-0.027038695
53	0x3b70c138	0.003673626
54	0x3c1642fc	0.009171244
55	0xbbf41101	-0.007448316
56	0x3c8740b5	0.016510347
57	0xbc3a13ee	-0.011357291
58	0xbd04f3b5	-0.03245898
59	0xbcaea785	-0.021320114
60	0xbcbb53d3	-0.022867119
61	0x3d016edc	0.031599864
62	0x3d5dd3c2	0.054157026
63	0x3daefb78	0.085440576
64	0x3cb39afc	0.021924488
65	0x3d9638fc	0.07335088
66	0x3e1e1c5b	0.15440504
67	0x3ea620ef	0.32447
68	0xbe01aa70	-0.12662673
69	0xbe64f71c	-0.2235989
70	0xbecd0ed3	-0.40050372
71	0xbeb2c3c4	-0.34914982
72	0xbeeee9f2	-0.4666286
73	0xbe90507a	-0.281864
74	0xbdc4b96a	-0.096056774
75	0xbe44b16d	-0.19208308
76	0xbe67ee51	-0.22649504
77	0xbd70eec9	-0.058821473
78	0x3b58ac2f	0.0033061614
79	0x3d5ffea3	0.0546862
80	0x3d53be99	0.05169544
81	0x3d24b946	0.040215753
82	0xbceafa4a	-0.0286838
83	0x3cf4fdc3	0.02990616
84	0x3ca41c5c	0.020033054
85	0x3c23e51c	0.010003354
86	0x3b2d83a0	0.002647616
87	0x3d015602	0.031576164
88	0x3d293576	0.04131075
89	0x3d9262bb	0.071477376
90	0x3e38bba4	0.18040329
91	0x3f215f1b	0.63035744
92	0x3f11962b	0.56869763
93	0x3e3fa04c	0.18713492
94	0x3dab884a	0.083756045
95	0x3eef87c6	0.46783274
96	0x3dcee3f0	0.101020694
97	0xbe15f29d	-0.14643331
98	0xbea93755	-0.33050027
99	0xbec64ad1	-0.38728955
100	0xbf232e09	-0.6374212
101	0xbeb5f77a	-0.35540372
102	0xbe177ad3	-0.14792947
103	0xbda7629d	-0.08173106
104	0xbe9ef568	-0.31046605
105	0xbe65d8f8	-0.22446048
106	0xbe477d91	-0.19481494
107	0xbaf09b30	-0.0018356796
108	0xbccf2ca3	-0.02528984
109	0x3ba99770	0.0051755235
110	0xbc8e4231	-0.017365547
111	0xbc9492de	-0.018136438
112	0xba027925	-0.00049771584
113	0x3b66534d	0.0035144866
114	0x3db0965a	0.08622427
115	0x3e816f35	0.25280157
116	0x3e27e791	0.1639693
117	0xbd5c8ee2	-0.0538472
118	0x3de7953e	0.113077626
119	0x3eca9431	0.39566186
120	0x3dc7e9a3	0.097613595
121	0xbdeef190	-0.11667168
122	0xbb53fcc9	-0.0032346717
123	0x3e68ce0d	0.22734852
124	0x3e88be7b	0.26707825
125	0x3e87690d	0.26447335
126	0x3de77262	0.11301114
127	0xbdd6191d	-0.10454009
128	0xbef4d813	-0.47821102
129	0xbf1ef74c	-0.62096095
130	0xbe65958c	-0.22420329
131	0xbe922de5	-0.2855064
132	0xbe81eb45	-0.2537481
133	0xbebb0800	-0.3652954
134	0xbdfc34ab	-0.12314733
135	0xbb81b054	-0.0039577875
136	0xbe0a3b34	-0.13499147
137	0xbe3a58b0	-0.18197894
138	0xbd6c482f	-0.057686027
139	0x3d0c6bea	0.034282602
140	0x3c348d7c	0.011020061
141	0x3ab6af25	0.0013937695
142	0x3e219e00	0.15782928
143	0x3e912c5a	0.2835415
144	0x3dd5763d	0.10422943
145	0xbd3a8f87	-0.045547035
146	0x3d4c346d	0.049854685
147	0x3e419c10	0.1890719
148	0x3da956ad	0.08268485
149	0x3e18e43d	0.14930816
150	0xbd619e6e	-0.05508273
151	0xbd3d16ab	-0.046164196
152	0x3bd7bed4	0.006584028
153	0x3e365808	0.17807019
154	0x3e4292fe	0.19001386
155	0x3df70337	0.1206116
156	0xbd4f1db6	-0.050565444
157	0xbe3b7e5c	-0.18309921
158	0xbdd0531b	-0.10172101
159	0xbcfd621d	-0.030930573
160	0xbecdd395	-0.40200487
161	0xbece396a	-0.40278178
162	0x3d040126	0.032227658
163	0x3e081dc5	0.13292606
164	0xbe3bcf56	-0.18340811
165	0xbe47b80c	-0.19503802
166	0xbce8bfec	-0.028411828
167	0xbc936c91	-0.017996104
168	0xbce47b15	-0.027890721
169	0x3d0fe623	0.035131585
170	0x3edc8040	0.43066597
171	0x3e1d6644	0.15371042
172	0xbe7fa883	-0.24966626
173	0xbe01583c	-0.12631315
174	0xbe5021d1	-0.203254
175	0xbd5c06d3	-0.053717446
176	0x3cddd19b	0.027077487
177	0x3e66a75e	0.22524783
178	0x3e79c7f4	0.24392682
179	0xb9650fe2	-0.00021845059
180	0x3e3a0d1a	0.1816906
181	0x3e63afda	0.22235051
182	0x3e4b9663	0.19881587
183	0x3dbe1815	0.09281937
184	0x3c3b9dcd	0.011451197
185	0xbb11ca98	-0.0022246
186	0xbe825a8a	-0.254597
187	0xbe1406d9	-0.14455737
188	0xbe9563f9	-0.29177836
189	0xbd9dff0c	-0.07714662
190	0xbd737fe7	-0.05944815
191	0xbbad4168	-0.005287338
192	0xbeac28f6	-0.33625
193	0xbed5ea98	-0.41780543
194	0xbe00d480	-0.12581062
195	0xbd62a322	-0.055331357
196	0xbc6340f5	-0.013870467
197	0x3d58860c	0.052862212
198	0x3ee8b6fe	0.45452112
199	0x3ea6d80f	0.32586715
200	0xbe74aa7e	-0.23893163
201	0xbeacc29d	-0.33742228
202	0xbd7a457f	-0.061101433
203	0xbe782118	-0.24231374
204	0xbec6461c	-0.38725364
205	0x3d8eb0d8	0.06967324
206	0xbcf77cc9	-0.03021087
207	0xbd7a9cd2	-0.06118471
208	0x3dcc6cfe	0.09981726
209	0x3e54e895	0.20791848
210	0x3e4a91dd	0.19782205
211	0xbdaf288e	-0.08552657
212	0xbb68adbf	-0.0035503951
213	0x3dbb2a5d	0.091389395
214	0xbe236f8c	-0.1596052
215	0xbe7045e0	-0.23464155
216	0xbcb613cf	-0.022226242
217	0x3c8edada	0.017438341
218	0xbaba079e	-0.0014192944
219	0xbe4a2dda	-0.19744053
220	0xbe9782aa	-0.29591876
221	0xbeece01a	-0.46264726
222	0xbd2406a4	-0.040045395
223	0xbc915987	-0.017742885
224	0xbd311e34	-0.043241695
225	0x3dc27d2d	0.09496532
226	0x3eece23f	0.46266362
227	0xbd76371d	-0.060111154
228	0xbe9b5823	-0.3034068
229	0xbe84dc26	-0.2594921
230	0xbed54aec	-0.41658723
231	0xbe954010	-0.29150438
232	0xbe795e15	-0.24352296
233	0x3d84e598	0.06489104
234	0x3d97c7e4	0.07411173
235	0x3d1bc8f2	0.038033433
236	0x3e3347cc	0.17507857
237	0x3eae339c	0.3402375
238	0x3ea3d94e	0.32001728
239	0x3e11ca43	0.14237313
240	0x3dea36ab	0.11436208
241	0x3d23a531	0.03995246
242	0xbb3197ea	-0.0027098604
243	0xbd0f7970	-0.03502792
244	0xbdc221bf	-0.09479093
245	0xbd0baa14	-0.034097746
246	0x3d231679	0.039816353
247	0xbdd5db53	-0.104422234
248	0xbe48dc22	-0.19615224
249	0xbf1619a4	-0.58632874
250	0xbd0d775c	-0.034537658
251	0x3d7c75df	0.061635848
252	0x3d4e3ab8	0.050348967
253	0x3d66ffc1	0.05639625
254	0xbd9a1011	-0.07522596
255	0x3cfe97bf	0.031078218

linear_relu_stack.0.bias f4 [100]
0	0x3deea607	0.11652761
1	0xbe5a6e5e	-0.21331164
2	0xbe524ebf	-0.20537852
3	0xbdb66d0c	-0.08907518
4	0x3cfc8d1e	0.030829009
5	0x3c930355	0.017945925
6	0x3e191e85	0.14953049
7	0x3ac4d285	0.0015016353
8	0xbdfff093	-0.12497058
9	0x3d9e4c10	0.077293515
10	0xbe5ca8d0	-0.21548772
11	0xbdaa28ca	-0.08308561
12	0x3e19ec5e	0.15031573
13	0xbe9de339	-0.3083742
14	0xbd668a0f	-0.056284007
15	0xbdeb538e	-0.11490546
16	0xbdc3d7c6	-0.0956264
17	0x3e06d59c	0.13167423
18	0xbe6079ba	-0.21921435
19	0x3d9b07a4	0.07569817
20	0xbb58130a	-0.0032970333
21	0xbe372aed	-0.17887469
22	0xbcd7b6c3	-0.026332265
23	0x3ca9372a	0.020656187
24	0x3e21b072	0.15789965
25	0x3db1dd39	0.08684773
26	0x3c6d2fc3	0.014476719
27	0x3dd235d4	0.10264173
28	0xbdbeffd3	-0.09326138
29	0xbbeb4a34	-0.0071804766
30	0xbe9371aa	-0.28797656
31	0xbe16af00	-0.14715195
32	0x3da29f4e	0.07940541
33	0xbd7fb90b	-0.06243233
34	0x3d236c7c	0.03989838
35	0x3e1706ce	0.1474869
36	0x3a2dbedd	0.0006627867
37	0xbe2c41e7	-0.16822015
38	0xbde547ce	-0.11195336
39	0xbdc8908a	-0.09793194
40	0x3e6c5270	0.23078322
41	0x3d772b8c	0.060344264
42	0xbe502bbd	-0.20329185
43	0x3e6820fb	0.22668831
44	0xbe040d97	-0.12895809
45	0x3e4691ae	0.1939151
46	0x3e165b9f	0.14683388
47	0xbeaba98c	-0.33527792
48	0xbde88f43	-0.1135545
49	0x3d6729d5	0.05643638
50	0x3d10d80f	0.0353623
51	0xbeb4c5fc	-0.353073
52	0x3cac2327	0.021012856
53	0x3d3d903f	0.046280142
54	0xbd3e7f2d	-0.046508003
55	0xbe03e103	-0.12878804
56	0xbe2c55e2	-0.16829637
57	0xbe8ab717	-0.2709281
58	0xbe508a79	-0.20365323
59	0x3e087c38	0.13328636
60	0xbe39ec46	-0.18156537
61	0xbe5fab0d	-0.21842594
62	0xbe530a12	-0.2060931
63	0x3dfd669a	0.12373085
64	0xbd7e9b24	-0.062159672
65	0xbdbcb1a6	-0.09213571
66	0x3d78e73d	0.0607674
67	0xbdb0703c	-0.08615157
68	0x3e4ac71c	0.19802517
69	0xbe27503b	-0.16339199
70	0x3e82491b	0.254464
71	0xbe46f4ec	-0.19429368
72	0xbda462a0	-0.08026624
73	0xbd88102f	-0.06643712
74	0xbe0cd352	-0.13752487
75	0xbdd8e915	-0.10591332
76	0x3e668f90	0.22515702
77	0xbde8b4bc	-0.11362597
78	0xbce33f85	-0.02774025
79	0x3de00669	0.10938723
80	0x3e9e18f0	0.308784
81	0xbe9937c0	-0.29925346
82	0xbe87e82e	-0.26544327
83	0x3e3bff2b	0.18359058
84	0x3df24996	0.11830442
85	0x3dd3d49f	0.10343289
86	0xbdb9d376	-0.09073536
87	0xbb8240a4	-0.003974991
88	0xbe2ceeb2	-0.1688793
89	0x3ce5842a	0.028017122
90	0x3dfb4367	0.12268715
91	0xbdae0147	-0.084963374
92	0xbe1ed117	-0.15509449
93	0x3de687ab	0.11256345
94	0xbe397e5c	-0.18114609
95	0xbe96e5c0	-0.2947216
96	0x3da9d960	0.08293414
97	0xbd7507b8	-0.059821814
98	0xbe2e563e	-0.17025086
99	0xbec06d04	-0.37583172

linear_relu_stack.2.weight f4 [100, 100]
0	0xbe8b277c	-0.27178562
1	0xbe736b34	-0.23771363
2	0xbd863550	-0.06553137
3	0xbdd118c7	-0.10209804
4	0xbf41a4d8	-0.75642157
5	0xbeae6d2b	-0.34067664
6	0xbea01ddf	-0.3127279
7	0x3df15fe2	0.11785866
8	0x3d18b694	0.037283495
9	0x3df3b28a	0.11899288
10	0xbcb71058	-0.02234666
11	0xbe74f7ac	-0.23922604
12	0xbf011144	-0.5041697
13	0xbc7de63e	-0.015496789
14	0xbd890462	-0.06690289
15	0xbdcf3b63	-0.10118749
16	0x3cfa6e63	0.030570215
17	0xbda82f02	-0.08212091
18	0x3d192e6e	0.037397794
19	0x3da42e78	0.08016676
20	0xbc7cf648	-0.015439577
21	0x3da99b59	0.08281583
22	0x3dd9518e	0.106112584
23	0xbf12aa12	-0.57290757
24	0xbe5bc654	-0.21462375
25	0x3c222cb1	0.009898351
26	0xbeaed3a0	-0.34145832
27	0xbe8a1881	-0.2697182
28	0x3e69171d	0.22762723
29	0xbc6ae176	-0.014335981
30	0x3c3824e0	0.01123926
31	0x3dc120c8	0.09430081
32	0xbdfd5d61	-0.12371326
33	0xbd9e753a	-0.07737203
34	0xbf191548	-0.597981
35	0x3e95be57	0.2924678
36	0xbe61eed4	-0.22063762
37	0x3e01abfa	0.1266326
38	0xbd41cf90	-0.047317088
39	0x3ddedd1a	0.108820155
40	0xbe7af139	-0.24506082
41	0xbe18be80	-0.1491642
42	0x3ceb8728	0.028750971
43	0xbe8c2e5e	-0.27379125
44	0xbe4e1218	-0.2012409
45	0xbddd549b	-0.10807153
46	0xbf142e19	-0.5788284
47	0x3ca8f943	0.02062667
48	0xbd9e385f	-0.07725596
49	0xbebae268	-0.3650086
50	0xbe950159	-0.2910259
51	0x3eb095e3	0.34489354
52	0x3eb84288	0.3598826
53	0xbe27ff8d	-0.16406079
54	0xbd8180e3	-0.06323411
55	0x3dcba208	0.099430144
56	0x3e868e77	0.26280567
57	0xbc3b82e2	-0.011444779
58	0x3dcf5cb2	0.10125102
59	0xbecbbfec	-0.39794862
60	0x3d7e6556	0.06210836
61	0xbf111323	-0.56669825
62	0xbd614d89	-0.055005584
63	0xbe27ed7f	-0.16399191
64	0xbd8693e8	-0.0657118
65	0x3e240d6a	0.16020742
66	0xbd468d84	-0.048474804
67	0xbd9ef230	-0.07761037
68	0xbe400a06	-0.18753824
69	0x3e0ab638	0.13546073
70	0xbee57e63	-0.44822988
71	0x3dc97a5b	0.098377906
72	0x3ed96d31	0.4246612
73	0x3d448a94	0.04798372
74	0x3e3d1f65	0.18469007
75	0xbdf2dbc8	-0.11858326
76	0xbe436f7b	-0.19085495
77	0xbc38d3fd	-0.011281011
78	0xbee5dfec	-0.448974
79	0x3d07088d	0.03296714
80	0x3d43427d	0.04767083
81	0xba9cfe45	-0.0011977634
82	0x3e8db024	0.27673447
83	0xbee07da2	-0.4384585
84	0xbe96e76b	-0.29473433
85	0xbf090e60	-0.5353756
86	0x3e374b2c	0.1789977
87	0x3c281313	0.010258454
88	0x3d6831d4	0.056688145
89	0xbea790dd	-0.3272771
90	0xbf0b5619	-0.5442825
91	0xbe77dfd5	-0.24206479
92	0x3e69eecc	0.22845
93	0xbe4a26a9	-0.1974131
94	0xbd0ead80	-0.03483343
95	0x3e161c4a	0.14659229
96	0xbda87d6d	-0.08227048
97	0xbf0e13de	-0.55499065
98	0xbe97732c	-0.29580057
99	0xbc1adcc4	-0.009452049
100	0xbde3e9ee	-0.11128603
101	0xbc88a166	-0.016678523
102	0xbc8fced0	-0.01755467
103	0x3e2645f8	0.16237628
104	0xbf060f25	-0.5236686
105	0x3ea2dc2a	0.31808597
106	0xbe39a984	-0.18131071
107	0xbcfd126f	-0.030892579
108	0xbd97e659	-0.07416982
109	0x3e6b049f	0.22950982
110	0xbe8d812f	-0.27637622
111	0xbdb8139e	-0.08988117
112	0x3cc5e4bb	0.024156919
113	0xbcb13853	-0.021633303
114	0x3cd0743b	0.025446048
115	0xbe75117b	-0.2393245
116	0x3dfc7cd5	0.12328497
117	0x3d395707	0.04524901
118	0x3e66f4fd	0.22554393
119	0xbea003fc	-0.3125304
120	0x3d01be99	0.03167591
121	0xbd5efca2	-0.05444015
122	0xbdcf73be	-0.10129498
123	0xbe76c8e1	-0.24100067
124	0xbdf72582	-0.12067701
125	0xbe33e707	-0.17568599
126	0xbddb33ee	-0.10703264
127	0x3e95f799	0.29290465
128	0x3c2e4e50	0.010638788
129	0xbdb4840e	-0.0881425
130	0xbe190d87	-0.14946567
131	0xbe245c59	-0.16050853
132	0x3db16c90	0.08663285
133	0x3e8ff603	0.2811738
134	0x3e0313e8	0.12800562
135	0xbc872054	-0.016494907
136	0x3d4bacd3	0.049725365
137	0x3d929c73	0.071587466
138	0xbdd0c84e	-0.10194455
139	0x3dbdf8df	0.09275984
140	0x3dba350a	0.09092148
141	0x3e43fe73	0.19140033
142	0xbf067c91	-0.52533823
143	0x3e66bca5	0.225329
144	0x3e6e796c	0.23288506
145	0x3e4da076	0.20080742
146	0xbdabcccb	-0.083886705
147	0x3e0be333	0.13660888
148	0xbe0e4357	-0.13892876
149	0xbdd76af4	-0.105184466
150	0x3e2a9cdc	0.166614
151	0xbe00c726	-0.12575969
152	0xbef34740	-0.47515297
153	0xbe38c93e	-0.18045518
154	0xbe92a0fe	-0.28638452
155	0x3e0328d2	0.1280854
156	0x3e45ddd3	0.193229
157	0x3dfcf073	0.123505495
158	0xbc71f693	-0.0147682605
159	0xbed17c64	-0.40915215
160	0xbe374dc6	-0.17900762
161	0x3e084a52	0.13309601
162	0x3d2dd474	0.04243894
163	0xbe919eb8	-0.28441405
164	0x3da6e9f1	0.081500895
165	0xbb8bffae	-0.0042724228
166	0xbeab918c	-0.3350948
167	0xbef8291d	-0.48468867
168	0x3d7955bd	0.060872782
169	0xbde10248	-0.10986763
170	0xbcd32cc4	-0.025778182
171	0xbe27680c	-0.16348284
172	0xbe346571	-0.17616822
173	0x3d902ef1	0.07040203
174	0xbe9c2d89	-0.3050349
175	0x3e602ba5	0.21891649
176	0x3e10aa79	0.1412753
177	0xbe37f315	-0.17963822
178	0xbe1144dc	-0.14186424
179	0xbe11414d	-0.14185067
180	0x3e78c4c7	0.24293815
181	0xbe432ca1	-0.19059993
182	0xbcfc7009	-0.030815141
183	0x3cf66032	0.030075166
184	0x3eaa5857	0.33270523
185	0x3e76fbef	0.24119543
186	0x3e7d08e5	0.24710424
187	0xbcb09404	-0.021554954
188	0xbe4bb74f	-0.19894145
189	0x3e0ea17d	0.1392879
190	0x3d43060d	0.047613192
191	0x3cc3a056	0.023880165
192	0xbe00642e	-0.12538216
193	0x3eb0be88	0.34520364
194	0x3d09a4de	0.033604495
195	0x3e767e1b	0.24071543
196	0xbdbcd786	-0.09220795
197	0x3e1e065c	0.15432113
198	0xbe98e211	-0.29859975
199	0xbe7fc6dc	-0.24978203
200	0xbdf123de	-0.11774419
201	0xbdaf22d1	-0.085515626
202	0xbdb4901c	-0.08816549
203	0x3e832c1f	0.256196
204	0x3c44e903	0.012018445
205	0x3de5828f	0.11206543
206	0x3d9849ed	0.07435975
207	0x3ee73a17	0.45161507
208	0x3e1c81c0	0.1528387
209	0xbf098fd2	-0.5373508
210	0xbe8f4fba	-0.27990514
211	0xbe818bd3	-0.2530199
212	0x3c72e7c7	0.014825768
213	0x3d8068f7	0.062700205
214	0x3e07f358	0.13276422
215	0xbc98be18	-0.018645331
216	0xbebee3de	-0.37283224
217	0xbe1c311c	-0.15253109
218	0xbdd23d48	-0.10265595
219	0xbe48cb05	-0.19608696
220	0xbdc75e3c	-0.09734771
221	0x3e07cdf8	0.13262165
222	0xbeebe88b	-0.46075854
223	0x3df6cdb8	0.120509565
224	0x3e0b1649	0.1358272
225	0xbea658e1	-0.32489684
226	0xbdaea73f	-0.085279934
227	0x3dbdffbd	0.09277294
228	0xbd949e47	-0.072567515
229	0xbc2a2c60	-0.010386556
230	0xbdfba016	-0.12286393
231	0x3d87d4a6	0.06632356
232	0xbcda6a27	-0.026661946
233	0xbdfc67e3	-0.12324502
234	0xbe87120a	-0.2638095
235	0x3d16255b	0.03665672
236	0x3e12afb3	0.14324836
237	0xbe524077	-0.20532404
238	0x3d1d98ab	0.038475674
239	0xbdb93165	-0.090426244
240	0xbea26a4d	-0.31721726
241	0xbe249227	-0.16071378
242	0x3cd8f517	0.026484055
243	0xbe843a9b	-0.25825962
244	0x3edf2c2a	0.43588382
245	0xbe0316b1	-0.12801625
246	0x3e037f8e	0.12841627
247	0xbd334a18	-0.043771833
248	0x3b28944d	0.002572316
249	0xbe87cafc	-0.26522052
250	0x3e89ab50	0.26888514
251	0xbed75f97	-0.42065117
252	0x3e551a46	0.20810804
253	0xbf0310a0	-0.5119724
254	0xbe1799f6	-0.14804825
255	0x3d081ab6	0.0332286

linear_relu_stack.2.bias f4 [100]
0	0xbea607c6	-0.32427806
1	0x3e033f9e	0.12817237
2	0x3e77b0e8	0.24188578
3	0x3ed2df74	0.41186106
4	0x3ee1e658	0.4412105
5	0x3e86103a	0.26184255
6	0xbded93b8	-0.11600441
7	0xbde8b088	-0.11361796
8	0xbee1d8c2	-0.44110686
9	0x3ea3c3a8	0.3198521
10	0xbd58740c	-0.052845046
11	0x3dd9b56e	0.10630308
12	0xbdc85deb	-0.097835384
13	0xbe366a92	-0.17814091
14	0x3e6ef899	0.2333702
15	0xba3f4c86	-0.00072974747
16	0x3e74dcb0	0.2391231
17	0xbdce6010	-0.10076916
18	0xbe13c5bc	-0.14430898
19	0x3dbeeae0	0.093221426
20	0x3d0e6376	0.034762822
21	0x3d8eae0c	0.069667906
22	0x3db7e990	0.089800954
23	0xbe82e2fe	-0.25563806
24	0x3aa2a3ab	0.0012408396
25	0x3e58f699	0.2118782
26	0x3e043f04	0.12914664
27	0xbe9b1ecf	-0.30296943
28	0x3dc1c2d2	0.09460987
29	0xbda2ee0b	-0.07955559
30	0x3d49c80a	0.049263038
31	0xbe7da325	-0.24769266
32	0xbd9b47f0	-0.0758208
33	0xbddb4ca7	-0.1070798
34	0xbe032e40	-0.12810612
35	0xbdc293ec	-0.0950087
36	0x3e4a886a	0.197786
37	0xbdf00a4a	-0.117207125
38	0x3da30899	0.07960624
39	0x3d80ff93	0.06298747
40	0x3d91cfc2	0.07119705
41	0x3ab64db9	0.0013908661
42	0x3e177b59	0.14793147
43	0x3e15e807	0.14639293
44	0xbddae088	-0.10687357
45	0xbe928a14	-0.2862097
46	0x3d87b16c	0.066256374
47	0x3bed37e0	0.007239327
48	0xbd9704b1	-0.07373942
49	0xbca26cc0	-0.019827247
50	0x3cefabf8	0.029256806
51	0xbe8eba01	-0.27876285
52	0xbdba382e	-0.09092747
53	0xbadb4d6b	-0.0016731446
54	0x3d34dcda	0.044155933
55	0x3c398656	0.011323532
56	0x3e0c6f83	0.13714413
57	0xbe3dc874	-0.18533498
58	0xbe354d47	-0.1770526
59	0x3e039870	0.12851119
60	0x3d9156c0	0.070966244
61	0x3d54da44	0.051965967
62	0x3e08ae87	0.13347827
63	0x3c0f30ad	0.008739633
64	0xbe406ca1	-0.18791439
65	0xbdbaf163	-0.09128072
66	0xbe954e89	-0.2916148
67	0xbe704f94	-0.23467857
68	0x3e34a64a	0.17641559
69	0xbe8902d4	-0.2675997
70	0x3ea00862	0.31256396
71	0xbdd27b6d	-0.10277448
72	0x3da56ea7	0.08077746
73	0x3d4982fc	0.049197182
74	0xbad80287	-0.0016480245
75	0x3e364139	0.17798318
76	0x3d78470e	0.060614638
77	0x3e1a35bf	0.15059565
78	0x3e1a3948	0.15060914
79	0x3e2d9991	0.16953112
80	0xbd0c22f4	-0.03421302
81	0xbe2ac6f9	-0.16677465
82	0x3e8f0f11	0.27941182
83	0xbe8d1731	-0.27556756
84	0xbe218602	-0.15773776
85	0xbde06b40	-0.10957956
86	0x3d50e649	0.051000867
87	0xbe57053f	-0.20998095
88	0xbdf34984	-0.11879256
89	0x3e62c47f	0.2214527
90	0xbe44e88d	-0.19229336
91	0x3d52bdf5	0.05145069
92	0x3aa9483b	0.0012915203
93	0xbba66196	-0.005077551
94	0x3e41d6fb	0.18929665
95	0xbe0d3877	-0.13791071
96	0x3ded3a5a	0.11583395
97	0xbe7f263a	-0.24916926
98	0xbdb9fd8f	-0.090815656
99	0xbdc23609	-0.09482963

linear_relu_stack.4.weight f4 [100, 100]
0	0x3e8535c3	0.2601758
1	0xbe70105f	-0.23443745
2	0xbdd0aec8	-0.10189587
3	0xbea71d17	-0.3263938
4	0xbd4501b4	-0.048097327
5	0xbed2e28c	-0.41188467
6	0x3dddf26c	0.10837254
7	0xbe3d0340	-0.18458271
8	0x3e65f7af	0.22457765
9	0xbe85778b	-0.26067767
10	0x3e847ecb	0.25877985
11	0xbdd621b2	-0.104556456
12	0xbce137fb	-0.027492514
13	0x3e08f25b	0.13373701
14	0xbdfefbe2	-0.124503866
15	0x3e3cd79f	0.18441628
16	0xbe2f92b4	-0.17145807
17	0x3d1231ac	0.035691902
18	0x3c97eaf0	0.018544644
19	0xbe995bee	-0.2995295
20	0x3e079b43	0.13242821
21	0xbe80aa3f	-0.25129887
22	0x3d70fe29	0.058836136
23	0x3d8c688e	0.0685588
24	0xbf1d56bd	-0.6146048
25	0xbeb6a2ec	-0.35671175
26	0xbe8a61ac	-0.27027643
27	0x3ef7a17b	0.48365387
28	0x3ddd92f5	0.108190455
29	0xbf023806	-0.50866735
30	0x3e90a384	0.28249753
31	0x3e2003d8	0.15626466
32	0xbe3215b9	-0.17391099
33	0x3e3c487c	0.18387026
34	0x3e80d14a	0.25159675
35	0xbc442bcb	-0.011973332
36	0xbdf9f9d1	-0.12205852
37	0x3d947893	0.0724956
38	0xbec3b0f4	-0.38220942
39	0xbde300b9	-0.11084122
40	0xbefc0ff3	-0.49230918
41	0xbd864544	-0.0655618
42	0x3d622888	0.055214435
43	0xbedb964a	-0.428881
44	0xbed03df3	-0.40672264
45	0xbe91cd8f	-0.2847714
46	0xbe2f8715	-0.17141373
47	0x3e5bd83a	0.21469203
48	0xbeb73f68	-0.35790563
49	0xbe4e6d98	-0.20158994
50	0x3e8ec44a	0.27884132
51	0xbe81b9fa	-0.253372
52	0x3e058bb7	0.13041578
53	0xbdd0b5ce	-0.101909265
54	0x3e81a8f7	0.25324222
55	0xbddc06d7	-0.10743492
56	0xbe3c2933	-0.18375091
57	0xbe22b29e	-0.1588845
58	0x3ea86f76	0.32897538
59	0x3e66d15c	0.22540802
60	0xbe17d647	-0.14827834
61	0x3d375791	0.044761244
62	0xbec7d4c3	-0.39029512
63	0x3db62e21	0.08895517
64	0x3de1d79e	0.11027454
65	0xbd1029da	-0.035196163
66	0xbe76e6ce	-0.24111483
67	0xbf05b632	-0.52231133
68	0xbee35ddc	-0.44407547
69	0x3f07244a	0.5278975
70	0xbe494ad5	-0.19657452
71	0xbe1d6bf8	-0.15373218
72	0x3edb555f	0.4283857
73	0xbe986fc2	-0.29772764
74	0xbf159c6d	-0.5844181
75	0xbf225783	-0.6341478
76	0x3def381c	0.11680624
77	0x3c30b5d9	0.010785543
78	0xbefd60f9	-0.49488047
79	0xbf254c4d	-0.6456955
80	0xbe13be87	-0.14428149
81	0x3ec2cce3	0.3804694
82	0xbeac822a	-0.33693057
83	0x3e4db05c	0.20086807
84	0xbda2e050	-0.079529405
85	0x3f07ef3f	0.53099436
86	0xbe9efd86	-0.31052798
87	0xbd2871b6	-0.04112407
88	0xbd925a57	-0.07146137
89	0xbf26df0b	-0.65184087
90	0x3e1e2373	0.1544321
91	0x3d47fada	0.048823215
92	0xbe4f9c86	-0.20274553
93	0xbde1b32a	-0.11020501
94	0x3d8758f0	0.0660876
95	0xbe913a70	-0.28364897
96	0xbe984e9a	-0.29747468
97	0x3e42d760	0.19027472
98	0xbeb8a882	-0.3606606
99	0xbe9ca506	-0.30594653
100	0xbe37b558	-0.17940271
101	0xbd93f3a4	-0.07224205
102	0x3ebb13ce	0.36538547
103	0x3e2ce0b1	0.16882588
104	0x3e686651	0.2269528
105	0x3ec665cc	0.3874954
106	0x3e6bd5b5	0.23030742
107	0x3b702f07	0.0036649124
108	0xbd088e46	-0.033338808
109	0xbe6c55b1	-0.23079564
110	0x3e5c8bbd	0.21537681
111	0xbd6763fd	-0.05649184
112	0x3e8c130e	0.27358288
113	0x3e7fe65f	0.24990223
114	0xbca80df4	-0.020514466
115	0xbd8cbddf	-0.068721525
116	0xbe2851a6	-0.16437396
117	0xbbaf2fdf	-0.005346283
118	0xbec456a2	-0.38347346
119	0xbd2f9d03	-0.042874347
120	0xbd55395e	-0.052056663
121	0x3d9ba36e	0.07599531
122	0x3e3deefd	0.18548198
123	0xbe1f522f	-0.15558694
124	0xbe257568	-0.16158068
125	0xbc5ef476	-0.013608089
126	0x3d306777	0.04306742
127	0xbe2a43af	-0.16627382
128	0xbeff36a2	-0.4984637
129	0xbdd066ae	-0.101758346
130	0x3d86d8f4	0.06584349
131	0xbe74cf84	-0.23907286
132	0xbdd79719	-0.105268665
133	0xbeb4293a	-0.35187703
134	0x3e89406e	0.26806968
135	0x3e805e24	0.25071824
136	0x3d31f89b	0.04344998
137	0x3e3d31c6	0.18476018
138	0xbe06345b	-0.1310591
139	0xbd92d378	-0.07169241
140	0xbe7bb0f7	-0.24579225
141	0xbdc192f1	-0.09451855
142	0x3c628423	0.013825449
143	0x3dc67608	0.096904814
144	0x3e728d22	0.2368665
145	0xbe6cc438	-0.23121727
146	0x3c8aac26	0.01692779
147	0xbe923ea8	-0.28563428
148	0x3cdb5bca	0.026777167
149	0x3e1993f1	0.14997841
150	0x3e5082f6	0.20362458
151	0xbde1be16	-0.11022584
152	0x3d6e4d87	0.058179405
153	0x3e0b8613	0.13625364
154	0x3ce59a3b	0.028027644
155	0x3dc01211	0.09378446
156	0x3e0f3238	0.13984
157	0xbec7bdac	-0.39011896
158	0x3cf3ca36	0.029759508
159	0xbe18fc83	-0.14940076
160	0x3e1cf39f	0.15327309
161	0x3e02f076	0.12787041
162	0xbeaf3f9d	-0.3422822
163	0x3dc0d131	0.094149
164	0xbd40e8d2	-0.047097035
165	0xbdccdadd	-0.10002682
166	0xbe92e6a7	-0.286916
167	0x3d7444c1	0.05963588
168	0xbdac5a42	-0.08415653
169	0x3d5bf611	0.053701464
170	0x3d344678	0.044012517
171	0x3dff3cfe	0.12462805
172	0xbde7325f	-0.112889044
173	0xbd5424ab	-0.05179278
174	0x3e3d339e	0.18476722
175	0xbdb064d6	-0.08612983
176	0xbe77082f	-0.24124216
177	0x3dec9903	0.11552622
178	0x3e8376b3	0.25676498
179	0x3e10e38c	0.14149302
180	0x3d92211c	0.07135221
181	0xbe0139ae	-0.1261966
182	0x3de4c7ec	0.111709446
183	0xbe012c7f	-0.1261463
184	0xbdd1bc65	-0.102410115
185	0xbf2ccf54	-0.6750386
186	0xbf0b308a	-0.5437094
187	0xbdfe7122	-0.12423922
188	0xbe4bb9af	-0.19895051
189	0xbdde3548	-0.10850006
190	0xbd859068	-0.06521684
191	0x3e827e2b	0.25486884
192	0x3ea18c6f	0.31552455
193	0xbd8d7a5c	-0.06908104
194	0xbe2cd2dc	-0.16877311
195	0xbea21bad	-0.3166174
196	0x3df012f7	0.11722367
197	0xbef1e3c7	-0.47244093
198	0x3e17cfbd	0.1482534
199	0xbe9862ae	-0.29762787
200	0xbe27273b	-0.16323559
201	0x3e7a5597	0.24446712
202	0x3e752b72	0.23942354
203	0x3e418ef0	0.18902183
204	0x3e1b56a1	0.15169765
205	0x3dd8c26e	0.105839595
206	0xbe865547	-0.26236936
207	0xbd6073f1	-0.05479807
208	0x3d81954b	0.063273035
209	0xbe1a94a5	-0.15095766
210	0x3e39a07c	0.18127626
211	0x3be9ebd4	0.0071387086
212	0xbe9324e4	-0.28739083
213	0xbdcf1e16	-0.1011316
214	0xbdf3aba1	-0.1189797
215	0x3e23a23f	0.1597986
216	0xbdd6f802	-0.104965225
217	0x3e583b6e	0.2111642
218	0xbd85ded5	-0.065366425
219	0x3e2dd523	0.16975836
220	0xbe147486	-0.14497575
221	0xbd5ddbc8	-0.054164678
222	0xbdbef7da	-0.09324618
223	0x3d3f9b1a	0.046778776
224	0xbe52ebf6	-0.20597824
225	0xbe12f1af	-0.14350007
226	0x3df87da0	0.12133336
227	0x3dfc58b7	0.123216085
228	0x3c42b0fc	0.011883017
229	0xbf02d6da	-0.5110909
230	0xbc9242e2	-0.017854158
231	0x385e929b	5.306546e-05
232	0x3cc1932d	0.02362975
233	0x3dafe439	0.08588452
234	0x3e4dbac0	0.2009077
235	0xbe3bcd7f	-0.1834011
236	0x3ca64add	0.02029937
237	0xbdd38a8b	-0.10329159
238	0xbdf3bfb3	-0.11901798
239	0x3c8e2474	0.017351367
240	0xbef344dd	-0.47513476
241	0xbda9a4c1	-0.082833774
242	0x3e4bcd4d	0.19902535
243	0xbe4f9d73	-0.20274906
244	0xbe99c650	-0.30034113
245	0xbeb93ae1	-0.36177734
246	0xbd45de05	-0.048307437
247	0x3dee2677	0.1162843
248	0x3e83a0c0	0.2570858
249	0xbd990763	-0.07472112
250	0xbd6d3d89	-0.057920013
251	0xbee6df3c	-0.4509219
252	0x3dc6f6bf	0.09715032
253	0x3e84ff1e	0.2597589
254	0x3cd0b866	0.025478553
255	0x3c9bd479	0.019022213

linear_relu_stack.4.bias f4 [100]
0	0xbe72f4c5	-0.23726185
1	0x3e17bf0d	0.14818974
2	0x3e6f61d8	0.23377168
3	0x3e348c56	0.17631659
4	0x3e35a128	0.17737257
5	0x3c8527c5	0.016254315
6	0xbd839d21	-0.06426454
7	0xbd9c7a89	-0.07640559
8	0x3dd632af	0.10458886
9	0x3e4705ab	0.19435756
10	0x3deb1bfe	0.114799485
11	0xbe3084a1	-0.17238094
12	0x3d5caaac	0.053873703
13	0x3d0a44be	0.033756964
14	0xbe8d895b	-0.27643856
15	0x3e2fa86f	0.17154096
16	0xbbdf85ab	-0.0068213544
17	0xbe8c993d	-0.27460662
18	0x3eb8ac61	0.36069015
19	0xbe429785	-0.19003113
20	0x3e1c88d1	0.15286566
21	0x3c746790	0.014917269
22	0xbe9e2a39	-0.30891588
23	0xbc29d13b	-0.010364826
24	0xbe5c9849	-0.21542467
25	0xbcaf5f08	-0.02140762
26	0x3e06bb43	0.13157372
27	0xbd368753	-0.04456265
28	0xbc2bee08	-0.010493763
29	0x3d748681	0.059698585
30	0xbdb25679	-0.087078996
31	0xbe171a01	-0.14756013
32	0x3dd1967d	0.102337815
33	0x3e04cb16	0.12968096
34	0x3bc0d3b9	0.0058846143
35	0x3d9a0f04	0.07522395
36	0x3d574d2f	0.052563842
37	0xbd4f8a4d	-0.050669003
38	0x3e439010	0.19097924
39	0x3ddfb20c	0.109226316
40	0x3ce17e7f	0.027526138
41	0xbe15ba56	-0.14621863
42	0x3def70b3	0.116914175
43	0xbe09c1fa	-0.13452902
44	0xbe9264bf	-0.28592488
45	0x3e864012	0.26220757
46	0xbdd43404	-0.10361484
47	0xbe15dc86	-0.14634904
48	0xbcdc73eb	-0.026910743
49	0xbe113323	-0.14179663
50	0xbd80a37d	-0.06281183
51	0x3e6d5602	0.2317734
52	0xbda5922c	-0.08084521
53	0x3da0c0ce	0.078492746
54	0x3ea84ac2	0.32869536
55	0x3e072a28	0.13199675
56	0xbeac6dd9	-0.33677557
57	0x3dda080c	0.10646066
58	0xbb9019bb	-0.0043975986
59	0x3dae4b20	0.08510423
60	0x3e6b0d9f	0.22954415
61	0x3e3f068a	0.18654838
62	0xbcadb462	-0.021204177
63	0x3e06c00e	0.131592
64	0x3db14247	0.086552195
65	0x3c076152	0.008262949
66	0xbe72b379	-0.23701276
67	0xbe8ca36a	-0.27468425
68	0xbda2ca9f	-0.07948803
69	0xbf0bd50d	-0.54621965
70	0xbe74ef84	-0.23919493
71	0xbe075d9b	-0.13219301
72	0x3cf9ec6d	0.030508244
73	0x3df5a05c	0.11993477
74	0x3ceafa25	0.028683731
75	0x3ebfa048	0.37426972
76	0xbce5cc75	-0.028051594
77	0xbd5e36fe	-0.054251663
78	0x3e788a52	0.24271515
79	0xbd41c515	-0.047307093
80	0xbe859d1c	-0.26096427
81	0xbe19295d	-0.14957185
82	0xbeab57c2	-0.3346539
83	0x3e31016b	0.17285697
84	0x3ded887d	0.11598299
85	0x3c927cd3	0.017881786
86	0xbc1f2816	-0.009714147
87	0xbe46cfb3	-0.19415168
88	0x3c6b560b	0.014363776
89	0xbdd2c017	-0.102905445
90	0xbdf25a3e	-0.118336186
91	0x3c89787c	0.016781084
92	0xbd1bd0d3	-0.038040947
93	0xbd8d3d89	-0.068965025
94	0xbd35c1dc	-0.04437433
95	0xbcd128ce	-0.025532153
96	0x3dd4dfe0	0.10394263
97	0x3e72512d	0.23663779
98	0x3d85e479	0.06537718
99	0x3cab5729	0.020915585

linear_relu_stack.6.weight f4 [100, 100]
0	0x3c5440cf	0.012954905
1	0x3d94e06b	0.07269367
2	0xbd8529ad	-0.0650209
3	0xbdc0c12c	-0.094118446
4	0xbcfc8d3f	-0.03082907
5	0xbce31387	-0.027719272
6	0x3ba3bb40	0.004996687
7	0xbd2f5ce8	-0.04281321
8	0xbd3761f1	-0.04477114
9	0xbe17d1f3	-0.14826183
10	0xbd67fd3e	-0.056637995
11	0x3db55658	0.088543594
12	0xbde8d3cb	-0.11368521
13	0x3cb1ea0e	0.021718051
14	0xbc15501a	-0.009113336
15	0xbe1d7dd1	-0.15380026
16	0xbda5bf03	-0.08093073
17	0x3d3f1efc	0.04666041
18	0xbe136eb6	-0.14397702
19	0xbcb387d1	-0.021915348
20	0x3d3f0e99	0.04664478
21	0x3d9ed613	0.07755675
22	0x3d2ebb5a	0.04265914
23	0xbe5bfd5e	-0.2148337
24	0x3dc2f2d4	0.09518972
25	0xbdd8927c	-0.10574815
26	0xbded310b	-0.1158162
27	0x3adcfa76	0.0016859311
28	0xbc6a09d9	-0.014284574
29	0x3b6ee75c	0.003645382
30	0xbdb72e37	-0.08944362
31	0x3c9d8574	0.019228674
32	0xbd4c0ae8	-0.04981509
33	0xbe0554d5	-0.13020642
34	0xbcd7f883	-0.026363617
35	0xbe1e9e6b	-0.15490119
36	0xbd97bf3d	-0.07409523
37	0x3b200f37	0.0024423131
38	0x3bc544c7	0.006020162
39	0xbd035591	-0.032064024
40	0xbd07bb64	-0.033137694
41	0xbdb79056	-0.08963077
42	0xbd7b4db4	-0.0613534
43	0xbd80bb73	-0.06285753
44	0xbd5e3c1a	-0.054256536
45	0xbe33514e	-0.17511484
46	0xbd238afd	-0.03992747
47	0xbc9679e0	-0.018368661
48	0xbbb5cfb2	-0.005548441
49	0x3cec53bb	0.02884852
50	0xbe185df5	-0.14879592
51	0xbd1a1442	-0.037616976
52	0x3d38bfa5	0.04510464
53	0x3c6f5273	0.01460706
54	0xbcd7bc21	-0.026334824
55	0xbdc6db71	-0.09709824
56	0xbd5f0ad2	-0.05445368
57	0xbe2a1517	-0.16609608
58	0xbbbfad25	-0.005849498
59	0xbd48d3c6	-0.049030088
60	0x3bad09a9	0.0052806926
61	0xbd2bb2ed	-0.041918684
62	0xbcc4c59a	-0.024020005
63	0xbc6bb24f	-0.014385774
64	0xbe0ea0e8	-0.13928568
65	0x3c87d10a	0.01657917
66	0xbda855d2	-0.08219494
67	0xbd095c3b	-0.033535223
68	0xbe17e59d	-0.14833684
69	0x3d35faf6	0.044428788
70	0x3d123bc0	0.035701513
71	0xbdf54377	-0.119757585
72	0xbd382b5a	-0.04496322
73	0xbdbd82d7	-0.09253471
74	0x3d47ffff	0.04882812
75	0xbbc5cd81	-0.006036461
76	0xbe1f43fc	-0.15553278
77	0x3b4222c8	0.0029622782
78	0x3d372d4f	0.044720944
79	0xbc4eba1d	-0.012617615
80	0xbd6b991a	-0.057519056
81	0xbdbe93ac	-0.0930551
82	0x3d15031e	0.036379926
83	0xbe2b2dcd	-0.1671669
84	0xbd06bcba	-0.032894827
85	0x3d0911dc	0.033464298
86	0x3cac3f90	0.021026403
87	0x3ce8d0f7	0.028419955
88	0xbdb388ee	-0.08766352
89	0xbb65aa24	-0.0035044039
90	0xbe368712	-0.17824963
91	0xbe1f1625	-0.15535791
92	0x3bf52741	0.007481486
93	0xbe1c0e5a	-0.1523985
94	0xbd4941cc	-0.049135014
95	0xbdd98db7	-0.10622733
96	0x3ac2b634	0.0014855326
97	0xbd35e358	-0.044406265
98	0x3dd46295	0.103703655
99	0xbdb33cc3	-0.08751824
100	0xbe43071f	-0.19045685
101	0x3e44fa3c	0.19236082
102	0xbe1e0b49	-0.15433992
103	0xbcf7c449	-0.030244963
104	0xbeac6772	-0.33672673
105	0x3d18f60b	0.03734402
106	0xbe6d4222	-0.23169759
107	0x3ddb4f0d	0.10708437
108	0x3e8ca00b	0.27465853
109	0xbdcc8484	-0.09986213
110	0x3dee5302	0.11636926
111	0xbd471506	-0.048604034
112	0x3d17ca9d	0.03705846
113	0x3dd7bbe1	0.10533882
114	0x3e94ba2b	0.29048285
115	0xbdf9bb48	-0.12193924
116	0xbde8778f	-0.11350929
117	0x3e3f85e1	0.18703414
118	0xbd7baf34	-0.061446384
119	0xbdca44af	-0.098763816
120	0xbe26e4f5	-0.16298278
121	0xbe67d903	-0.22641377
122	0x3df71a5a	0.12065573
123	0xbd4ef973	-0.050530862
124	0x3eb27a9f	0.34859177
125	0x3e129621	0.14315082
126	0xbe8df406	-0.27725238
127	0xbe263267	-0.16230164
128	0x3e5770d8	0.2103914
129	0xbdd43b87	-0.103629164
130	0x3d805f37	0.06268161
131	0x3e02f078	0.12787044
132	0xbd36f522	-0.04466737
133	0xbd950f26	-0.0727828
134	0xbd98269d	-0.0742924
135	0x3b4e5211	0.003148202
136	0x3d6af7e5	0.057365317
137	0xbc8bdf18	-0.017074153
138	0xbe042448	-0.12904465
139	0xbe322031	-0.17395093
140	0xbe1cfcdd	-0.15330835
141	0xbd9421ec	-0.072330326
142	0xbd8849c2	-0.06654693
143	0x3d512826	0.05106368
144	0xbd1461f4	-0.036226228
145	0x3b94dcfe	0.004542946
146	0xbdb8bb71	-0.090201266
147	0xbe18d1cd	-0.14923783
148	0xbc23816f	-0.00997959
149	0xbd02f8fe	-0.03197574
150	0xbe18a013	-0.14904813
151	0x3cb00336	0.021485906
152	0x3d4c2432	0.049839206
153	0xbc108204	-0.008820061
154	0xbe0e7047	-0.13910018
155	0xbe2d45c7	-0.16921149
156	0xbe64c910	-0.22342324
157	0x3e146dcc	0.14495009
158	0xbc1edb7a	-0.009695882
159	0xbdb31b06	-0.08745389
160	0x3e9d7646	0.30754298
161	0x3e0fd64d	0.14046593
162	0xbb9b5f21	-0.004741565
163	0xbb907d21	-0.004409448
164	0xbe1e04e8	-0.15431559
165	0xbca63bcf	-0.02029219
166	0x3e8e54bf	0.2779903
167	0x3c5c8e78	0.013461702
168	0xbde3a31e	-0.111150965
169	0x3e086ae9	0.13322033
170	0x3dfd43aa	0.123664215
171	0xbe88f7f6	-0.2675168
172	0xbdcd8959	-0.100359626
173	0xbe39d4f0	-0.18147635
174	0x3d918c3a	0.07106824
175	0x3b132847	0.0022454427
176	0xbe26e576	-0.1629847
177	0x3da0e59e	0.07856296
178	0xbca4d286	-0.020119917
179	0xbe5d1839	-0.21591271
180	0xbd9d1fed	-0.07672105
181	0xbe984610	-0.29740953
182	0x3e6788e8	0.2261082
183	0xbe4381ed	-0.19092532
184	0xbe1e3c4c	-0.15452689
185	0x3e8c1f4d	0.2736763
186	0xbd590134	-0.052979663
187	0x3e1fa33a	0.1558961
188	0x3db8af53	0.090178154
189	0x3c55fddd	0.013061014
190	0x3e6834ac	0.22676343
191	0xbeaaf191	-0.33387426
192	0x3dca0c0a	0.098655775
193	0xbe8d7953	-0.27631626
194	0xbdb45c8c	-0.088067144
195	0x3cda5d28	0.026655748
196	0xbe8a9d56	-0.27073163
197	0x3dcdb777	0.10044759
198	0x3e1e57f8	0.15463245
199	0xbd171a13	-0.0368901
200	0xbe9f59ea	-0.31123286
201	0x3da9b67e	0.08286761
202	0x3cc27f5b	0.023742368
203	0x3db3fe4c	0.08788738
204	0xbdb233d8	-0.08701295
205	0xbe18c534	-0.14918977
206	0xbe04e362	-0.12977365
207	0x3e824fb0	0.25451422
208	0xbe63f3f6	-0.22261032
209	0x3bc8fe18	0.006133806
210	0x3ec33d9a	0.38132936
211	0x3d0bf60c	0.034170195
212	0xbd96d779	-0.07365317
213	0xbe3df536	-0.18550572
214	0x3e2cf6e6	0.1689106
215	0xbe0fe531	-0.14052273
216	0xbdbb13b9	-0.09134621
217	0x3ca1eb91	0.019765647
218	0xbd896e14	-0.06710449
219	0xbe36ccf1	-0.17851616
220	0x3e402b42	0.18766502
221	0xbe2fbafc	-0.17161173
222	0xbdb78e02	-0.08962633
223	0x3e811074	0.25207865
224	0x3e17bcc0	0.14818096
225	0x3e83fb49	0.25777653
226	0x3e0f9beb	0.14024322
227	0xbd5ce604	-0.053930297
228	0xbdc27442	-0.09494831
229	0x3de713b9	0.11283059
230	0xbe281ea4	-0.16417938
231	0x3d453a1a	0.048151113
232	0x3c48c7bc	0.012254652
233	0x3e2530e0	0.16131926
234	0x3e947587	0.28995916
235	0xbe075ef6	-0.13219818
236	0x3df65a67	0.12028962
237	0xbea37c3b	-0.31930718
238	0xbe2b18f0	-0.16708732
239	0x3c0233b3	0.007946896
240	0x3e6cc227	0.23120938
241	0x3df8ad7c	0.121424645
242	0xbde076bd	-0.109601475
243	0x3bbf2b2b	0.0058340034
244	0x3e9e41c0	0.30909538
245	0x3eb757cd	0.35809174
246	0xbe29a32f	-0.16566156
247	0xbd9d1271	-0.07669533
248	0x3e364372	0.17799166
249	0x3c5cb4a3	0.0134708015
250	0xbe2ca3d8	-0.16859376
251	0x3ddaefac	0.10690245
252	0x3d3bd8fe	0.045861237
253	0xbdaea4e2	-0.08527543
254	0xbe0d0351	-0.13770796
255	0xbd3c7455	-0.04600938

linear_relu_stack.6.bias f4 [100]
0	0xbe3378a8	-0.17526495
1	0xbd671a8d	-0.056421805
2	0xbe2b7746	-0.16744718
3	0xbe80509c	-0.250615
4	0x3e7f51f6	0.2493361
5	0xbe20ff40	-0.1572237
6	0xbea4f9e5	-0.32221904
7	0x3e53ad67	0.20671616
8	0xbe8a7c8b	-0.27048144
9	0xbe2f0edc	-0.17095512
10	0x3ea6ae9b	0.32555088
11	0x3d62705a	0.055282928
12	0x3dbf175f	0.093306296
13	0xbd11d9c7	-0.03560808
14	0x3e72d032	0.23712233
15	0x3dcf9243	0.10135319
16	0x3dfff379	0.124976106
17	0x3e341703	0.17586903
18	0x3e440483	0.19142346
19	0x3d475942	0.048669107
20	0xbb6f4c7a	-0.003651409
21	0xbe2ca1cd	-0.16858597
22	0xbd0f27ca	-0.034950055
23	0xbe72e01d	-0.23718305
24	0x3cdb4681	0.026767017
25	0x3e1b0cd2	0.1514161
26	0xbe2737fd	-0.16329952
27	0x3e6b4953	0.2297719
28	0x3aee1843	0.001816519
29	0x3d923946	0.0713983
30	0x3d505655	0.050863583
31	0xbdfa198a	-0.122119024
32	0xbcb36af2	-0.021901581
33	0x3e7355a7	0.23763143
34	0xbe8240d2	-0.2544008
35	0xbe538540	-0.206563
36	0x3e3c9dbd	0.18419547
37	0x3f10e9b0	0.5660658
38	0x3e27798f	0.16354965
39	0x3d3d6cba	0.046246268
40	0x3ea84ba2	0.32870203
41	0xbe56864b	-0.20949666
42	0xbec4cc91	-0.38437322
43	0xbe2dca2d	-0.16971655
44	0x3e7b12e4	0.24518925
45	0xbe80cb29	-0.25155
46	0x3ee4e98c	0.44709432
47	0xbe6261bf	-0.221076
48	0xbe89cf27	-0.26915857
49	0xbeaac561	-0.33353713
50	0x3d84ab45	0.064779796
51	0x3e60f76d	0.21969385
52	0xbeaa5732	-0.3326965
53	0xbdcee000	-0.10101318
54	0x3e3b3dea	0.18285337
55	0x3ead7e44	0.33885396
56	0x3df316c5	0.11869577
57	0xbcbde77f	-0.023181675
58	0x3ee330d5	0.44373193
59	0xbed06af2	-0.40706593
60	0x3e0e2c55	0.13884099
61	0x3dc0e27a	0.09418197
62	0x3e44c675	0.1921633
63	0xbdb05e08	-0.08611685
64	0x3cc08647	0.023501528
65	0x3ebc116b	0.3673204
66	0xbe2ff8f1	-0.17184807
67	0xbe5de324	-0.21668679
68	0x3e199074	0.1499651
69	0x3e31d3e0	0.1736598
70	0x3dca10e9	0.098665066
71	0x3dcf0da4	0.101100236
72	0xba370a3b	-0.00069824205
73	0xbe101d37	-0.14073645
74	0xbdf289f8	-0.11842722
75	0x3d8888cb	0.06666716
76	0x3ea9326a	0.33046275
77	0x3d9d1008	0.07669073
78	0x3ed92070	0.4240756
79	0x3dfe650c	0.12421617
80	0xbe2fe61b	-0.17177622
81	0x3d82c0db	0.063844405
82	0x3dd7154d	0.1050211
83	0xbe99bfe1	-0.30029204
84	0xbe85d71a	-0.26140672
85	0xbdff093b	-0.124529324
86	0xbd47a7e8	-0.048744112
87	0xbcb1485e	-0.021640953
88	0x3e2fd92a	0.17172685
89	0x3d7ee740	0.062232256
90	0xbe53c169	-0.20679249
91	0xbe2471fe	-0.1605911
92	0x3e91cd91	0.28477147
93	0xbeb709dd	-0.35749713
94	0x3c3a4b85	0.011370544
95	0x3e163d71	0.14671876
96	0xbde566e3	-0.11201265
97	0x3b8b1795	0.0042447546
98	0x3f181668	0.5940919
99	0x3d551f64	0.05203189

linear_relu_stack.8.weight f4 [100, 100]
0	0xbd1d1bf9	-0.038356755
1	0xbc5768c7	-0.013147539
2	0x3c13ea21	0.009027989
3	0x3de62b2d	0.11238704
4	0x3d6f9d78	0.058499783
5	0xbcf5efb7	-0.030021532
6	0xbce6817d	-0.028137917
7	0x3d8276af	0.06370293
8	0x3ea1a031	0.3156753
9	0x3ba0f043	0.004911454
10	0x3c8dd585	0.017313728
11	0xbe7229d5	-0.2364877
12	0x3e3007e1	0.17190506
13	0xbe1c689b	-0.15274279
14	0x3d54444a	0.051822938
15	0xbd951997	-0.072802715
16	0x3d12bdcd	0.03582554
17	0x3e158fab	0.14605586
18	0x3cd070a7	0.025444342
19	0xbdbb2a24	-0.09138897
20	0xbe11f0d7	-0.1425203
21	0x3db1d68f	0.08683502
22	0xbd3934f6	-0.045216523
23	0x3e47848d	0.19484158
24	0x3e2d2ed3	0.16912393
25	0xbcb32eb5	-0.021872858
26	0x3d6bdda4	0.05758442
27	0x38a8b498	8.0445025e-05
28	0x3d1f3f21	0.038878564
29	0xbcef492a	-0.029209692
30	0xbec87ef5	-0.3915936
31	0xbd89bbf7	-0.067253046
32	0xbc301a52	-0.010748463
33	0xbecb11e0	-0.39662075
34	0x3df118fa	0.11772342
35	0xbe7aa35c	-0.24476379
36	0xbe0bd4c0	-0.13655376
37	0xbebbae16	-0.36656255
38	0x3cd12b92	0.025533471
39	0xbda2917e	-0.07937907
40	0xbe0e524d	-0.13898583
41	0xbd4966d8	-0.049170345
42	0xbd75624e	-0.059908204
43	0xbc8c1c64	-0.017103381
44	0x3d24ae86	0.0402055
45	0x3d9f437d	0.07776544
46	0x3c98ebcd	0.018667126
47	0x3df4048d	0.119149305
48	0x3e4bd852	0.19906738
49	0x3e2c91fe	0.16852567
50	0xbe1e71d6	-0.15473112
51	0x3c44ef7a	0.012019986
52	0xbe20006d	-0.15625162
53	0x3e138652	0.14406708
54	0xbe475277	-0.19465052
55	0x3c2aa574	0.010415424
56	0x3e574f30	0.21026301
57	0xbca66ab5	-0.020314554
58	0xbd3becc5	-0.045880098
59	0x3e8ea3f7	0.2785947
60	0x3d5c4e34	0.053785518
61	0xbec29df0	-0.38011122
62	0x3b525175	0.003209201
63	0xbddaf881	-0.106919296
64	0xbd184041	-0.037170652
65	0x3dd6edbc	0.10494563
66	0xbe5fd975	-0.21860297
67	0x3e0f3205	0.13983925
68	0xbdc13d52	-0.09435524
69	0xbd38a6a6	-0.045080803
70	0x3df22db9	0.11825127
71	0xbe0a4cc9	-0.13505854
72	0xbe09d3ca	-0.13459697
73	0xbdabe0b5	-0.08392469
74	0xbda54dea	-0.080715016
75	0x3dd7bb53	0.10533776
76	0xbed39d3d	-0.413309
77	0xbd3a5bcd	-0.045497704
78	0xbe8483f2	-0.25881916
79	0x3df1d9db	0.11809131
80	0x3d198a0c	0.037485167
81	0xbe8082b3	-0.25099716
82	0xbcc630c8	-0.024193183
83	0x3abc4d9b	0.001436639
84	0x3da7bb12	0.08189978
85	0xbdd14cd7	-0.10219734
86	0x3d32f4a4	0.04369034
87	0xbda3621b	-0.079776965
88	0xbdc0399e	-0.093859896
89	0x3d191051	0.037369076
90	0x3e33f0fd	0.17572398
91	0x3cc38c71	0.023870679
92	0xbe8e81fc	-0.27833545
93	0x3de42916	0.11140649
94	0xba8eef8a	-0.0010905128
95	0x3d92c845	0.07167105
96	0xbdb18e16	-0.08669679
97	0x3ca8201e	0.020523127
98	0xbe926b25	-0.2859737
99	0x3da7977f	0.081831925
100	0x3d57dc90	0.05270058
101	0xbd7bd5d1	-0.061483208
102	0x3cfabde2	0.030608121
103	0x3df578d0	0.11985934
104	0x3dca4756	0.098768875
105	0x3daee8ea	0.085405186
106	0xbcba0fdf	-0.022712646
107	0xbdf0cbb2	-0.11757602
108	0x3c66bd74	0.014083255
109	0x3e16b299	0.14716567
110	0xbd81a25e	-0.06329797
111	0xbdc59dd8	-0.09649247
112	0x3e84dbfe	0.2594909
113	0x3c211c67	0.009833432
114	0x3d60c1e4	0.05487241
115	0x3da0545a	0.07828589
116	0xbcb21619	-0.021739053
117	0x3e6cec19	0.23136939
118	0x3d4cfb50	0.050044358
119	0xbdbbc34a	-0.09168108
120	0xbc00ffd7	-0.007873497
121	0x3e9438f3	0.289497
122	0x3e5fd002	0.21856692
123	0xbd9ddb5a	-0.077078536
124	0x3dc7adbc	0.09749934
125	0xbcfb5e30	-0.03068456
126	0xbd800bac	-0.06252226
127	0x3dec55a1	0.1153977
128	0x3b922e3d	0.0044610784
129	0xbe04fba8	-0.12986624
130	0xbef89392	-0.48550087
131	0x3c6f9951	0.014623956
132	0x3dd6c475	0.1048669
133	0x3e462da0	0.19353342
134	0x3c82cd89	0.015967147
135	0xbd86a540	-0.06574488
136	0x3df05c28	0.117363274
137	0xbd40ebac	-0.047099754
138	0xbe94388b	-0.2894939
139	0xbd9fb3ef	-0.077979915
140	0x3db1bd64	0.086787015
141	0x3e699e0e	0.228142
142	0x3e2cbb72	0.1686838
143	0x3dae9819	0.08525104
144	0xbe0e00f5	-0.13867553
145	0xbc2657d6	-0.010152778
146	0x3e44be2d	0.19213171
147	0x3eafbb81	0.34322742
148	0x3dec0dcb	0.11526068
149	0x3a927812	0.00111747
150	0x3e44942b	0.19197147
151	0xbdd6c482	-0.104867
152	0xbdd55e4f	-0.104183786
153	0x3eb4fc07	0.35348532
154	0x3c9cf28d	0.019158626
155	0x3e58f46a	0.21186987
156	0x3deaf6ec	0.11472878
157	0xbd6f0291	-0.058352057
158	0x3dd7131b	0.10501691
159	0x3e7fb335	0.24970706
160	0x3dcd4df7	0.10024636
161	0xbeaf029b	-0.34181675
162	0x3e0d3d4d	0.13792916
163	0x3e359dd7	0.17735992
164	0xbe06e828	-0.13174498
165	0xbbd2179f	-0.0064115073
166	0x3ca0d78f	0.019634036
167	0x3e651929	0.22372879
168	0xbd0e025b	-0.034670215
169	0xbe1f739a	-0.15571442
170	0x3d452c72	0.04813809
171	0x3e3f8879	0.18704404
172	0xbbc3c169	-0.005973984
173	0x3da95e28	0.08269912
174	0xbd59ae5f	-0.05314481
175	0xbdf20738	-0.11817783
176	0xbd9abb62	-0.07555272
177	0xbce7b9a0	-0.028286755
178	0xbe164ca9	-0.14677681
179	0x3de159f6	0.11003487
180	0xbe54ffc5	-0.20800693
181	0xbc77751f	-0.015103607
182	0x3e07c670	0.13259292
183	0x3df78450	0.120857835
184	0x3e754d20	0.23955202
185	0xbe81cb50	-0.25350428
186	0x3e47dbf7	0.19517504
187	0xbe54ffbe	-0.20800683
188	0x3c00a4c2	0.007851781
189	0x3c16c4c2	0.009202184
190	0x3e3a7181	0.18207361
191	0x39d662d6	0.000408909
192	0xbe1498ee	-0.14511463
193	0x3e154d16	0.14580187
194	0xbe2146d0	-0.15749669
195	0x3d83ac58	0.06429356
196	0xbe25b520	-0.16182375
197	0xbdc91e23	-0.09820201
198	0x3d349db7	0.04409572
199	0x3e3ced55	0.1844991
200	0x3bb6f55b	0.005583448
201	0x3d0c164e	0.03420096
202	0x3e2ec10d	0.1706583
203	0xbe6fb2e7	-0.2340809
204	0x3dce6a30	0.100788474
205	0x3d715250	0.05891639
206	0xbe8ab21c	-0.27089012
207	0xbd609116	-0.054825865
208	0x3c082cba	0.008311445
209	0xbddd3007	-0.10800176
210	0xbcdc6beb	-0.026906928
211	0x3e31f152	0.17377213
212	0x3e08c5fc	0.13356775
213	0x3c7dba81	0.0154863605
214	0xbd7b1e85	-0.061308403
215	0x3d1f68f6	0.038918458
216	0xbef8bc56	-0.4858119
217	0x3bced27c	0.006311713
218	0xbea80338	-0.32814956
219	0xbd706aeb	-0.058695715
220	0xbd3a66ed	-0.045508314
221	0xbd8deaca	-0.06929548
222	0xbe2eb8cf	-0.17062686
223	0xbe06e6ff	-0.13174056
224	0x3dcef1e8	0.10104734
225	0x3e90b768	0.28264928
226	0x3df717fe	0.12065123
227	0x3e0ca348	0.13734162
228	0x3def33dc	0.11679813
229	0x3df7b667	0.12095337
230	0x3d08eceb	0.033429068
231	0x3dd0e213	0.1019937
232	0xbe2298cd	-0.15878601
233	0x3e3423ff	0.17591856
234	0xbcaed0c4	-0.021339782
235	0xbddb8f87	-0.10720735
236	0x3e228c63	0.15873866
237	0x3e5a6663	0.2132812
238	0xbdeeea90	-0.11665833
239	0x3dc56161	0.09637714
240	0x3e480b11	0.19535471
241	0xbdda3440	-0.10654497
242	0x3e0a7f43	0.13525109
243	0x3d71ac05	0.05900194
244	0x3df68e13	0.12038817
245	0x3cb2578b	0.02177026
246	0xbd8cd7e8	-0.06877118
247	0x3d777e0c	0.060422942
248	0xbcc37b43	-0.023862487
249	0xbe3f39b5	-0.18674357
250	0xbd55bcba	-0.052181937
251	0x3ddf2844	0.10896352
252	0xbd17d411	-0.037067477
253	0xbe1cbea2	-0.15307096
254	0x3dc7ca82	0.09755422
255	0x3da259dd	0.07927296

linear_relu_stack.8.bias f4 [100]
0	0x3cd806a3	0.026370352
1	0xbeafc3c3	-0.34329042
2	0x3eea30f7	0.45740482
3	0x3e4933fd	0.19648738
4	0x3dc35539	0.09537739
5	0x3ece28a3	0.40265378
6	0xbce208bb	-0.027592054
7	0xbd6762e2	-0.056490786
8	0xbe05ca23	-0.1306539
9	0xbdec51db	-0.1153905
10	0xbd5e6ca3	-0.054302823
11	0x3de0cfed	0.10977159
12	0x3f040395	0.51567966
13	0x3eeb2581	0.4592705
14	0x3e8e9c62	0.27853686
15	0x3e99986e	0.29999107
16	0x3ea8068c	0.32817495
17	0xbe7aaa4f	-0.2447903
18	0xbdf4c18d	-0.119509794
19	0xbe632534	-0.2218216
20	0x3cbc8156	0.02301089
21	0x3ef9411b	0.48682484
22	0xbe92981b	-0.28631672
23	0x3e83b3b6	0.25723046
24	0x3e54a399	0.20765533
25	0xbe035fb1	-0.12829472
26	0x3ea2be43	0.31785783
27	0x3e2e74ee	0.17036793
28	0x3da83bbd	0.08214519
29	0x3da0e504	0.07856181
30	0x3d1639e0	0.036676288
31	0x3ed0bcd5	0.40769067
32	0x3e3b9fee	0.18322727
33	0xbe8123ee	-0.25222725
34	0xbdedbc5a	-0.11608191
35	0xbd0ac458	-0.033878654
36	0x3e0063a4	0.1253801
37	0xbe01849d	-0.12648244
38	0x3e496d5c	0.19670624
39	0xbda4fe59	-0.080563255
40	0x3e949184	0.2901727
41	0xbdaec406	-0.08533482
42	0xbdc17d7f	-0.094477646
43	0x3dfb464c	0.122692674
44	0xbd7ba7c9	-0.06143931
45	0x3d09d688	0.03365186
46	0x3edad75b	0.42742428
47	0x3df82bd5	0.12117735
48	0xbe05450c	-0.1301462
49	0xbd9b59c4	-0.07585481
50	0x3cc1c2f7	0.023652537
51	0xbeacbd9a	-0.33738405
52	0x3e055e2f	0.1302421
53	0x3e75bf70	0.23998809
54	0xbe5814a8	-0.2110163
55	0xbebd77cd	-0.37005463
56	0x3df9a03b	0.12188765
57	0xbe097e99	-0.134272
58	0x3dfb2b21	0.122640856
59	0x3eb4665f	0.35234353
60	0x3e5dfbbf	0.21678065
61	0x3dd919fa	0.10600658
62	0xbde85048	-0.113434374
63	0x3bc77c47	0.006087813
64	0x3e451ac2	0.19248489
65	0x3eb0c743	0.34527025
66	0x3ee80e1d	0.45323268
67	0xbdcd0192	-0.10010065
68	0x3e8350de	0.25647634
69	0x3d904eb1	0.07046259
70	0x3eb32910	0.34992266
71	0xbe9945fb	-0.29936203
72	0xbea32bd9	-0.3186939
73	0xbe314946	-0.17313108
74	0xbd903811	-0.07041944
75	0x3ecc0604	0.3984834
76	0xbedc8edd	-0.43077746
77	0xbddf5e2d	-0.109066345
78	0x3e9d9c6b	0.307834
79	0xbd4a373a	-0.049369074
80	0xbd0f8cbb	-0.03504632
81	0xbe313a4b	-0.17307393
82	0x3e2b3ff4	0.16723615
83	0x3b80bdaf	0.003928862
84	0x3d48a46d	0.048984934
85	0x3e8563d8	0.26052737
86	0x3eb8d708	0.36101556
87	0xbd97e87c	-0.0741739
88	0xbe018519	-0.12648429
89	0x3e462b68	0.19352496
90	0xbd301346	-0.04298713
91	0xbe916be0	-0.28402615
92	0x3e98807e	0.29785532
93	0xbe102b70	-0.1407907
94	0xbe071b61	-0.13194038
95	0xbf078409	-0.52935845
96	0x3c64d681	0.013967157
97	0x3de23ff7	0.110473566
98	0x3d4eeb8f	0.050517615
99	0x3df583d2	0.11988033
