sart/models/mnist_new_9x100/mnist_net_new_9x100.pth (torch, 647657 bytes, 20 tensors)

linear_relu_stack.0.weight f4 [100, 784]
-0.026187621 0.009035971 0.0010371081 0.018020464 -0.0030894366 0.026321944 -0.0068883603 -0.022679828
-0.03055934 -0.0015374848 -0.024986995 0.0027208203 0.04155989 -0.013272791 0.04308637 -0.025606452
-0.0074072396 0.017803824 0.023396404 0.0024688372 -0.03399306 0.031331025 -0.017842209 -0.03136868
0.025621993 -0.029961945 -0.012731817 -0.02633554 -0.017809583 0.023453735 -0.03311483 0.013615442
0.07698986 0.051874444 0.15721129 0.18374284 0.10096046 0.12602723 0.2888032 0.46330345
0.49904665 0.2646255 -0.16035773 0.029244611 0.4062521 0.5820328 0.42674112 0.5808477
0.45227826 0.28387937 0.14954732 0.029491264 0.0070730066 -0.006948433 0.011486671 -0.019613292
0.00066408946 0.0026929465 0.13021675 0.23730823 0.27713674 0.09815627 0.3429523 0.52943176
0.44961986 0.3892394 0.10682575 0.13571265 -0.15292263 -0.060540568 0.10672939 0.13501097
0.19054513 0.46066785 0.6325122 0.52928615 0.38544956 0.21038944 0.3240531 0.4922112
0.22202198 0.09102755 -0.032937616 0.034152795 0.011436884 -0.03492984 -0.3535635 0.030117989
0.31131423 0.61806804 0.56984836 0.30394393 0.16795848 0.52405804 0.38295826 0.3763671
0.023986977 -0.15165892 -0.06494366 -0.041427854 -0.11025224 -0.096351355 0.116523355 -0.076803446
-0.1605799 0.49900034 0.26113603 0.33144647 0.24395925 0.41139963 -0.0075151105 0.03332289
0.0060481178 0.030379161 -0.35917807 -0.3546688 -0.0042900187 0.38374737 0.1941678 0.300705
0.2804786 0.34254032 0.046191443 -0.30699936 -0.48583007 -0.5540199 -0.22188704 -0.06636014
0.18213326 0.34719118 0.11997506 0.04991389 -0.1451316 -0.26774615 0.016899552 0.19872381
0.22758307 0.27643362 0.028416827 0.018528366 -0.033220015 0.015954193 -0.16999754 0.03946358
-0.038439564 -0.30152592 0.013269493 0.33857304 0.44813618 -0.009500736 0.038544923 -0.29382315
-0.2845082 -0.2542299 0.29657787 0.19055441 0.118111566 0.2626444 0.20565169 0.13088909
-0.0624736 -0.19705102 0.035666525 0.28672287 0.32771158 0.19058768 -0.35842216 -0.064681925
0.0024914956 0.024347402 0.114233464 0.001067189 0.2950999 0.26851004 0.6224679 0.5419074
0.3599265 0.044793665 -0.28797585 -0.4018492 -0.35368687 -0.16073462 0.24807607 0.26000357
-0.06393183 -0.09703029 -0.276303 -0.48753786 -0.47916728 -0.26910385 0.07301537 0.27833548
0.14604735 -0.014920645 -0.010742098 0.06677387 -0.007445019 -0.06354847 0.3081711 -0.003966929
0.2880119 0.59570634 0.3322654 0.3929012 0.03123277 -0.34831664 -0.55571544 -0.25529104
-0.09061987 0.16374265 0.18603523 0.14827655 0.046333753 0.029266812 -0.38317555 -0.3287982
-0.013173842 -0.08071703 0.09807171 0.036821704 0.34373197 0.15640128 -0.04477963 0.1611198
0.8526293 -0.2346301 0.39884046 0.08492446 0.52855515 0.3057566 -0.03351991 0.17514461
-0.2069764 -0.42437318 -0.519896 -0.6127656 -0.35739595 0.06178275 0.19996993 0.0142123485
0.15789221 -0.041727155 -0.10046344 -0.0076506585 0.058437645 -0.15055987 -0.07994179 0.08141913
0.06240558 0.34474343 -0.026143447 -0.1329801 -0.09835001 -0.11049912 0.27893025 -0.020303015
00000000: 6c87 d6bc 9c0b 143c 93ef 873a a79f 933c
00000010: 2578 4abb 1ea1 d73c c1b7 e1bb 0ccb b9bc
00000020: 9557 fabc 6e85 c9ba 87b1 ccbc ca4f 323b
00000030: b43a 2a3d 1f76 59bc 557b 303d 9fc4 d1bc
00000040: 6eb8 f2bb 53d9 913c d1a9 bf3c 37cc 213b
00000050: 4f3c 0bbd f654 003d d329 92bc 727c 00bd
00000060: 37e5 d13c c172 f5bc 1c99 50bc a1bd d7bc
00000070: 67e5 91bc 0c22 c03c 6aa3 07bd 4e13 5f3c
00000080: dcac 9d3d 4c7a 543d fffb 203e 1527 3c3e
00000090: 5cc4 ce3d 480d 013e 03de 933e 1c36 ed3e
000000a0: 0b83 ff3e fe7c 873e d134 24be 6592 ef3c
000000b0: 4600 d03e 1a00 153f d07d da3e 6fb2 143f
000000c0: 0491 e73e a358 913e ef22 193e aa97 f13c
000000d0: aec4 e73b aeaf e3bb 9732 3c3c 0eac a0bc
000000e0: 4a16 2e3a 257c 303b 8a57 053e ee00 733e
000000f0: dee4 8d3e 2806 c93d 7297 af3e d788 073f
00000100: 9334 e63e 634a c73e 75c7 da3d 42f8 0a3e
00000110: c097 1cbe 63f9 77bd f094 da3d 5140 0a3e
00000120: 431e 433e a8dc eb3e 52ec 213f 4c7f 073f
00000130: a559 c53e 5470 573e 4aea a53e 1b03 fc3e
00000140: bb59 633e a76c ba3d 98e9 06bd cde3 0b3d
00000150: c561 3b3c 9812 0fbd 4606 b5be 00ba f63c
00000160: 9464 9f3e b539 1e3f 95e1 113f 8a9e 9b3e
00000170: 4ffd 2b3e ab28 063f 1b13 c43e 30b3 c03e
00000180: 5680 c43c 7a4c 1bbe 2e01 85bd 41b0 29bd
00000190: edcb e1bd dc53 c5bd cca3 ee3d 204b 9dbd
000001a0: 0f6f 24be f97c ff3e 9fb3 853e 5ab3 a93e
000001b0: 74d0 793e f9a2 d23e 5141 f6bb 957d 083d
000001c0: 4a2f c63b b8dd f83c 30e6 b7be 2697 b5be
000001d0: 4993 8cbb 897a c43e ecd3 463e 01f6 993e
000001e0: e49a 8f3e 7261 af3e 3d33 3d3d 052f 9dbe
000001f0: b8be f8be 40d4 0dbf 5b36 63be d3e7 87bd
00000200: 2481 3a3e 0bc3 b13e 7cb5 f53d 8272 4c3d
00000210: 619d 14be 0616 89be ee70 8a3c 417e 4b3e
00000220: 890b 693e b588 8d3e 68ca e83c cdc8 973c
00000230: b611 08bd 5eb2 823c d613 2ebe 90a4 213d
00000240: ce72 1dbd 9b61 9abe 4a68 593c 7259 ad3e
00000250: 1b72 e53e faa8 1bbc 48e1 1d3d fd6f 96be
00000260: 0fab 91be 6c2a 82be 0ed9 973e b220 433e
00000270: 7ae4 f13d 5479 863e 5b96 523e ca07 063e
00000280: 51e4 7fbd bec7 49be 1017 123d 57cd 923e
00000290: d0c9 a73e 6b29 433e 1c83 b7be f577 84bd
000002a0: 5c48 233b 3474 c73c 3cf3 e93d ece0 8b3a
000002b0: 5617 973e 267a 893e 0e5a 1f3f 72ba 0a3f
000002c0: 4948 b83e 9079 373d 9271 93be 2ebf cdbe
000002d0: 7216 b5be 9e97 24be a707 7e3e 301f 853e
000002e0: b1ee 82bd d1b7 c6bd 9677 8dbe 909e f9be
000002f0: 6a55 f5be fbc7 89be 1589 953d fd81 8e3e
00000300: 708d 153e b975 74bc a0ff 2fbc bdc0 883d
00000310: 59f5 f3bb b325 82bd 9ac8 9d3e 03fd 81bb
00000320: 4c76 933e 3680 183f b11e aa3e 592a c93e
00000330: dedb ff3c 8f56 b2be 5e43 0ebf 82b5 82be
00000340: e996 b9bd 27ac 273e 0580 3e3e cfd5 173e
00000350: 76c8 3d3d f4c0 ef3c 962f c4be 3d58 a8be
00000360: 19d7 57bc f84e a5bd d2d9 c83d 5bd2 163d
00000370: a3fd af3e a827 203e d86a 37bd 97fc 243e
00000380: ea45 5a3f df42 70be d134 cc3e e0ec ad3d
00000390: 644f 073f 218c 9c3e 2c4c 09bd 1c59 333e
000003a0: 9ff1 53be 7147 d9be e717 05bf 35de 1cbf
000003b0: 9afc b6be e90f 7d3d ebc4 4c3e e9da 683c
000003c0: 7fae 213e 18ea 2abd c7bf cdbd 60b2 fabb
000003d0: 505c 6f3d 5e2c 1abe 85b8 a3bd 13bf a63d
000003e0: fe9c 7f3d 3682 b03e c82a d6bc ef2b 08be
000003f0: bb6b c9bd 5d4d e2bd f2cf 8e3e 8252 a6bc

linear_relu_stack.0.bias f4 [100]
0.11203129 -0.08866378 -0.023521287 0.38815746 -0.05356226 0.12490248 0.01749449 0.07796185
-0.11821192 -0.07418388 -0.053156503 -0.2621811 -0.11098045 -0.12237571 0.018525474 0.1585168
-0.22917385 0.039231844 0.06144934 -0.24209358 0.090227224 -0.03880856 0.11836385 -0.31097355
0.0917194 -0.18054421 -0.35014674 0.07750987 0.038240544 -0.08814935 -0.124242134 -0.07263149
-0.07367946 0.0914518 0.065502375 -0.00032424447 -0.2630004 -0.2421172 0.26469967 0.27664587
-0.18961553 -0.09489723 0.19570036 -0.15238436 0.1746213 -0.24582666 0.32457086 0.05763407
-0.053709507 -0.22245832 0.02072521 -0.2630063 -0.040861063 0.0012984922 0.06964934 0.041896485
-0.38588685 0.09059635 -0.07376724 -0.008808595 -0.03058752 0.24446836 -0.139909 -0.2832393
0.14353454 -0.083654806 -0.026533404 -0.02252791 -0.12471389 -0.16648456 -0.27160925 0.057550505
-0.15008992 0.08802805 -0.11866172 -0.2065253 -0.21704602 0.22177234 0.145332 -0.10094304
-0.2852695 -0.20185196 -0.14898004 -0.087221935 -0.03729658 -0.05454042 -0.12014582 -0.08401909
0.3365792 0.09548762 -0.07562274 0.13383693 -0.036488436 -0.024196777 -0.2822285 -0.12605058
-0.0401951 -0.2614392 0.012349943 -0.15255076
00000000: a970 e53d 5b95 b5bd b7af c0bc 93bc c63e
00000010: 1a64 5bbd dfcc ff3d 9b50 8f3c 76aa 9f3d
00000020: 1719 f2bd b8ed 97bd a2ba 59bd 9a3c 86be
00000030: b849 e3bd 1ea0 fabd bcc2 973c 3a52 223e
00000040: 8dac 6abe 92b1 203d 4eb2 7b3d 61e7 77be
00000050: 0dc9 b83d baf5 1ebd bf68 f23d ed37 9fbe
00000060: 61d7 bb3d 95e0 38be 6f46 b3be 7fbd 9e3d
00000070: 1ea2 1c3d a587 b4bd a972 febd d2bf 94bd
00000080: 42e5 96bd 154b bb3d 1c26 863d 5bff a9b9
00000090: fda7 86be 92ed 77be b786 873e 87a4 8d3e
000000a0: 932a 42be 7b59 c2bd ad65 483e a50a 1cbe
000000b0: edcf 323e fcb9 7bbe 272e a63e b411 6c3d
000000c0: 80fe 5bbd 1dcc 63be eac7 a93c c3a8 86be
000000d0: ee5d 27bd 2b32 aa3a 50a4 8e3d a69b 2b3d
000000e0: f692 c5be 948a b93d 4713 97bd ed51 10bc
000000f0: ae92 fabc ea55 7a3e 4e44 0fbe be04 91be
00000100: b8fa 123e 3653 abbd 955c d9bc 748c b8bc
00000110: ff69 ffbd ee7a 2abe 5e10 8bbe 14ba 6b3d
00000120: 2cb1 19be 0d48 b43d ea04 f3bd 5e7b 53be
00000130: 5041 5ebe 4a18 633e e9d1 143e 39bb cebd
00000140: d80e 92be 48b2 4ebe 398e 18be 6aa1 b2bd
00000150: 4cc4 18bd c765 5fbd 030f f6bd 3312 acbd
00000160: 1c54 ac3e 038f c33d 18e0 9abd 8c0c 093e
00000170: e674 15bd 5238 c6bc 4180 90be 6713 01be
00000180: 9ea3 24bd 5cdb 85be 6a57 4a3c 4436 1cbe

linear_relu_stack.2.weight f4 [100, 100]
-0.10964804 -0.12243741 -0.15320894 -0.17580466 -0.13931975 0.037381582 -0.019273318 0.13476592
-0.37576872 0.29421 -0.27502632 0.31273392 0.1788167 -0.28818765 -0.111989915 0.16792676
-0.50297743 -0.0011859933 -0.18700467 -0.16306289 -0.23973063 -0.26492625 -0.28525898 0.040400244
-0.34605682 0.06241052 -0.04212687 0.037445404 0.0826767 -0.19217657 0.25287658 -0.023008326
0.29911327 -0.24413547 0.34444806 -0.29541534 -0.07677291 -0.49847654 -0.049689576 0.07625418
-0.14205809 0.1182677 9.894619e-05 0.05281874 -0.07509418 0.19231106 0.0133495135 -0.07953077
-0.10872222 -0.398107 0.03434427 -0.119054675 -0.113519296 -0.15983969 -0.053875342 0.14792857
-0.0019397391 0.3984775 -0.14273399 -0.16472173 -0.0058140564 0.084440194 0.09362651 -0.054666545
-0.4339113 0.20383184 0.14955117 0.030343438 -0.13208821 -0.2854868 -0.23722143 -0.12579507
-0.22960202 -0.27591679 0.059663266 0.27906647 -0.04147417 0.15759756 -0.19970897 -0.10435617
-0.07977453 0.11088923 -0.061755154 0.2583786 -0.07495256 0.048367273 -0.032009803 -0.052380316
-0.38731506 -0.2098545 -0.0702966 -0.224147 -0.55324423 -0.087867975 0.18739781 0.03787352
-0.34130916 -0.3071082 -0.3137198 0.019008618 0.11032822 -0.6776504 -0.016207108 0.064598136
-0.19826132 -0.4222667 -0.08936782 -0.29476005 0.16986753 0.38372284 0.06664702 -0.70905477
-0.083125584 0.17066497 -0.44480652 0.01472138 -0.41319573 -0.28149924 0.17464067 0.14409012
-0.009231628 -0.097737335 0.56175584 -0.5173045 -0.03735302 -0.1885359 -0.49254185 -0.12584452
0.201778 -0.25708488 0.2716684 0.02566167 0.2910167 -0.040426042 -0.19832829 -0.1333729
0.019880416 -0.04539617 -0.039998274 0.32760015 0.0967737 0.01460364 0.3462516 -0.16085123
0.41378963 -0.057377446 -0.011478371 0.20869605 -0.2122452 0.005967462 -0.015295303 -0.30012324
-0.32296902 -0.26929873 -0.26264963 -0.16437165 0.14151865 0.39595538 -0.018864248 0.07989356
0.14085115 -0.21206659 0.044954162 -0.33021924 -0.08780536 -0.24435726 0.22828554 -0.022831999
0.17195961 0.104834534 0.13686611 -0.16549051 0.20946279 0.46558735 -0.2870126 -0.5606342
-0.09848934 0.09238828 0.07411428 -0.23114096 -0.40469253 0.11746067 -0.052885838 0.039959345
0.060165867 0.07044204 -0.49215245 0.062534824 -0.32643285 -0.15360874 0.038465444 0.4535908
-0.14533058 -0.046305798 0.003800037 -0.20115973 0.38251168 -0.15454549 0.03919286 -0.14004968
-0.31390813 -0.06007896 0.22787255 -0.103216454 0.04134439 0.14592758 0.035070688 0.18420179
0.11897796 0.010525068 -0.3122532 -0.08138335 -0.094019204 0.26497805 -0.60315 0.08604253
0.1591963 0.03739676 -0.25835994 0.08641229 -0.11661516 -0.20384401 0.15688945 0.0981176
-0.15503855 -0.32364798 -0.19527364 0.28481922 0.2796216 -0.08136896 -0.0344141 -0.11636769
0.1832069 0.34889323 0.17344193 -0.65784556 0.017349511 -0.44117135 -0.23582137 -0.10036046
0.10663241 -0.014518136 -0.20291711 -0.39245424 -0.038251217 0.0690143 -0.5873792 0.10910335
-0.06866639 -0.1679578 -0.053348105 -0.23191011 -0.017953675 0.33058354 -0.5280956 -0.2738559
00000000: 278f e0bd 77c0 fabd cee2 1cbe 2306 34be
00000010: d6a9 0ebe 6e1d 193d 14e3 9dbc 1400 0a3e
00000020: c264 c0be b1a2 963e 40d0 8cbe a91e a03e
00000030: ba1b 373e 558d 93be f85a e5bd fef4 2b3e
00000040: 21c3 00bf 5573 9bba 277e 3fbe f5f9 26be
00000050: f27b 75be 6aa4 87be 770d 92be ba7a 253d
00000060: 5c2e b1be 2ca2 7f3d 3a8d 2cbd 5a60 193d
00000070: 6752 a93d efc9 44be 0a79 813e f57b bcbc
00000080: 6025 993e a6fe 79be 7f5b b03e ae40 97be
00000090: 1e3b 9dbd 5138 ffbe 4c87 4bbd 272b 9c3d
000000a0: ad77 11be 5636 f23d 5581 cf38 7758 583d
000000b0: faca 99bd 31ed 443e ebb7 5a3c 07e1 a2bd
000000c0: c1a9 debd aed4 cbbe 94ac 0c3d f0d2 f3bd
000000d0: ce7c e8bd 04ad 23be 64ac 5cbd 967a 173e
000000e0: d83e feba 3e05 cc3e dc28 12be d0ac 28be
000000f0: d783 bebb fbee ac3d 41bf bf3d 07ea 5fbd
00000100: 9f29 debe 4bb9 503e f123 193e cd92 f83c
00000110: 2242 07be 532b 92be 2dea 72be 6cd0 00be
00000120: cb1c 6bbe f744 8dbe 7861 743d cde1 8e3e
00000130: d2e0 29bd 4161 213e 8280 4cbe b0b8 d5bd
00000140: d460 a3bd e519 e33d f9f2 7cbd 334a 843e
00000150: ba80 99bd c31c 463d b61c 03bd be8c 56bd
00000160: 294e c6be 19e4 56be aaf7 8fbd cb86 65be
00000170: 6aa1 0dbf 20f4 b3bd 36e5 3f3e 4421 1b3d
00000180: 13c0 aebe 493d 9dbe e29f a0be f6b7 9b3c
00000190: c3f3 e13d 7f7a 2dbf c5c4 84bc 074c 843d
000001a0: 0405 4bbe 5733 d8be 7a06 b7bd caea 96be
000001b0: c1f1 2d3e 5277 c43e 3c7e 883d 9d84 35bf
000001c0: bf3d aabd ccc2 2e3e aebd e3be f131 713c
000001d0: 648e d3be ab20 90be 01d5 323e 5c8c 133e
000001e0: 4140 17bc 832a c8bd 3bcf 0f3f 116e 04bf
000001f0: 7bff 18bd 8e0f 41be 722e fcbe 63dd 00be
00000200: e49e 4e3e a1a0 83be 1f18 8b3e 6c38 d23c
00000210: 2400 953e c795 25bd 9216 4bbe e892 08be
00000220: 41dc a23c 56f1 39bd 3bd5 23bd 35bb a73e
00000230: 4a31 c63d 1b44 6f3c e447 b13e 2fb6 24be
00000240: 3cdc d33e 9d04 6bbd c70f 3cbc 6bb4 553e
00000250: ce56 59be b38a c33b 2799 7abc c1a9 99be
00000260: 325c a5be 86e1 89be 037a 86be 0b51 28be
00000270: 44ea 103e aaba ca3e 3289 9abc 3c9f a33d
00000280: 493b 103e fc27 59be db21 383d 7f12 a9be
00000290: 4cd3 b3bd ca38 7abe afc3 693e 2c0a bbbc
000002a0: 2e16 303e 7db3 d63d a126 0c3e 5876 29be
000002b0: 6a7d 563e 7761 ee3e 51f3 92be b985 0fbf
000002c0: c7b4 c9bd 1136 bd3d 3ac9 973d 37b0 6cbe
000002d0: dc33 cfbe 388f f03d d29e 58bd 69ac 233d
000002e0: 7c70 763d eb43 903d 68fb fbbe 4212 803d
000002f0: 3522 a7be 9c4b 1dbe f18d 1d3d 0e3d e83e
00000300: 8ad1 14be 26ab 3dbd 0b0a 793b d1fc 4dbe
00000310: 92d8 c33e 2c41 1ebe b188 203d 2f69 0fbe
00000320: 91b8 a0be 5b15 76bd 6c57 693e 2663 d3bd
00000330: bc58 293d 0a6e 153e 48a6 0f3d 659f 3c3e
00000340: b7aa f33d 5671 2c3c a7df 9fbe 50ac a6bd
00000350: 248d c0bd 34ab 873e 0a68 1abf 1137 b03d
00000360: 5b04 233e 582d 193d c147 84be edf8 b03d
00000370: eed3 eebd 7cbc 50be a1a7 203e e1f1 c83d
00000380: 6dc2 1ebe 30b5 a5be d0f5 47be d3d3 913e
00000390: 902a 8f3e c5a4 a6bd cdf5 0cbd 2f52 eebd
000003a0: 979a 3b3e 22a2 b23e c39a 313e 9168 28bf
000003b0: 9020 8e3c 36e1 e1be 287b 71be c989 cdbd
000003c0: 1862 da3d 7add 6dbc 81c9 4fbe c3ef c8be
000003d0: 4fad 1cbd 5f57 8d3d 7c5e 16bf 9471 df3d
000003e0: f7a0 8cbd 21fd 2bbe 8b83 5abd d879 6dbe
000003f0: 9613 93bc 3f42 a93e 4631 07bf d736 8cbe

linear_relu_stack.2.bias f4 [100]
-0.0066194367 -0.266552 0.030263212 -0.18136568 -0.2588963 0.23008513 -0.12377484 0.27812555
0.16564469 0.2921276 -0.11096625 -0.17627935 -0.09002847 0.03454721 -0.1372299 -0.453973
-0.081009746 0.058483925 -0.013444386 -0.31508338 -0.07198664 0.12022504 -0.13340254 -0.032649685
-0.030352538 0.14969757 0.098403014 0.03215431 0.19116782 -0.13868995 -0.11020027 0.02063059
-0.07442302 0.33374912 0.019578744 0.15069573 0.11075084 0.13198657 -0.06792449 -0.034631826
0.094225556 0.0034542687 0.33393174 -0.18988116 -0.0975636 -0.15895596 -0.010296129 0.12810664
-0.11395961 -0.014432026 -0.31687742 0.013467754 0.039648257 0.30053985 -0.1695413 0.23109086
-0.10644634 -0.16605547 0.09127986 0.35344654 0.044904593 -0.0252361 -0.10710843 -0.07640127
0.04471894 -0.025589935 -0.11090643 -0.21096288 -0.16743268 -0.3278744 -0.13908744 -0.2722518
0.010967584 -0.018798785 0.32845157 -0.11555143 0.17375962 -0.0625691 -0.20812696 -0.2951087
-0.06156752 -0.0031532967 0.24455795 -0.1624493 -0.050584175 0.017100373 0.22392507 0.17809182
-0.36048967 -0.32458055 -0.08860201 0.0325191 0.11785517 -0.074212216 0.023250654 0.13084212
-0.076910675 -0.07528684 -0.12989417 -0.11354089
00000000: dce7 d8bb 8179 88be 8eea f73c edb7 39be
00000010: 0e8e 84be 709b 6b3e aa7d fdbd 7966 8e3e
00000020: c39e 293e c091 953e 4642 e3bd 9382 34be
00000030: d960 b8bd 6081 0d3d ff85 0cbe 266f e8be
00000040: 70e8 a5bd d78c 6f3d d845 5cbc 9c52 a1be
00000050: bb6d 93bd 8c38 f63d ad9a 08be adbb 05bd
00000060: e3a5 f8bc 524a 193e 8587 c93d 3db4 033d
00000070: 7fc1 433e bd04 0ebe aeb0 e1bd 7c01 a93c
00000080: 196b 98bd 2ae1 aa3e 9a63 a03c fb4f 1a3e
00000090: 56d1 e23d 7d27 073e ff1b 8bbd 1ada 0dbd
000000a0: 54f9 c03d 0361 623b 1af9 aa3e 3570 42be
000000b0: 6dcf c7bd 5ac5 22be 18b1 28bc 632e 033e
000000c0: a863 e9bd 4e74 6cbc c23d a2be dba7 5c3c
000000d0: 3666 223d 5ce0 993e 3c9c 2dbe 15a3 6c3e
000000e0: 8a00 dabd 720a 2abe eff0 ba3d f2f6 b43e
000000f0: e1ed 373d f0bb cebc aa5b dbbd 4578 9cbd
00000100: 352b 373d fca1 d1bc e922 e3bd a706 58be
00000110: 7973 2bbe 27df a7be f06c 0ebe 9764 8bbe
00000120: 62b1 333c e9ff 99bc ce2a a83e 3aa6 ecbd
00000130: 0bee 313e 3a24 80bd 3c1f 55be 7d18 97be
00000140: 392e 7cbd 8aa7 4ebb 666d 7a3e 1c59 26be
00000150: 5a31 4fbd 1516 8c3c 9d4c 653e b45d 363e
00000160: 1a92 b8be 6c2f a6be f874 b5bd bf32 053d
00000170: 0d5e f13d 93fc 97bd 2878 be3c 7afb 053e
00000180: 5883 9dbd fd2f 9abd fa02 05be 2088 e8bd

linear_relu_stack.4.weight f4 [100, 100]
0.123595 0.14419447 -0.013370638 0.15662071 0.12344464 -0.23350568 0.0119148465 -0.18896912
0.0018841008 -0.3490248 0.28639817 0.5717018 -0.010943079 0.038089145 0.16877547 0.23908515
0.2854499 0.062750205 0.11119054 0.100359336 0.05173478 0.0076105287 0.17748363 -0.09843347
0.13918014 0.20152304 -0.17199185 0.15277383 -0.15255475 0.2776263 -0.33758992 0.035747156
0.09446052 0.033352055 0.13130838 -0.057163376 0.107974164 -0.06293797 0.17392159 0.18657088
0.28535736 -0.24929114 -0.17105734 -0.06234677 -0.15034455 0.13006157 -0.1832538 0.030440403
0.21637131 -0.33026406 0.37889865 -0.25425243 -0.056144223 -0.3037273 -0.35156003 -0.060234398
0.46721965 0.18088566 0.005928219 -0.09386942 0.09446062 -0.067587234 -0.045802265 0.08212782
-0.41077524 0.13924538 0.012448176 -0.32337427 -0.30206963 -0.017480463 0.24709228 0.25537962
-0.287336 -0.3913208 -0.038141597 -0.5179891 0.05990151 0.18292278 0.049139723 0.119665936
0.18172075 -0.31507874 -0.06981245 -0.10966205 0.16406043 -0.31792572 -0.5232187 0.27805948
0.1702019 0.27254075 0.08921141 0.053510025 0.053101495 0.025255347 0.02014404 0.22950695
-0.10023335 0.07992984 0.07647006 0.48788884 -0.11235041 -0.021474635 0.079448625 0.017508455
0.08468796 0.18090408 -0.21972813 0.09988824 0.015168468 0.38090178 0.10245701 -0.34621814
0.03235742 0.084105045 0.24766432 -0.5100119 -0.28913394 -0.5140412 -0.30190283 0.34671602
-0.004458597 0.109286696 -0.43580237 0.14031772 0.10459261 -0.34051326 -0.06240329 0.04953391
0.26497802 -0.1703309 -0.39208353 -0.15982643 0.027623741 0.18893504 0.0009859102 -0.026975548
0.205141 0.16806956 0.03710842 -0.0022913914 -0.08688546 0.085815676 0.17428955 -0.18903078
-0.09760837 0.15102519 -0.15514238 0.25749335 0.14081672 -0.29487377 -0.43170077 -0.037343815
0.002231478 0.29675484 0.4320285 0.17438945 -0.28987306 -0.0802556 -0.034655098 -0.1819115
-0.20088401 -0.0377556 -0.17128786 -0.2617783 -0.059911024 -0.007981221 0.0838776 0.09243947
-0.19221549 -0.23821762 -0.22313994 0.020863762 -0.15304683 -0.19057292 0.19867125 -0.08326939
0.1434113 -0.013997408 -0.08808185 -0.12565465 0.19994839 0.035869505 -0.17744362 -0.0014520801
-0.061146855 -0.26226345 -0.15991585 0.07724532 -0.17114052 -0.31281617 -0.21332788 0.22314684
0.0135206 -0.054968376 -0.29604843 0.11069636 -0.08409343 0.17869078 -0.1089943 -0.17902943
-0.33101347 0.14772843 -0.36090913 -0.13514909 0.1860796 -0.08158057 -0.28401002 -0.16412346
-0.040053263 -0.2211743 -0.30522448 -0.27372763 0.066066384 -0.33049378 -0.021660518 -0.14088814
-0.5068372 0.15417247 -0.29717636 -0.26494253 -0.024801053 -0.029873794 -0.434456 -0.15232192
0.37480387 0.0855013 0.07648849 0.043556202 -0.0944935 -0.27089766 -0.046992246 0.11387519
-0.01238771 0.0031592369 0.16544276 0.08737021 0.08669438 0.11740599 -0.036781956 0.012793048
0.15797965 0.03168354 0.030988302 0.004330216 0.15407398 -0.14293313 0.13270393 0.0838373
0.2257728 -0.20260425 -0.124108255 0.066658966 0.23685315 0.044563595 0.44287482 -0.08731139
00000000: 601f fd3d b7a7 133e 8510 5bbc 2e61 203e
00000010: 8bd0 fc3d 1d1c 6fbe 7d36 433c 1f81 41be
00000020: eff3 f63a 61b3 b2be c8a2 923e 0d5b 123f
00000030: 9a4a 33bc 5d03 1c3d 7ad3 2c3e bdd2 743e
00000040: 7d26 923e 2e83 803d deb7 e33d 3289 cd3d
00000050: d9e7 533d be61 f93b 45be 353e 7d97 c9bd
00000060: 3d85 0e3e 0e5c 4e3e a21e 30be be70 1c3e
00000070: 5037 1cbe 0925 8e3e 96d8 acbe 9c6b 123d
00000080: 8474 c13d 2a9c 083d b475 063e 2524 6abd
00000090: 8f21 dd3d 9fe5 80bd 8018 323e 700c 3f3e
000000a0: 5c1a 923e 2d46 7fbe a829 2fbe 545f 7fbd
000000b0: ecf3 19be dc2e 053e e2a6 3bbe 275e f93c
000000c0: 7190 5d3e 5f18 a9be 01ff c13e 602d 82be
000000d0: 7cf7 65bd 2582 9bbe adff b3be 58b8 76bd
000000e0: 6a37 ef3e 173a 393e 8141 c23b 9c3e c0bd
000000f0: 9274 c13d 2d6b 8abd 289b 3bbd a132 a83d
00000100: 2251 d2be 5796 0e3e 6ff3 4b3c 5091 a5be
00000110: dfa8 9abe 3033 8fbc c205 7d3e 1ec1 823e
00000120: b41d 93be 335b c8be 5d3a 1cbd ef9a 04bf
00000130: 495b 753d 1c50 3b3e bc46 493d 6a13 f53d
00000140: 0115 3a3e 0052 a1be d4f9 8ebd 7f96 e0bd
00000150: 75ff 273e 29c7 a2be a9f1 05bf d05d 8e3e
00000160: 6849 2e3e 768a 8b3e 79b4 b63d 542d 5b3d
00000170: f480 593d 4de4 ce3c 1d05 a53c df03 6b3e
00000180: 2547 cdbd 42b2 a33d 569c 9c3d 91cc f93e
00000190: f917 e6bd 93eb afbc f6b5 a23d e46d 8f3c
000001a0: e270 ad3d eb3e 393e 6900 61be 3592 cc3d
000001b0: 2a85 783c 8f05 c33e fbd4 d13d 8143 b1be
000001c0: 3789 043d 443f ac3d b79b 7d3e 2490 02bf
000001d0: 5d09 94be 3498 03bf 0293 9abe c384 b13e
000001e0: 6c19 92bb b4d1 df3d 7d21 dfbe 73af 0f3e
000001f0: a634 d63d c157 aebe 989a 7fbd 12e4 4a3d
00000200: 33ab 873e 396b 2ebe 2cbf c8be 8aa9 23be
00000210: 2f4b e23c 3078 413e a839 813a d3fb dcbc
00000220: 7b10 523e 6d1a 2c3e 00ff 173d 2b2b 16bb
00000230: 01f1 b1bd 21c0 af3d f678 323e 4991 41be
00000240: e6e6 c7bd 59a6 1a3e a5dd 1ebe 2bd6 833e
00000250: 4232 103e b2f9 96be e207 ddbe d4f5 18bd
00000260: fd3d 123b 40f0 973e d732 dd3e 2693 323e
00000270: 3e6a 94be 0c5d a4bd 81f2 0dbd 0247 3abe
00000280: 8ab4 4dbe 9ea5 1abd 1666 2fbe ce07 86be
00000290: 4365 75bd abc3 02bc 05c8 ab3d e850 bd3d
000002a0: 23d4 44be 52ef 73be cc7e 64be 7bea aa3c
000002b0: 4fb8 1cbe 8c25 43be 7a70 4b3e 2489 aabd
000002c0: 69da 123e 6255 65bc 4264 b4bd 9dab 00be
000002d0: 45bf 4c3e e7eb 123d c8b3 35be b953 beba
000002e0: 2075 7abd 6547 86be fbc0 23be cb32 9e3d
000002f0: 763f 2fbe 7129 a0be a072 5abe 9b80 643e
00000300: 8285 5d3c 8526 61bd a993 97be c6b4 e23d
00000310: 2d39 acbd b7fa 363e 6738 dfbd 7e53 37be
00000320: 997a a9be 1f46 173e 15c9 b8be 8664 0abe
00000330: a78b 3e3e b713 a7bd c369 91be fb0f 28be
00000340: e40e 24bd 847b 62be 6246 9cbe 0726 8cbe
00000350: d04d 873d 7b36 a9be 6671 b1bc fb44 10be
00000360: 15c0 01bf 63df 1d3e 8027 98be 8ca6 87be
00000370: 942b cbbc e3b9 f4bc 0471 debe 47fa 1bbe
00000380: 4be6 bf3e 4e1b af3d ffa5 9c3d fd67 323d
00000390: cf85 c1bd 19b3 8abe f17a 40bd 6537 e93d
000003a0: d2f5 4abc 330b 4f3b d469 293e 27ef b23d
000003b0: d38c b13d 8d72 f03d ada8 16bd ef99 513c
000003c0: 6bc5 213e 9ac6 013d 2edb fd3c 7ce4 8d3b
000003d0: 92c5 1d3e 105d 12be 8ae3 073e e4b2 ab3d
000003e0: fc30 673e 7d77 4fbe 782c febd 7f84 883d
000003f0: a289 723e 5188 363d 7dc0 e23e 50d0 b2bd

linear_relu_stack.4.bias f4 [100]
-0.27323416 0.38263583 -0.027531242 0.16094358 -0.34549838 0.034853276 0.30614313 0.05066867
0.012768987 0.3646589 0.3130583 -0.4163871 -0.07003584 0.24864735 0.15681805 -0.2790495
0.27606782 -0.13558829 0.057606965 0.15377478 -0.02225683 -0.14881013 0.14625193 -0.07208999
-0.3300414 0.27633798 -0.13966529 -0.0158659 -0.104248 0.010172436 0.21706155 0.17496327
0.08306109 0.19376536 -0.062131573 -0.3308609 -0.04440266 0.35192496 -0.17415322 0.18081838
0.26394832 -0.12017508 -0.2253539 0.0018290346 -0.023813302 0.11800935 -0.05064922 -0.09830391
0.14793283 -0.030885294 -0.53973645 -0.023596182 -0.110890426 0.21511196 -0.1410951 -0.04789363
-0.338386 -0.138721 -0.003419136 0.12816027 -0.30369937 0.09025282 -0.092541374 0.20506307
-0.3183034 -0.007571018 -0.08373691 0.10931135 0.1662289 -0.3960751 -0.12214147 -0.0119254505
-0.27823523 -0.34509704 0.28613544 -0.08811201 0.023282977 -0.28125858 -0.15340745 0.035609163
0.29374552 0.062373772 -0.0029633276 -0.1380818 0.09434312 -0.12443442 0.029615063 0.007922037
-0.32287955 -0.18797092 0.1049236 0.19016832 0.3324754 -0.1459065 -0.11109363 -0.38897902
0.12694266 -0.16906226 0.19743836 -0.026403613
00000000: 59e5 8bbe d8e8 c33e 3389 e1bc 65ce 243e
00000010: 2ae5 b0be 4fc2 0e3d cbbe 9c3e f489 4f3d
00000020: 0335 513c 92b4 ba3e 2d49 a03e b130 d5be
00000030: f36e 8fbd 699d 7e3e e994 203e 93df 8ebe
00000040: c358 8d3e a8d7 0abe 48f5 6b3d 2377 1d3e
00000050: f553 b6bc af61 18be 11c3 153e eba3 93bd
00000060: 30fb a8be 2c7c 8d3e 6b04 0fbe 34f9 81bc
00000070: fa7f d5bd 4aaa 263c 6245 5e3e 9229 333e
00000080: ef1b aa3d 6d6a 463e ad7d 7ebd 9a66 a9be
00000090: 90df 35bd 822f b43e 3955 32be 7428 393e
000000a0: 3c24 873e 5a1e f6bd 2cc3 66be 38bc ef3a
000000b0: 1d14 c3bc e3ae f13d 8e75 4fbd 8f53 c9bd
000000c0: b47b 173e 2803 fdbc 2b2c 0abf c84c c1bc
000000d0: 851a e3bd 4f46 5c3e 3c7b 10be 1c2c 44bd
000000e0: ee40 adbe e10c 0ebe 9513 60bb 723c 033e
000000f0: 7c7e 9bbe 78d6 b83d 5586 bdbd 0efc 513e
00000100: aaf8 a2be 4d16 f8bb 427e abbd a1de df3d
00000110: e937 2a3e 5bca cabe 4f25 fabd f762 43bc
00000120: d974 8ebe 8fb0 b0be 5880 923e 1274 b4bd
00000130: f1bb be3c 2001 90be d816 1dbe eada 113d
00000140: d065 963e a47b 7f3d 6334 42bb 5165 0dbe
00000150: f736 c13d 79d7 febd 4a9b f23c 6ecb 013c
00000160: 7850 a5be 737b 40be 2fe2 d63d 7cbb 423e
00000170: 373a aa3e 8368 15be 0f85 e3bd 4228 c7be
00000180: 42fd 013e a81e 2dbe 482d 4a3e 644c d8bc

linear_relu_stack.6.weight f4 [100, 100]
-0.10316795 0.038100254 -0.039793897 -0.05929393 -0.055248164 -0.09686326 0.06774235 0.042239197
-0.07038087 -0.08468047 -0.018739345 -0.027668118 0.009707853 -0.039620653 0.0078380015 0.09230563
-0.14657818 -0.0045094877 -0.013957545 -0.045245454 -0.11124548 -0.03790543 0.079237774 -0.013709997
-0.009909943 -0.04202808 -0.09021736 -0.0358105 -0.05080412 -0.09948839 -0.14452603 -0.06986946
-0.04672034 -0.036101177 -0.09097151 -0.05782125 0.030971572 0.02146721 -0.121728085 0.06730879
-0.045709968 -0.108742334 -0.031382143 -0.081440955 -0.054555252 -0.030258602 0.070291415 -0.021724619
-0.037282627 0.042761248 0.018724397 -0.15985377 -0.010124433 0.0013477246 -0.007126749 -0.063095585
-0.09278263 -0.0012968278 -0.08353201 -0.04317396 -0.08389766 0.022205714 -0.019762112 0.0009318546
-0.08526839 -0.005855311 -0.1126997 0.018298697 -0.097904645 -0.08697492 0.006420946 -0.124202535
-0.10966345 -0.08951936 -0.12421765 0.06545587 -0.022888571 -0.07164025 0.050549548 0.06466802
0.021753723 -0.09715666 -0.0775138 0.0012276503 -0.08596373 -0.13257696 -0.075712636 0.023864917
-0.08221159 -0.08867658 -0.04015467 -0.05117673 -0.10479907 0.045054093 0.005368821 0.057331096
-0.12161198 -0.0026869287 -0.10723529 -0.020482559 -0.1548771 0.04085326 -0.036178686 0.22019346
-0.15528087 0.008419124 -0.0038774132 -0.13102558 -0.061532356 -0.0762817 0.056323882 -0.030806629
0.06089428 -0.03508432 -0.06473526 0.106561616 -0.0076532 0.25906146 0.05346996 -0.00492856
0.16214736 0.16263215 -0.046658516 0.08064053 -0.45472446 -0.1407632 0.14076225 -0.12245371
0.073641255 -0.21727389 0.054494936 -0.029330056 -0.07176278 -0.20435706 0.2725633 -0.35930893
-0.035430487 0.091966234 -0.067084834 0.12910378 -0.040401842 -0.23316209 0.0045216354 -0.022849705
0.06410973 -0.034195516 0.101232246 0.110783815 0.06346098 0.32765564 0.21171264 0.013558799
-0.053046267 -0.07094199 0.027660286 0.33409777 0.2777945 0.14262019 0.090176806 0.1590549
-0.01403814 -0.21497138 -0.115806386 -0.11330188 -0.25539863 -0.28721777 -0.43137416 -0.13886954
-0.18560198 0.14535582 0.0051518534 -0.2824112 -0.27093995 -0.40147647 0.072614826 -0.17200369
0.2046736 -0.2055198 0.097230345 -0.2934209 0.19306757 -0.020250157 0.17553943 -0.19443524
-0.14787403 -0.21245694 0.052254494 -0.21865226 0.019943714 -0.15513802 -0.06537771 -0.6960354
-0.06570436 -0.17512502 0.20338787 0.34206745 0.048661314 0.14648609 -0.027107235 -0.06514071
-0.15203094 -0.36598358 -0.19166534 -0.21432576 -0.06539426 0.030463884 0.22295061 -0.16990535
-0.19614944 -0.022156378 0.08421687 0.11286209 -0.27892572 0.037431043 -0.12540656 0.15657301
-0.020076957 -0.25300223 0.097449824 -0.05849731 -0.0846042 0.31197876 -0.25566548 -0.20282455
-0.21030875 -0.12604111 -0.040987287 -0.14840019 0.124039255 0.051350415 -0.15771167 -0.05049298
-0.13183148 0.11847327 -0.27652854 -0.22894292 0.020409789 -0.38071683 -0.20625453 0.1767502
0.10476835 0.030270545 0.14111806 -0.14658612 0.09225065 -0.43341774 -0.0071389605 -0.44617537
0.14894243 0.24866213 0.10049011 0.14331521 0.16828565 -0.07637608 0.16890834 -0.1384522
00000000: b849 d3bd 030f 1c3d edfe 22bd 31de 72bd
00000010: e64b 62bd 3f60 c6bd 80bc 8a3d 0203 2d3d
00000020: d823 90bd f46c adbd 4183 99bc 40a8 e2bc
00000030: b00d 1f3c 4449 22bd f66a 003c bc0a bd3d
00000040: 9718 16be 53c4 93bb 30ae 64bc 4c53 39bd
00000050: acd4 e3bd b942 1bbd 6a47 a23d e59f 60bc
00000060: 505d 22bc a325 2cbd e1c3 b8bd 08ae 12bd
00000070: fb17 50bd 92c0 cbbd a2fe 13be b817 8fbd
00000080: d45d 3fbd d4de 13bd 454f babd fad5 6cbd
00000090: 18b8 fd3c 01dc af3c 934c f9bd 31d9 893d
000000a0: 603a 3bbd 4db4 debd 908a 00bd 84ca a6bd
000000b0: 5475 5fbd e3e0 f7bc f2f4 8f3d d4f7 b1bc
000000c0: abb5 18bd 6b26 2f3d e863 993c b5b0 23be
000000d0: f3e0 25bc 22a6 b03a 8187 e9bb 4238 81bd
000000e0: d204 bebd 52fa a9ba d512 abbd 2ed7 30bd
000000f0: 89d2 abbd c2e8 b53c 27e4 a1bc b447 743a
00000100: 32a1 aebd e9dd bfbb 1acf e6bd 26e7 953c
00000110: 3b82 c8bd e81f b2bd cd66 d23b e65d febd
00000120: 3b97 e0bd ed55 b7bd d365 febd ba0d 863d
00000130: d080 bbbc 20b8 92bd 0b0d 4f3d ab70 843d
00000140: dd34 b23c 12fa c6bd 8ebf 9ebd 1ce9 a03a
00000150: c10d b0bd 41c2 07be 3a0f 9bbd 5c80 c33c
00000160: 8d5e a8bd 119c b5bd 3979 24bd b19e 51bd
00000170: e5a0 d6bd a48a 383d efec af3b 03d4 6a3d
00000180: b40f f9bd 2f17 30bb 2d9e dbbd 0acb a7bc
00000190: 1a98 1ebe bf55 273d 1a30 14bd 657a 613e
000001a0: f301 1fbe 5ef0 093c 331c 7ebb 922b 06be
000001b0: 5a09 7cbd 9439 9cbd dfb3 663d 2f5e fcbc
000001c0: 486c 793d 93b4 0fbd ec93 84bd fa3c da3d
000001d0: b2c7 fabb b4a3 843e 5103 5b3d c27f a1bb
000001e0: f509 263e 0b89 263e 001d 3fbd dd26 a53d
000001f0: a5d1 e8be 3a24 10be fb23 103e 03c9 fabd
00000200: 3ad1 963d 0c7d 5ebe 1536 5f3d 9645 f0bc
00000210: 5df8 92bd fa42 51be 6b8d 8b3e 57f7 b7be
00000220: 8f1f 11bd cb58 bc3d c663 89bd c833 043e
00000230: 677c 25bd 0bc2 6ebe 3a2a 943b 4e2f bbbc
00000240: f64b 833d 9910 0cbd da52 cf3d a0e2 e23d
00000250: d5f7 813d 7bc2 a73e 33cb 583e ba25 5e3c
00000260: 0b47 59bd 094a 91bd d397 e23c dd0e ab3e
00000270: 153b 8e3e 070b 123e 9eae b83d 4adf 223e
00000280: 3a00 66bc 7521 5cbe e62b edbd d10a e8bd
00000290: 9cc3 82be 350e 93be 13dd dcbe d133 0ebe
000002a0: 720e 3ebe 28d8 143e e1d0 a83b 3398 90be
000002b0: a4b8 8abe 538e cdbe 15b7 943d bc21 30be
000002c0: f595 513e c873 52be b420 c73d 443b 96be
000002d0: 81b3 453e a8e3 a5bc 9cc0 333e 081a 47be
000002e0: 4a6c 17be 508e 59be cf08 563d 61e6 5fbe
000002f0: 0061 a33c 80dc 1ebe c0e4 85bd 602f 32bf
00000300: 0290 86bd f953 33be e944 503e 7723 af3e
00000310: 1651 473d 7300 163e fe0f debc 7e68 85bd
00000320: 00ae 1bbe 3362 bbbe eb43 44be 3678 5bbe
00000330: 6ded 85bd 658f f93c 2a4d 643e abfb 2dbe
00000340: 66db 48be 4b81 b5bc e579 ac3d 3d24 e73d
00000350: 5acf 8ebe 4b51 193d 946a 00be ad54 203e
00000360: 6e78 a4bc 8289 81be c693 c73d e09a 6fbd
00000370: f844 adbd aebb 9f3e 96e6 82be 3db1 4fbe
00000380: 2d5b 57be ec10 01be 49e2 27bd 38f6 17be
00000390: 4b08 fe3d d054 523d 2b7f 21be bad1 4ebd
000003a0: d5fe 06be 1da2 f23d 2695 8dbe 0370 6abe
000003b0: 6e32 a73c 51ed c2be 6334 53be 01fe 343e
000003c0: ca90 d63d eff9 f73c 4181 103e ac1a 16be
000003d0: e9ed bc3d eee8 ddbe f1ed e9bb 1971 e4be
000003e0: 5d84 183e 49a1 7e3e c2cd cd3d 39c1 123e
000003f0: 1353 2c3e 106b 9cbd 4ff6 2c3e 6ac6 0dbe

linear_relu_stack.6.bias f4 [100]
-0.07039148 0.21500468 -0.14787622 -0.10433577 0.15386681 -0.010618928 0.054206416 -0.17948353
-0.05379684 0.048127465 0.14022239 0.023949172 0.18487506 -0.16729291 -0.3061108 0.13321936
0.002927998 -0.19684257 -0.40202594 0.049084723 -0.15731104 -0.06741641 -0.06278072 0.028292393
-0.031616528 0.0389901 -0.11378181 0.18222499 -0.3459913 -0.5445379 -0.11934515 0.15394142
-0.32406563 0.0037791126 -0.05244529 0.30973014 -0.072699115 0.007971709 -0.00096719887 -0.24928492
-0.36298975 0.0005362489 -0.059107136 0.20610872 -0.13020581 -0.5626135 0.28597218 0.14567883
0.13789403 -0.41138235 -0.081147835 0.030309105 0.026716553 -0.4578974 0.11230725 -0.025504237
0.051240504 0.3240525 -0.22435583 0.40883115 0.07928801 -0.18102992 -0.15099537 0.3724728
-0.025898952 -0.32183892 -0.1469623 -0.33255318 0.101391025 -0.08411771 -0.049591098 0.03181833
-0.118388325 0.04415039 0.12089713 -0.32102492 -0.028460126 -0.14311063 -0.3393599 0.037929107
-0.064411044 0.09957109 -0.24113244 0.08321363 0.0087279845 -0.41553438 0.15503746 -0.47673196
0.060608525 -0.3855866 -0.013748533 0.04784746 0.058637403 -0.022957139 0.069854885 0.42098725
-0.44502985 0.04557023 -0.37388337 -0.38175845
00000000: 6929 90bd 302a 5c3e dd6c 17be fead d5bd
00000010: 438f 1d3e 03fb 2dbc 8c07 5e3d 88ca 37be
00000020: 135a 5cbd 4e21 453d 7596 0f3e 0e31 c43c
00000030: e34f 3d3e d54e 2bbe 8eba 9cbe a86a 083e
00000040: a8e3 3f3b 1991 49be 58d6 cdbe 100d 493d
00000050: 2516 21be 9d11 8abd 2e93 80bd 73c5 e73c
00000060: 5580 01bd 15b4 1f3d 7006 e9bd 3099 3a3e
00000070: c625 b1be d666 0bbf 3b6b f4bd d2a2 1d3e
00000080: eeeb a5be fdaa 773b dfd0 56bd f394 9e3e
00000090: 46e3 94bd c59b 023c 9e8b 7dba 8c44 7fbe
000000a0: cbd9 b9be 0e93 0c3a 531a 72bd 2a0e 533e
000000b0: ac54 05be 7007 10bf f26a 923e d52c 153e
000000c0: 1834 0d3e b5a0 d2be d630 a6bd cd4a f83c
000000d0: acdc da3c 8771 eabe 5801 e63d 43ee d0bc
000000e0: 90e1 513d 36ea a53e 89bd 65be 5152 d13e
000000f0: c161 a23d e85f 39be 889e 1abe c1b4 be3e
00000100: 0a2a d4bc 12c8 a4be 497d 16be 6944 aabe
00000110: 19a6 cf3d e845 acbd 0920 4bbd f053 023d
00000120: 9475 f2bd 0ad7 343d ea98 f73d 615d a4be
00000130: 3625 e9bc 988b 12be 95c0 adbe 8d5b 1b3d
00000140: f0e9 83bd edeb cb3d 6ceb 76be e86b aa3d
00000150: d2ff 0e3c ecc0 d4be 24c2 1e3e 3616 f4be
00000160: a540 783d 9b6b c5be 8741 61bc b3fb 433d
00000170: c62d 703d 9c10 bcbc 1410 8f3d a48b d73e
00000180: f4da e3be d9a7 3a3d a46d bfbe d875 c3be

linear_relu_stack.8.weight f4 [100, 100]
-0.028122924 -0.26030326 0.2085489 -0.05618962 -0.15848356 -0.17863822 -0.24274117 -0.06299005
-0.3209693 -0.06789888 -0.16976869 -0.02132784 -0.109620556 0.073143825 -0.11552784 -0.10689061
-0.23882169 -0.03638303 -0.051995378 -0.08468542 -0.27538708 0.15929925 -0.15726137 -0.14850374
-0.098906815 0.23600353 0.0027358741 -0.4380824 0.23506556 -0.021407483 0.13272858 -0.037202116
0.10071947 -0.45030746 0.19383924 -0.034733377 0.18748604 0.09098128 0.062740594 -0.32538763
0.0736089 -0.10181426 0.2040246 0.05004109 0.30091313 -0.060454287 -0.12928213 -0.4075524
0.7701563 -0.042086616 -0.16071394 -0.19954827 -0.054877944 -0.113022506 -0.39391404 0.034717042
-0.15212925 0.020744938 -0.036745735 -0.5139733 -0.32108036 0.030603617 0.020538358 -0.066502124
-0.49686983 0.2327897 -0.1838212 0.05590577 -0.11885265 0.16559827 -0.16745763 -0.017229151
0.20970926 -0.09230862 -0.31055868 0.18973577 0.039393336 -0.02987571 0.023893401 -0.07454281
0.3365296 0.1544152 -0.0076196236 0.34490824 -0.12866494 -0.27856135 -0.08413682 0.02450385
-0.1410967 0.058855843 -0.20176262 0.3156594 0.16434167 -0.10150758 0.275295 -0.12509955
-0.1446619 -0.00620661 0.10321574 0.19472459 -0.05798758 0.16534904 -0.017720204 -0.048312508
-0.075311586 -0.36239567 0.3415688 -0.039213255 0.015367103 -0.0703762 -0.35115913 0.050621115
-0.46780735 0.09380271 0.13379936 -0.37399983 -0.0027890652 0.019556422 -0.018011546 0.07355538
-0.20799193 0.104477525 0.18358791 -0.04653304 0.03064338 0.23306015 0.06475853 -0.06157466
0.004506084 -0.044067383 0.05334932 -0.0075316443 0.17011987 -0.10845426 -0.16265476 0.09937779
-0.115036614 0.24937657 -0.042232 0.016930351 0.082139276 -0.044503983 0.16476248 0.12004483
-0.103543036 -0.16191396 -0.20057753 -0.11857925 0.09465882 0.036241658 0.13447827 0.06625548
-0.30339664 0.42444566 -0.070812024 -0.022310806 0.0834843 0.22495429 -0.04597652 0.009360101
0.23922445 0.06002972 -0.554897 -0.13187495 0.030905722 0.16207035 -0.053010218 0.40990752
0.07650638 0.03110179 0.047156584 0.26584604 0.30412287 0.16196698 0.11915975 -0.051676538
0.035725914 0.25317964 0.2200034 0.15104173 0.36149424 -0.508504 -0.014720735 0.15150742
-0.057333015 0.123731695 -0.3552926 0.107680574 -0.10920793 -0.031475175 -0.09368779 0.09662429
-0.1397985 0.14546321 -0.26131636 -0.32422522 0.23204644 0.22685875 0.166835 0.54324067
0.04086851 -0.15794075 0.15295358 0.09578569 0.04711167 -0.028727708 0.27078107 0.04993102
-0.05697503 -0.16611032 -0.08004303 0.67492807 -0.08262708 0.09621104 0.4220717 0.016499167
-0.111616075 -0.11709613 -0.0557799 -0.1399792 0.117821746 0.18442729 -0.09860795 0.21094611
-0.24371937 -0.17486967 -0.06340603 -0.20913962 0.18881968 0.042605933 -0.122872554 -0.10395478
0.30308294 -0.3196627 0.012103334 -0.14988446 -0.06538866 -0.02630875 -0.09825192 0.19657281
0.047921203 0.35667062 0.08958198 -0.15419564 -0.14224994 0.04943183 -0.1526712 -0.22435345
-0.022534361 0.16503187 0.08314966 0.018545255 -0.08722058 0.1640579 -0.14293316 0.052898917
00000000: 0c62 e6bc 7846 85be d88d 553e 1627 66bd
00000010: 8449 22be f0ec 36be 2491 78be ed00 81bd
00000020: 1756 a4be 910e 8bbd d8d7 2dbe b9b7 aebc
00000030: be80 e0bd 6ecc 953d dc99 ecbd 77e9 dabd
00000040: ac8d 74be 5f06 15bd 1bf9 54bd 8d6f adbd
00000050: 89ff 8cbe 581f 233e 2009 21be 5d11 18be
00000060: a88f cabd e9aa 713e 5a4c 333b 564c e0be
00000070: 07b5 703e bf5e afbc 00ea 073e 3f61 18bd
00000080: 0246 ce3d b38e e6be cb7d 463e 9644 0ebd
00000090: 57fc 3f3e 6554 ba3d 247e 803d 3599 a6be
000000a0: 43c0 963d ff83 d0bd d3eb 503e e3f7 4c3d
000000b0: 4911 9a3e ea9e 77bd 8962 04be b5aa d0be
000000c0: f728 453f 0463 2cbd 3292 24be 6256 4cbe
000000d0: b2c7 60bd 5878 e7bd 1aaf c9be 7533 0e3d
000000e0: c5c7 1bbe 4af1 a93c b282 16bd c193 03bf
000000f0: a564 a4be 70b4 fa3c 0f40 a83c 4432 88bd
00000100: b965 febe 6c60 6e3e a03b 3cbe 73fd 643d
00000110: 0569 f3bd 9892 293e 037a 2bbe 2624 8dbc
00000120: 06be 563e 4d0c bdbd 8c01 9fbe 184a 423e
00000130: e85a 213d e8bd f4bc 18bc c33c e7a9 98bd
00000140: 9c4d ac3e 051f 1e3e 09ae f9bb d097 b03e
00000150: bec0 03be 989f 8ebe ed4f acbd 4cbc c83c
00000160: a77b 10be d312 713d dc9a 4ebe 1c9e a13e
00000170: 2f49 283e 35e3 cfbd 77f3 8c3e 191a 00be
00000180: 4022 14be d160 cbbb c662 d33d e265 473e
00000190: 6284 6dbd 4251 293e f629 91bc 56e3 45bd
000001a0: f63c 9abd ed8b b9be 1be2 ae3e 149e 20bd
000001b0: 4dc6 7b3c 6621 90bd 21cb b3be 1658 4f3d
000001c0: 7284 efbe a31b c03d b302 093e e87c bfbe
000001d0: c0c8 36bb ca34 a03c f38c 93bc 34a4 963d
000001e0: d6fb 54be 50f8 d53d 78fe 3b3e 6e99 3ebd
000001f0: d307 fb3c 52a7 6e3e 1fa0 843d b635 7cbd
00000200: c6a7 933b 0080 34bd d184 5a3d 03cc f6bb
00000210: e733 2e3e 441d debd f88e 26be 9586 cb3d
00000220: 5198 ebbd 925c 7f3e 76fb 2cbd 85b1 8a3c
00000230: a338 a83d cf49 36bd 7fb7 283e 10da f53d
00000240: 5f0e d4bd c6cc 25be 3264 4dbe aed9 f2bd
00000250: 7cdc c13d 2272 143d acb4 093e f4b0 873d
00000260: ce56 9bbe f150 d93e e505 91bd 27c5 b6bc
00000270: d1f9 aa3d 6b5a 663e e051 3cbd 1c5b 193c
00000280: 41f7 743e b9e1 753d bb0d 0ebf 3a0a 07be
00000290: ff2d fd3c c5f5 253e 3e21 59bd 66df d13e
000002a0: 61af 9c3d 2ec9 fe3c 4327 413d f91c 883e
000002b0: feb5 9b3e acda 253e 070a f43d c7aa 53bd
000002c0: 5655 123d c3a0 813e 9248 613e afaa 1a3e
000002d0: c615 b93e 512d 02bf 3d2f 71bc c324 1b3e
000002e0: 06d6 6abd 0b67 fd3d e9e8 b5be a287 dc3d
000002f0: 68a8 dfbd 1dec 00bd 62df bfbd f5e2 c53d
00000300: 5727 0fbe 4ff4 143e 42cb 85be d900 a6be
00000310: 959d 6d3e a94d 683e cbd6 2a3e d211 0b3f
00000320: bd65 273d 38bb 21be dd9f 1c3e 4a2b c43d
00000330: 2bf8 403d 5f56 ebbc d1a3 8a3e 7884 4c3d
00000340: a65e 69bd d318 2abe 9aed a3bd 16c8 2c3f
00000350: 6338 a9bd 4b0a c53d c819 d83e 4329 873c
00000360: f896 e4bd 19d0 efbd 7779 64bd b556 0fbe
00000370: 874c f13d 82da 3c3e f7f2 c9bd 4202 583e
00000380: 9291 79be 0911 33be 05db 81bd b228 56be
00000390: f259 413e 8f83 2e3d 9ba4 fbbd 3ee6 d4bd
000003a0: b02d 9b3e d4aa a3be 104d 463c 507b 19be
000003b0: 7dea 85bd 7385 d7bc 4d38 c9bd 624a 493e
000003c0: 0649 443d 889d b63e c276 b73d 76e5 1dbe
000003d0: f8a9 11be 0879 4a3d d755 1cbe e9bc 65be
000003e0: fb99 b8bc 1dfe 283e 5e4a aa3d 38ec 973c
000003f0: b4a0 b2bd cbfe 273e 125d 12be 89ac 583d

linear_relu_stack.8.bias f4 [100]
-0.13934582 -0.14007093 -0.44132373 -0.32249007 0.14470154 -0.04241859 -0.3801022 -0.2815501
-0.09741344 -0.013556436 -0.106904365 -0.14435112 -0.112708025 0.00048451527 -0.16362244 0.18801163
-0.21079789 0.07132806 -0.031112889 0.16491224 -0.002549807 -0.03867981 -0.11515328 0.0026904983
-0.45344305 -0.3210856 -0.30134758 0.12697384 -0.017666722 0.32365215 -0.039351698 -0.38117677
0.1432748 -0.045404945 0.061037634 -0.017969456 -0.31391615 -0.22120598 0.06154057 0.13214888
0.09875323 0.0033489387 -0.18123902 -0.15547766 0.043773934 0.04965561 -0.13485372 0.39348713
-0.36781836 0.2019462 -0.3126708 0.08168248 -0.0076106056 0.17947309 -0.028083188 0.049426287
0.44259757 -0.07692573 -0.2755682 -0.13167392 0.06256569 0.10617599 0.051039696 -0.05576625
0.34845793 -0.13236561 -0.5309096 0.11316224 -0.20896332 0.10168604 0.16972029 -0.17544584
0.048769493 0.114029765 0.01236857 0.23313764 -0.029844187 -0.42986375 0.25571817 -0.21943274
-0.19829457 -0.035406213 0.10145156 -0.03666388 -0.07531342 -0.18520617 -0.28788063 0.05696862
-0.21539755 0.038616896 0.030100256 -0.013229991 0.06808955 0.038407914 0.037313275 -0.22703463
0.14797924 -0.0064137196 -0.015237444 -0.24634519
00000000: acb0 0ebe c16e 0fbe 2ff5 e1be 6b1d a5be
00000010: a42c 143e 1ebf 2dbd c19c c2be 5627 90be
00000020: b380 c7bd d01b 5ebc adf0 dabd c8d0 13be
00000030: 77d3 e6bd 8a06 fe39 a48c 27be 1f86 403e
00000040: 67db 57be 7214 923d 75e0 febc c1de 283e
00000050: aa1a 27bb b86e 1ebd 7cd5 ebbd 1253 303b
00000060: b029 e8be 5565 a4be 3b4a 9abe 6e05 023e
00000070: cdb9 90bc bcb5 a53e 3f2f 21bd 9a29 c3be
00000080: a1b6 123e 89fa 39bd 9902 7a3d ae34 93bc
00000090: 9eb9 a0be d283 62be f711 7c3d 0952 073e
000000a0: 223f ca3d de79 5b3b b996 39be 8935 1fbe
000000b0: 4c4c 333d ae63 4b3d 1817 0abe 2577 c93e
000000c0: b052 bcbe fcca 4e3e 6316 a0be 2549 a73d
000000d0: 6362 f9bb cbc7 373e b70e e6bc 3873 4a3d
000000e0: 269c e23e 3d8b 9dbd 4617 8dbe 87d5 06be
000000f0: 7122 803d cc72 d93d 000f 513d 276b 64bd
00000100: 1469 b23e da8a 07be b1e9 07bf 9bc1 e73d
00000110: 7bfa 55be c540 d03d 28cb 2d3e 13a8 33be
00000120: 85c2 473d 7088 e93d 8ba5 4a3c a2bb 6e3e
00000130: cc7b f4bc 1a17 dcbe 7eed 823e fab2 60be
00000140: bb0d 4bbe 1b06 11bd d6c5 cf3d dd2c 16bd
00000150: ec3d 9abd b0a6 3dbe 1765 93be ed57 693d
00000160: 2d91 5cbe c02c 1e3d d094 f63c 9bc2 58bc
00000170: 8972 8b3d 9e51 1d3d ced5 183d c47b 68be
00000180: df87 173e 2e2a d2bb 79a6 79bc ea41 7cbe

linear_relu_stack.10.weight f4 [100, 100]
-0.055338074 -0.3009235 0.13810761 0.14680895 0.0205126 0.014741442 -0.07563044 0.051535573
0.03685266 -0.28454024 -0.04897541 -0.054594748 -0.032567997 0.0531712 -0.08888291 -0.26832017
-0.10531562 -0.10948427 -0.15483852 -0.19193 -0.14314806 -0.18479337 0.35870472 0.05070634
-0.01125945 -0.13550201 0.014222312 -0.106862195 -0.005423627 -0.20404468 -0.09907831 0.04931303
-0.11627878 -0.08210927 -0.014041054 -0.0034318161 -0.0103389295 0.059725728 -0.008963488 0.01578094
-0.11672566 -0.02918244 -0.027198236 -0.048497185 -0.08398125 -0.221686 -0.14679071 -0.14614221
-0.02337114 -0.053384855 -0.119891055 0.19638252 -0.051441558 0.1378251 -0.2327105 -0.15034533
-0.10327952 0.0695816 0.0059025185 -0.17417407 0.011300972 -0.010448799 0.001485456 -0.15634361
-0.05497703 -0.10831536 0.028757548 -0.024621628 -0.033360798 -0.1158052 -0.028898476 0.09894394
-0.007749838 -0.09598068 -0.16700244 -0.08292874 -0.11284661 0.025266146 -0.07661895 -0.2797758
-0.06721661 -0.023281276 -0.11373112 -0.034013156 0.038351 -0.02189901 -0.08901652 -0.17577597
-0.029825917 0.013295427 -0.22934905 -0.07764257 -0.17584968 -0.033692874 -0.13698156 0.17280717
-0.15019135 -0.083047464 0.027416246 0.07188177 0.26199192 0.02708381 0.19942132 0.113482736
0.098603554 0.29014942 -0.019351907 -0.009990841 0.0069368724 -0.26907444 -0.019078517 -0.1861951
0.0593239 0.07193004 -0.3747838 -0.36329398 0.15490603 -0.21800764 0.03157017 -0.0678886
0.041988917 0.26697195 0.11613608 -0.06863825 0.0033877685 0.17966579 0.008808326 -0.20736225
-0.10925209 0.08925702 0.014042084 0.21404183 -0.15258804 -0.15585919 -0.06605317 0.09081159
0.45201993 0.1378896 -0.17677623 -0.046797935 -0.1854729 0.11315028 0.010508971 -0.09531861
0.13441607 0.17321943 -0.17176946 -0.21120432 0.09074664 -0.27444467 -0.23708788 -0.028263817
0.020434983 0.01818765 0.021682382 0.090052046 0.099576145 -0.057795018 0.62738895 0.054653164
-0.14115882 -0.064957075 -0.029808747 -0.17203715 0.17019683 0.14060698 -0.119648844 -0.059503015
-0.21778882 0.03334376 -0.13156961 -0.19391717 0.2264973 -0.20406577 -0.11291487 -0.11424663
-0.11629999 0.03415781 -0.04077609 -0.19359218 0.11261972 -0.31261936 -0.03108208 0.06745341
0.01703877 -0.094636865 0.08667352 -0.21092978 -0.016214026 -0.08634254 0.03580278 -0.03976911
-0.019220846 0.1372344 0.0021212166 0.049299095 -0.10396759 -0.08504285 -0.08234942 -0.13286002
0.15843804 -0.023094095 0.10991855 -0.041200187 -0.30349997 -0.27487954 -0.11160267 0.42619666
-0.066559106 -0.14135471 -0.24802059 -0.119059466 -0.14161931 -0.045481306 -0.31364182 -0.08424081
0.12712637 -0.271023 -0.0079337815 -0.18066841 -0.029751912 0.16190353 0.017126724 0.020335393
0.2021882 0.05669379 0.20889634 -0.094541706 -0.011634901 -0.14273395 -0.10087343 0.10146026
-0.15107903 -0.035042305 -0.25223997 -0.10978983 0.21544974 0.04686501 -0.235123 0.0196365
-0.099433556 0.011402859 -0.035427306 -0.24243972 -0.02781849 -0.05884676 -0.01129988 -0.016998593
-0.11058389 -0.0006361872 -0.042073548 -0.028620943 -0.07896964 -0.10506477 0.0070092804 -0.06288218
00000000: 2daa 62bd a512 9abe 156c 0d3e 1655 163e
00000010: 0a0a a83c 1786 713c 22e4 9abd f716 533d
00000020: d1f2 163d 42af 91be 719a 48bd be9e 5fbd
00000030: 0566 05bd 0bca 593d 3e08 b6bd 4361 89be
00000040: b7af d7bd 4a39 e0bd fd8d 1ebe 4c89 44be
00000050: 6895 12be 793a 3dbe 25a8 b73e 73b1 4f3d
00000060: 8e79 38bc 0ac1 0abe b304 693c 91da dabd
00000070: aeb8 b1bb 17f1 50be 92e9 cabd 76fc 493d
00000080: 9223 eebd e828 a8bd 730c 66bc 52e8 60bb
00000090: 9d64 29bc f7a2 743d 98db 12bc 0847 813c
000000a0: dd0d efbd 0310 efbc d6ce debc fca4 46bd
000000b0: 5dfe abbd a801 63be 4e50 16be 4ea6 15be
000000c0: d574 bfbc 14aa 5abd 7189 f5bd 8018 493e
000000d0: 62b4 52bd 0622 0d3e a94b 6ebe 20f4 19be
000000e0: 3784 d3bd cc80 8e3d ea69 c13b b05a 32be
000000f0: b627 393c 7031 2bbc a2b3 c23a 8a18 20be
00000100: 982f 61bd 72d4 ddbd f394 eb3c 4cb3 c9bc
00000110: 55a5 08bd 472b edbd 7fbc ecbc 1fa3 ca3d
00000120: 5af2 fdbb 8591 c4bd b002 2bbe 8bd6 a9bd
00000130: 201c e7bd f3fa ce3c 65ea 9cbd c63e 8fbe
00000140: dda8 89bd 60b8 bebc ddeb e8bd 6151 0bbd
00000150: f015 1d3d 8d65 b3bc 4b4e b6bd 9efe 33be
00000160: 7b55 f4bc 10d5 593c 7ada 6abe 1103 9fbd
00000170: f011 34be 8a01 0abd e544 0cbe 5df4 303e
00000180: c3cb 19be ca14 aabd 0998 e03c c036 933d
00000190: ce23 863e dede dd3c 1a35 4c3e a369 e83d
000001a0: a9f0 c93d 778e 943e e487 9ebc a0b0 23bc
000001b0: b44e e33b 20c4 89be 8d4a 9cbc eea9 3ebe
000001c0: 9efd 723d 0f50 933d aae3 bfbe ab01 babe
000001d0: b09f 1e3e 653d 5fbe b94f 013d 2e09 8bbd
000001e0: 92fc 2b3d 8cb0 883e c1d8 ed3d 3692 8cbd
000001f0: 5305 5e3b 4ffa 373e cc50 103c c556 54be
00000200: 8fbf dfbd 62cc b63d c510 663c c82d 5b3e
00000210: 0a40 1cbe 8d99 1fbe e246 87bd 6dfb b93d
00000220: 286f e73e ee32 0d3e d404 35be 31af 3fbd
00000230: 9cec 3dbe 56bb e73d d22d 2c3c 6736 c3bd
00000240: 5ea4 093e 6f60 313e 55e4 2fbe f245 58be
00000250: 60d9 b93d 0384 8cbe 2ac7 72be 8589 e7bc
00000260: 4467 a73c 44fe 943c 409f b13c 356d b83d
00000270: 94ee cb3d 78ba 6cbd 909c 203f ffdb 5f3d
00000280: f08b 10be 3708 85bd 7931 f4bc 822a 30be
00000290: 1448 2e3e 47fb 0f3e 740a f5bd 6fb9 73bd
000002a0: 0804 5fbe 7793 083d 2fba 06be 3992 46be
000002b0: e9ee 673e 9ef6 50be e93f e7bd 23fa e9bd
000002c0: b02e eebd 0fe9 0b3d d404 27bd 073d 46be
000002d0: 2ba5 e63d a50f a0be d99f febc 0325 8a3d
000002e0: e494 8b3c f9d0 c1bd e381 b13d fafd 57be
000002f0: 47d3 84bc 5cd4 b0bd f0a5 123d efe4 22bd
00000300: 0975 9dbc 2d87 0c3e 1c04 0b3b d9ed 493d
00000310: f6ec d4bd f22a aebd d0a6 a8bd 750c 08be
00000320: 953d 223e d42f bdbc fa1c e13d 87c1 28bd
00000330: 5964 9bbe 03bd 8cbe f18f e4bd 7336 da3e
00000340: 2450 88bd 4abf 10be 1cf9 7dbe 73d5 f3bd
00000350: a704 11be 9b4a 3abd a995 a0be 7286 acbd
00000360: 6a2d 023e 87c3 8abe b1fc 01bc 2401 39be
00000370: 48ba f3bc 0aca 253e 584d 8c3c 6996 a63c
00000380: 6c0a 4f3e bf37 683d ece8 553e 159f c1bd
00000390: 50a0 3ebc d928 12be bb96 cebd 66ca cf3d
000003a0: 76b4 1abe 8588 0fbd 9925 81be 7ed9 e0bd
000003b0: db9e 5c3e 86f5 3f3d 15c4 70be badc a03c
000003c0: d2a3 cbbd 0fd3 3a3c 391c 11bd 1e42 78be
000003d0: 9ae3 e3bc 4d09 71bd 2223 39bc a240 8bbc
000003e0: ce79 e2bd cdc5 26ba 5055 2cbd 7876 eabc
000003f0: d6ba a1bd 332c d7bd 1bae e53b 5fc8 80bd
