sart/models/mnist_new_10x80/mnist_net_new_10x80.pth (torch, 494755 bytes, 22 tensors)

linear_relu_stack.0.weight f4 [80, 784]
000000 8a 5e ff bb 9b 3a 0e 3d ec 5b fb 3c ee 96 a6 3b
       -0.0077932524 0.03472386 0.03068348 0.00508391
000010 47 0d 08 3d 14 a7 0e 3d ae c4 99 3b 6a 3d 60 bc
       0.033215787 0.034827307 0.0046926355 -0.013686517
000020 63 ba 91 3c 2a 36 5a bc 6e 9f 1a bb 95 7d d9 bc
       0.017789071 -0.013318578 -0.0023593563 -0.02654914
000030 81 ae bf 3c c1 89 9c 3b 37 02 6d bd f9 70 13 bb
       0.02339864 0.0047771637 -0.05786344 -0.0022497757
000040 00 51 8a ba 25 81 4f 3a ec e0 da 3c b7 b6 a9 3c
       -0.0010552704 0.00079156674 0.02671858 0.020717008
000050 1a 1a ef bc a8 be fa 3c 81 5f 78 3b 01 89 43 bc
       -0.02918725 0.03060849 0.0037898722 -0.01193452
000060 4c 1c b3 3c 4e b5 4b 3c f1 90 eb 3c 25 a0 a1 bc
       0.021864079 0.012433363 0.028755637 -0.019729683
000070 b7 bd d0 3c af 68 0d 3d 93 d4 5d b9 ca fd 93 bb
       0.025481088 0.034523662 -0.00021155392 -0.004516338
000080 fa 5f c7 bc 5a 95 91 3c e8 bf 8f 3c cd 2b c8 3b
       -0.024337757 0.017771412 0.017547563 0.006108737
000090 a7 77 9c 3d 6a c1 9b 3d 25 2d 07 3e de 71 fc bc
       0.076400094 0.0760525 0.13200815 -0.030816015
0000a0 74 8b e9 3c ee c9 5e be 14 f7 7b bd 6e e7 d1 be
       0.02850888 -0.21756718 -0.06151493 -0.4099688
0000b0 22 4f 12 bf bb 6f 15 bf 69 87 79 bd 04 62 6d bc
       -0.57152 -0.5837361 -0.060920153 -0.014488701
0000c0 ec 53 a8 3c 65 98 26 3b 31 bc 7b bc 02 53 5d bc
       0.02054783 0.0025420424 -0.015364693 -0.01350856
0000d0 fe f7 8d bc 37 f8 89 3b c8 ef e3 bc 25 0a dd 3a
       -0.017330166 0.0042104977 -0.027824298 0.0016863985
0000e0 c0 b0 1e 3c b7 29 56 bc 9b 61 7b 3c 94 f6 1c 3c
       0.009685695 -0.013071469 0.015343095 0.009580273
0000f0 99 49 88 3d 3e de 55 bc 4d 98 82 bc 10 2b 02 be
       0.06654663 -0.013053475 -0.015941763 -0.1271174
000100 4c d5 53 3d 7c 6c 49 3e fd 76 ae 3e 57 c9 57 be
       0.051717088 0.1967029 0.34075156 -0.21072899
000110 20 41 7c be e4 d8 bb be 4a fd 1d bf 64 aa 5a bf
       -0.24634218 -0.36688912 -0.61714613 -0.85416245
000120 88 e3 43 bf 26 ca f5 be 2d 6a 9c be 09 4f 00 be
       -0.7651906 -0.4800579 -0.30549756 -0.1253015
000130 fe 3f 3c be f4 4b ea be 53 d0 21 be ab fd a4 be
       -0.18383786 -0.45761073 -0.15802126 -0.32224783
000140 cd 10 e0 bd 2f 4c cb 3b 51 0b c1 3c 05 4b aa 3c
       -0.109407045 0.00620415 0.023564966 0.020787725
000150 01 9c 75 3b ee 4b b5 bc eb 8c 35 3c 89 3d 4b 3e
       0.0037477019 -0.022130933 0.011080961 0.19847693
000160 9e 34 73 3e be b8 3a bd c6 0b 47 3e af 43 87 3e
       0.2375054 -0.04558634 0.19438085 0.26418826
000170 62 e8 d1 be a8 b0 a4 be fc 20 b0 bc 3b 43 e2 bc
       -0.40997607 -0.32166028 -0.021500103 -0.027619949
000180 61 1f 8d be b3 e5 3a be 24 b1 86 be 50 13 bb be
       -0.27563003 -0.18251686 -0.26307023 -0.36538172
000190 78 59 a1 be a1 e5 2b bd e2 94 bd bd ab 6d 6b 3e
       -0.31513572 -0.041967038 -0.09256913 0.22991054
0001a0 e0 92 1a 3e 56 d4 3d bc 39 93 94 be f8 14 b6 be
       0.15095091 -0.011586269 -0.29018572 -0.35562873
0001b0 bb fd ec bd b6 fd de bd b1 5b 2b 3b 13 5c 4e bb
       -0.11571833 -0.10888235 0.0026147182 -0.0031487986
0001c0 b3 18 bc bc 68 00 b1 3b 65 3f 94 be 26 07 98 3e
       -0.022960996 0.0054016598 -0.28954616 0.29692954
0001d0 47 26 31 3d d0 9e 0a be f9 64 21 bd 62 6d ab 3e
       0.043249395 -0.13537145 -0.039402936 0.3348189
0001e0 56 1c 92 3c e5 2b bc bc 1f d1 6e 3d a1 01 60 3c
       0.017835777 -0.02297015 0.058304902 0.013672263
0001f0 27 8a cb 3c ca 77 0d be eb 7c 3b bf 74 53 45 be
       0.02484615 -0.13815227 -0.73237485 -0.19270116
000200 af bc d9 bd 7d 39 e0 bd d3 40 55 3d 67 60 e5 3e
       -0.10631692 -0.10948465 0.052063774 0.44800112
000210 0e 9e 84 3d 27 fa cf bd d2 d1 bb be 7a 03 00 bf
       0.06475459 -0.10155135 -0.36683518 -0.50005305
000220 49 2a 77 be 26 65 a3 3d 45 3b 4f 3e da f9 0f 3d
       -0.24137224 0.07978277 0.20237453 0.035150386
000230 c0 f8 a5 3c 73 9a 20 3c 4a 9d ae be 8c e6 c0 3e
       0.020260215 0.009802449 -0.34104377 0.37675893
000240 17 34 54 bc 40 25 34 be 1a 74 fe be a3 ab 25 bf
       -0.012951872 -0.17592335 -0.49697953 -0.6471502
000250 f6 e2 bd be d4 78 bf 3b de 81 5b 3e b7 4f b1 3c
       -0.3708722 0.0058432613 0.21436259 0.021644456
000260 de 9b 96 3d 47 41 0e bf f3 c9 ec be b6 87 b0 be
       0.07353948 -0.55568355 -0.46247825 -0.3447854
000270 7f 8b d3 3b ec 2b ab 3e 11 d0 7c 3e ed ff b3 3d
       0.006455838 0.33431947 0.24688746 0.08789048
000280 ae 4c bc ba e3 b0 62 be c7 f2 b1 be 35 75 ff be
       -0.0014366114 -0.2213779 -0.34755537 -0.4989411
000290 42 8d 6e be 82 7c 84 be 52 03 8b 3d 95 1f dd 3e
       -0.23296073 -0.25876242 0.06787743 0.43188158
0002a0 dc d6 0b 3a 11 9f a8 bc 43 e6 d6 be e9 16 67 3e
       0.0005334446 -0.020583661 -0.4197255 0.22567333
0002b0 e6 23 04 3e 11 8d b6 bd 96 03 19 3d f5 63 b5 bd
       0.12904319 -0.08913625 0.037356935 -0.08856956
0002c0 ea f1 39 3d ca 6b 9b 3e 3d 7d f2 bd fc 90 46 be
       0.045396723 0.30355674 -0.118402936 -0.19391245
0002d0 ce ea ea bd d7 d3 e8 be b9 1b 45 bf 04 08 95 be
       -0.11470567 -0.4547412 -0.76995426 -0.29107678
0002e0 08 f3 00 3e 1d ff 9d 3e 24 f7 5c 3e a9 c4 9d 3d
       0.12592709 0.30858698 0.21578652 0.077035256
0002f0 50 ae 23 3c 3f c4 25 be d0 82 8f bd 0a 43 5a 3e
       0.00999029 -0.16188143 -0.070073724 0.21314636
000300 59 ed 84 3e 89 3b a5 bd 88 5e e4 3d 51 57 15 3e
       0.25962332 -0.08067996 0.11150843 0.1458409
000310 07 8c 85 bc 5f 55 89 bd 83 5b 00 bf 7d 25 db 3d
       -0.016302122 -0.06705736 -0.50139636 0.1070051
000320 7b b8 75 3d 3f a5 93 3e c3 74 8e 3d cd 77 22 be
       0.059990387 0.2883701 0.06955864 -0.15866013
000330 fc 6a 0e 3d 41 3b 94 3d 9e 1e a9 bd f2 e9 a3 3c
       0.034769997 0.07237864 -0.08257793 0.020009015
000340 99 0c e3 bc f3 29 f4 be f9 9e 3e bf da 6d 63 be
       -0.027715968 -0.47688255 -0.74461323 -0.22209874
000350 af ca e4 3d ca 25 e6 3e 9b 68 a0 3e 59 7e 62 3e
       0.11171471 0.44950706 0.31329808 0.2211851
000360 66 c0 fa 3d f5 17 64 bd ce e6 e0 bd d0 a2 87 3d
       0.12243728 -0.05568691 -0.109815225 0.06622851
000370 06 cb ce 3d de 72 a4 bd 1f ac 13 bc 5b 51 91 be
       0.100973174 -0.08029722 -0.009013205 -0.28382382
000380 81 cf 95 3e c4 bd ef be e0 b1 82 bd 88 c9 52 3e
       0.29259875 -0.46824467 -0.06381583 0.2058469
000390 16 19 aa 3e 1d fe 81 3e b4 51 30 be bf 8b 8e bd
       0.33222264 0.25389186 -0.17218667 -0.06960248
0003a0 74 76 4d bd 3a 98 31 3e 29 70 12 3e fa 4f 98 3d
       -0.050161794 0.17343226 0.14300598 0.07437129
0003b0 0f 34 e0 bd c7 35 f0 be 2f 22 fe be 24 5e 2e be
       -0.109474294 -0.4691603 -0.49635455 -0.170281
0003c0 6f 81 8f 3e b8 69 d6 3e 16 fe ec 3d e9 34 d4 bb
       0.28028437 0.41877532 0.115719005 -0.006476034
0003d0 74 ed d6 3d 31 b3 09 3e 10 58 31 be a3 bf af 3d
       0.10494509 0.13447262 -0.1731875 0.08581474
0003e0 db ba 5e 3d 1e e5 02 3d 5a 91 09 be aa 27 89 be
       0.054377418 0.031956784 -0.13434353 -0.26788074
0003f0 99 7a a0 3d 20 c1 1e 3d aa 82 44 be 74 19 6b bd
       0.07835884 0.038758397 -0.1919047 -0.05739732

linear_relu_stack.0.bias f4 [80]
000000 80 7d a2 3d d1 6d b2 bc c9 f6 b5 3d e5 04 90 3e
       0.079340935 -0.02178088 0.08884961 0.28128734
000010 cb 93 d5 3b ab d1 36 3e ec c4 cc 3e 99 de 8d 3c
       0.0065178624 0.1785342 0.3999399 0.017318057
000020 82 9c 05 3e 0d 5f c2 bd eb 50 30 be d2 e8 50 3e
       0.13047984 -0.09490786 -0.17218368 0.20401314
000030 69 bc a4 3d 1a 65 04 be cf a0 18 be 88 e6 b6 bc
       0.08043749 -0.12929192 -0.14905094 -0.022326723
000040 a1 c4 74 bd e0 ac e6 bd c0 5a 3e be 21 19 2a bd
       -0.059757832 -0.11263442 -0.18589306 -0.04152787
000050 a2 fb 86 3e 8f 08 40 be 79 6c 78 bd 8b f8 2e be
       0.26363856 -0.18753265 -0.060650323 -0.17086999
000060 36 7f 43 3c e3 8a fd 3d 5f 85 50 3e e1 5a d7 bd
       0.011932185 0.12380006 0.20363377 -0.10515381
000070 70 70 2d 3e f7 35 1c be cc 46 1e 3d a5 2b c7 bd
       0.16937423 -0.15254961 0.038641736 -0.097251214
000080 40 51 1d bc 22 6f f6 bd c3 db a0 ba bd 35 05 bd
       -0.009601891 -0.12032916 -0.0012272525 -0.032521952
000090 0a ea 56 bd cf 42 8b 3e fc 7c b6 bd dc f8 92 3b
       -0.05246929 0.27199408 -0.08910558 0.0044852328
0000a0 87 74 46 3c 05 78 6c bd e9 95 36 3d 1e 75 1e 3a
       0.012112743 -0.057731647 0.04457656 0.00060446735
0000b0 a9 13 0a 3e eb b6 b5 bd d9 4d 5b bb e3 a6 87 3d
       0.13484062 -0.088727795 -0.003346315 0.06623628
0000c0 7c 96 ef bd e0 b5 b1 be b3 37 a2 3c e3 31 e1 3d
       -0.116986245 -0.34709072 0.01980195 0.10995843
0000d0 bb 53 55 3e 6f 7a 4c 3c 11 40 86 be 34 c9 4f be
       0.20832722 0.012480362 -0.26220754 -0.20291597
0000e0 6b c3 98 be d8 7f 86 bd fe 27 bd bd 57 fb 88 bd
       -0.29836592 -0.06567353 -0.092361435 -0.06688564
0000f0 7d 6d 23 be f6 5b 97 3e 84 e1 39 3d a7 64 10 be
       -0.15959735 0.29562348 0.045381084 -0.14100896
000100 60 2b b0 be 24 42 4e 3d 74 e7 86 bd 31 71 32 be
       -0.34408092 0.050356045 -0.06587115 -0.17425992
000110 34 cc 1b 3d 91 49 a6 3d 2c 23 fb 3d bd 21 d5 bd
       0.03803654 0.081195004 0.12262568 -0.10406826
000120 aa a5 83 bd 97 32 a3 3c 34 bb b9 bd 5b a3 01 be
       -0.06428082 0.019921584 -0.09068909 -0.12659971
000130 2a 7c 8a bc 17 92 de bc 3c 5e 2c 3e 8d dc 52 bd
       -0.01690491 -0.02716927 0.16832823 -0.051479865

linear_relu_stack.2.weight f4 [80, 80]
000000 89 28 08 3d e4 a2 12 3d 6e a2 86 bd 18 3a 29 bd
       0.033241782 0.035799876 -0.0657395 -0.04131517
000010 95 53 85 bd d8 90 8c bc da 13 02 3d 19 d3 33 bc
       -0.06510083 -0.01715891 0.031757213 -0.010975623
000020 22 e2 00 bd e0 dc e5 bd 68 02 08 be ab 69 13 be
       -0.031465657 -0.11223769 -0.13282168 -0.14395778
000030 bc da 7d bd 3b 74 d0 bd d7 41 08 3d b3 d2 84 3d
       -0.06197618 -0.10178419 0.033265915 0.064855
000040 12 d2 83 bc 9b a7 60 bd 0d 80 00 bd 75 16 52 3c
       -0.01609138 -0.05484734 -0.03137212 0.012822737
000050 f4 1e 8d bc d2 9c ae bc 21 48 f5 bc 1a 86 62 3d
       -0.017226674 -0.021315012 -0.02994162 0.05530367
000060 3e 66 7c bd f3 f8 c3 bd 3e ab fe bb ef 3d 05 bd
       -0.061620943 -0.09568968 -0.0077718785 -0.032529768
000070 18 cf 8c bd 2b 3e d3 bd 23 1d 65 bc f0 f5 48 3d
       -0.068754375 -0.10314592 -0.0139839975 0.04906267
000080 02 71 99 3d 99 28 1a be 35 0e 9e bd e1 fd d1 bd
       0.07492258 -0.1505455 -0.077175535 -0.10253502
000090 b9 93 a4 bd 0a 44 e6 bd 46 53 e2 bd 0a c7 be bd
       -0.08035988 -0.11243446 -0.110510394 -0.093153074
0000a0 a1 90 86 3d 25 4f af bd e2 45 83 bd 71 95 f3 bd
       0.065705545 -0.085600175 -0.064098135 -0.11893738
0000b0 80 19 8b bd 3e c5 6f bd e0 00 c6 3a 85 df d4 bd
       -0.06791973 -0.058537714 0.0015106462 -0.103941955
0000c0 61 91 df bd fb 93 39 bd 30 07 cc bc 7a 1f 3e bd
       -0.10916401 -0.04530714 -0.024905771 -0.046416737
0000d0 2f 02 ef bc 57 b4 9d bd 3f 95 f6 39 2f 75 36 3d
       -0.029175846 -0.07700413 0.00047031973 0.04454535
0000e0 de 5b c9 bc 44 48 29 bd 06 8f 3a bc 7e 54 eb bd
       -0.024579939 -0.041328683 -0.0113866385 -0.11490725
0000f0 bb 0e 4c 3d e3 cc 1f bd fc e8 e1 bd 14 97 62 3d
       0.049818736 -0.039013755 -0.11030766 0.05531986
000100 f4 21 29 be 94 07 e7 bd 97 d9 f4 bd 56 ef cb bd
       -0.16516858 -0.11280742 -0.119555645 -0.09957759
000110 12 f5 0e be b5 47 ec 3b 9c de 2b bd 90 68 b6 bd
       -0.13960674 0.0072106966 -0.041960344 -0.089066625
000120 49 cb a3 bd 36 45 0c 3d 94 3c db bc e6 32 31 bc
       -0.07997758 0.034245692 -0.026762284 -0.010815358
000130 0a 3e 02 bc 42 d9 94 bd 36 9c 6e bd e6 aa 02 be
       -0.007949362 -0.07268001 -0.058254443 -0.12760505
000140 c2 51 28 be 79 27 d6 bc 9b e1 6b 3d 67 ea 5a bc
       -0.16437438 -0.026141869 0.0575882 -0.01336155
000150 46 aa 66 bd ad 9f 0a be b1 b8 50 be 04 c5 4e be
       -0.05631473 -0.13537474 -0.20382954 -0.20192343
000160 b7 53 a9 3d 34 93 12 bf 6f 0c 2b 3d 35 1d e3 3d
       0.082679205 -0.57255864 0.041759904 0.11089555
000170 12 43 8b be 11 46 c1 3d b8 13 15 be 89 c5 51 3d
       -0.27199608 0.09437192 -0.14558303 0.051213775
000180 43 23 04 bd 1d 72 32 3d a1 00 e6 bd ca ac 7c be
       -0.03226019 0.04356586 -0.11230589 -0.24675289
000190 bf 4e 19 3b dc 1c 7c bd 61 86 84 3e af b1 ac bb
       0.0023392884 -0.06155096 0.25883773 -0.005270205
0001a0 49 b4 94 be 43 21 54 3e 14 96 88 be 09 1a de 3d
       -0.29043797 0.20715813 -0.26677 0.108448096
0001b0 bb 5f ae 3d 58 4a 1e bf 8d 65 2b bd 06 6c 6a 3d
       0.08514353 -0.6183219 -0.041844893 0.057231925
0001c0 6f 16 e7 be 89 73 b2 bc e7 3b 6d be 51 95 ce bd
       -0.45134303 -0.021783607 -0.23167382 -0.100870736
0001d0 40 c4 15 bb 1b fc 52 3e 1a 2f 54 3e 44 66 93 3d
       -0.002285257 0.20603983 0.20721093 0.0719724
0001e0 d3 91 e3 3e 55 b2 56 3e db 60 da bd 1d d0 af 3e
       0.44447193 0.20966466 -0.10663005 0.34338465
0001f0 eb 09 8b 3e b9 a7 9d 3d 30 15 da bd 03 3b a5 bd
       0.27156004 0.07698006 -0.106485724 -0.08067896
000200 bb 8c a7 bd c3 b4 e8 bd 94 f7 27 bc 46 89 c2 ba
       -0.08181139 -0.113626026 -0.010251898 -0.0014841936
000210 96 32 e6 be 01 92 e3 bc 93 0b 22 3e 01 79 3a 3d
       -0.4496047 -0.027779581 0.15824728 0.045525555
000220 f1 20 a6 be 2c b4 c4 be 2c 17 cc bd d4 95 36 3e
       -0.32447007 -0.3841871 -0.09965357 0.17830592
000230 98 80 b2 be 97 a0 3a 3d c0 51 f6 bd db b3 75 bd
       -0.34863734 0.045563307 -0.12027311 -0.059985977
000240 19 c9 45 3d af 3f 15 be ed 86 8e 3e b7 a8 b2 bd
       0.048287485 -0.14575075 0.27837315 -0.08723586
000250 2e ce b0 3d af 79 f4 3d 9e 5a f7 3d 4d eb 0b be
       0.08633076 0.11937272 0.12077831 -0.13663979
000260 a0 ff ef be d8 0e e9 bd c6 85 15 3e 32 5d c3 bd
       -0.46874714 -0.11379784 0.14601812 -0.0953926
000270 00 80 68 be 3a b1 0b 3e f7 49 4c bd 74 4b 86 be
       -0.22705078 0.13641825 -0.049875226 -0.2622944
000280 ad c3 c4 3d c5 d0 95 be da b2 dd bd 99 a3 00 3e
       0.09607635 -0.2926084 -0.10825129 0.12562408
000290 a8 c0 81 bd 77 6c 88 be 50 66 63 3e 67 7b 8a bd
       -0.063355744 -0.26645252 0.22206998 -0.067618184
0002a0 6f b6 22 bd f9 62 97 bd 94 76 89 3e 86 5a a4 3d
       -0.039724763 -0.073919244 0.2684828 0.080250785
0002b0 5c c6 40 3e 2c fa d7 3b 98 f1 10 3f de 81 0f bd
       0.18825668 0.006591102 0.5661864 -0.03503596
0002c0 7f 2e be 3c 87 25 14 bd e7 3a 85 be 10 5e 28 bc
       0.02321553 -0.0361686 -0.260215 -0.0102763325
0002d0 b5 89 90 be e4 33 32 3d d7 d6 3d be db a5 23 3e
       -0.28230062 0.043506518 -0.18538986 0.15981238
0002e0 74 ca c5 be 23 26 0d be a0 8b 7c bd 55 b7 9a 3e
       -0.38631022 -0.13784079 -0.061656594 0.30217996
0002f0 e8 44 32 3d cc f9 d1 3d f9 e6 28 be da 03 95 be
       0.043522745 0.10252723 -0.16494359 -0.291045
000300 ea 59 11 3d c0 b7 95 be 1a a4 02 be c3 53 9d ba
       0.03548614 -0.29241753 -0.12757912 -0.0012003112
000310 02 e3 f6 3b c3 1c 9a 3e 7c 84 44 be 53 da d4 3e
       0.0075343857 0.30100068 -0.19191164 0.41572818
000320 93 31 bb bb cb b0 10 be 9a 78 c4 be 1a 59 a9 3e
       -0.005712697 -0.14129941 -0.38373262 0.33075792
000330 77 ea 92 be 09 3d dd bd 90 2d 8f bd 81 72 a9 3e
       -0.28694507 -0.10802657 -0.06991112 0.33095172
000340 e2 7f 7f bd 0f 95 8d bc da 1a 2a be 92 47 df be
       -0.062377818 -0.01728299 -0.16611806 -0.4360929
000350 6a e7 37 be 2b 38 6a be 81 fc 3c bd f5 5e 0a be
       -0.17959371 -0.22872989 -0.046139244 -0.13512786
000360 5a f0 1a be ae 47 66 bd 3f 5d ee 3e bf 18 16 3e
       -0.1513075 -0.056220703 0.46555516 0.14657877
000370 eb 38 85 bd 03 ae 33 3e fb 50 8e 3e b6 3d bc bd
       -0.06504997 0.17546849 0.27796158 -0.09191458
000380 b0 ca 99 3d 74 f7 51 bd ce 0b 25 bc f5 6a ce 3d
       0.07509363 -0.05126138 -0.010073615 0.10078994
000390 83 70 f3 3d 81 54 99 bd 9d e6 84 bd d3 34 82 3e
       0.11886694 -0.07486821 -0.064892985 0.25430927
0003a0 f3 8c 94 bd 5e 1e 2a be 2b 98 57 be 98 02 ff bd
       -0.072534464 -0.16613147 -0.21054141 -0.124516666
0003b0 9f 74 99 3e 75 f1 89 be 04 19 7a 3d ab bd 4b be
       0.29971787 -0.2694203 0.061059013 -0.19896571
0003c0 d4 d1 06 3f 79 1b 4a bf 5e 48 4d be 1e 87 e2 3e
       0.5266392 -0.7894817 -0.20047137 0.4424371
0003d0 b2 52 d1 bd ba ef cb 3d 1b 10 21 3e ca 45 36 bd
       -0.10220851 0.099578336 0.157288 -0.04450015
0003e0 60 c7 3f be a2 00 1c 3e bb 5b 18 bd 7b b0 9c 3e
       -0.187284 0.15234616 -0.037196856 0.30603394
0003f0 6d cb 85 3e a6 e6 70 be 1c 69 a0 3c 22 28 97 3d
       0.26131764 -0.23525485 0.01958137 0.073807016

linear_relu_stack.2.bias f4 [80]
000000 f3 ac 34 be bf e6 ba bd 61 16 fd 3d b1 73 16 be
       -0.176441 -0.091260426 0.12357784 -0.1469257
000010 b7 f1 43 3d b4 b2 69 be 73 24 43 be 31 42 e7 3d
       0.04783794 -0.22822076 -0.19056873 0.11291922
000020 35 80 81 bd c3 2c 1c be 1f 91 9a be 71 f7 a4 bd
       -0.06323282 -0.1525145 -0.30188844 -0.08055008
000030 a6 b4 a1 3d fd 47 cb bd 80 3c a5 be 39 fd 9d be
       0.07895784 -0.0992584 -0.3227272 -0.30857256
000040 1a 7a 10 3e d1 5d da bd d9 f5 db bc 8f 4f a6 3e
       0.14109078 -0.10662425 -0.026850628 0.32482573
000050 89 2e 07 be fc c3 b5 3d 11 5b a8 bd 6e 32 2d 3e
       -0.13201346 0.08875272 -0.082204945 0.16913769
000060 bf ac 74 bd 1c ce 3a 3e fe 62 ab be b9 63 c8 3c
       -0.059735056 0.18242687 -0.33473963 0.024461614
000070 8e 87 4f be 47 52 22 be 5e e9 13 be d3 7d c8 3e
       -0.20266554 -0.15851699 -0.14444491 0.39158496
000080 34 59 8d 3d f7 d4 e3 3d 47 c0 8e be ed 5d 12 bd
       0.0690178 0.11124604 -0.2788107 -0.035734106
000090 ce 1a d9 3d ba aa 3e be 19 49 49 3e 5e 4e fa bc
       0.10600816 -0.18619815 0.19656791 -0.030554947
0000a0 91 ae 25 bd 5b 29 b1 bd a7 3b 50 be b1 e8 45 3e
       -0.040449683 -0.08650466 -0.20335256 0.19327046
0000b0 f9 9d 89 3e a1 c1 f3 bd a9 e1 54 be 94 9c 78 be
       0.26878336 -0.11902166 -0.20789208 -0.2427848
0000c0 d7 c4 2d 3d 20 db 33 3d f0 06 2b bd 00 e4 72 be
       0.04242405 0.043910146 -0.041754663 -0.23719788
0000d0 96 6b 0a be b7 78 30 3e 7f fa b1 3e b8 01 4f bd
       -0.13517603 0.17233549 0.34761426 -0.05053875
0000e0 83 9b a7 3c ce 14 07 bd 8c 79 8d be 9b 17 a2 3d
       0.020459896 -0.032978825 -0.27631795 0.07914659
0000f0 44 01 48 3e 76 f9 15 be a0 d0 5c 3c a5 8d 65 3c
       0.19531733 -0.14645943 0.013477474 0.0140108215
000100 b1 0f ae bc 2a 82 dd 3d 72 c5 8d bd 2b e4 a3 3d
       -0.021247717 0.108158424 -0.06922425 0.08002504
000110 5c 61 10 3f ef 79 13 bd 95 b8 83 be a0 10 19 bd
       0.5639856 -0.036004957 -0.25726762 -0.03736937
000120 53 b6 7b be fd 92 c3 3d 4a 8f d5 3d 6d 14 d5 bd
       -0.2458127 0.0954952 0.10427721 -0.104042865
000130 ba ec 69 bc e2 dc 54 be 11 c6 2d bd bb 26 a4 bc
       -0.014277631 -0.20787385 -0.04242522 -0.020038

linear_relu_stack.4.weight f4 [80, 80]
000000 38 f4 37 3d b3 b6 ef bd 4a 79 69 3d 45 f6 93 be
       0.04491064 -0.11704769 0.057000436 -0.28898826
000010 e9 7f 88 3e 0d df c4 3d 96 d7 ae be 5d b4 07 3e
       0.26660088 0.09612856 -0.34148854 0.13252397
000020 b6 5f 1b 3e 80 ae 01 3e fd 9f c1 be 47 79 11 3e
       0.1517323 0.12664223 -0.37817374 0.1420642
000030 e5 59 8a 3e 25 da 88 3c 38 3e 34 be 0b 1a 50 be
       0.2702171 0.016705582 -0.1760186 -0.20322435
000040 d6 64 15 be 30 6e 9d bd 1b da 9e 3e ff 72 b9 3d
       -0.14589247 -0.07687032 0.31025776 0.09055137
000050 cd 4b 25 bd ce c8 ff 3d f6 19 a6 be b0 7f 8f 3e
       -0.040355492 0.12489472 -0.32441682 0.28027105
000060 44 2b d1 3c d4 ab 2c 3e 67 79 a0 3d 27 c5 3a 3e
       0.025533326 0.16862422 0.07835656 0.1823927
000070 c6 bc fe 3d 3b 3e 1b bd e7 b3 4b 3e 39 74 74 3c
       0.124383494 -0.037901144 0.19892846 0.014920288
000080 fa 17 e8 be 8d 17 35 bf c0 b0 8b be e2 4f da be
       -0.45330793 -0.7073906 -0.27283287 -0.4263907
000090 65 da 6d bd 67 f3 ff bc 98 fa 39 3d 2c 2a 0b bf
       -0.058069605 -0.031243993 0.045405 -0.54361224
0000a0 8f 97 eb bd 76 32 a9 3c ee 46 4c be 11 49 0d bd
       -0.11503517 0.020653944 -0.19948933 -0.03449351
0000b0 d8 95 a7 3d 43 b1 10 3e 0b 4c 5f 3d c6 21 be 3d
       0.08182877 0.1413012 0.05451588 0.092837855
0000c0 4f 35 63 3e 8e 5d d8 be 2f 62 f0 bc 62 a4 29 3e
       0.22188304 -0.42258877 -0.029343693 0.16566613
0000d0 08 d6 b5 bc 8a 10 b2 be b3 85 dc bc 91 42 e1 3d
       -0.022196785 -0.34778243 -0.026919222 0.10999025
0000e0 ad 20 08 bf ae e2 e7 3d 36 5e d3 be cb 06 05 3e
       -0.5317486 0.113225326 -0.41282815 0.12990873
0000f0 4a ac 90 3c e5 e2 47 3e c6 22 e6 be ec 0e f5 3d
       0.017660279 0.19520147 -0.44948405 0.11965737
000100 03 95 51 3d c8 c6 d6 be 93 56 8a be 4a 72 d5 bd
       0.0511675 -0.41948533 -0.27019176 -0.104221895
000110 a2 5e 32 bd 8e df 17 bd 13 ee bf bc ef a4 92 3c
       -0.04354728 -0.037078433 -0.023428952 0.017900912
000120 ac a6 dd 3d d6 f3 b7 bc 96 f7 19 be c7 b7 2b 3e
       0.10822806 -0.022455137 -0.15035853 0.16769324
000130 f5 c5 d2 be 46 4e 8e 39 c2 48 88 be 40 a1 2e 3e
       -0.41166654 0.0002714267 -0.2661801 0.170537
000140 48 af d8 3c 5c 9e ea 3d e9 4c e7 be 11 6d d8 be
       0.026450768 0.11455986 -0.45175865 -0.4227071
000150 29 f7 91 be 67 12 8e be dd b3 9d be a8 9a 3f bd
       -0.2850888 -0.27748415 -0.30801287 -0.04677835
000160 6e 39 87 be 67 99 34 be 22 28 7b be 06 ed a0 be
       -0.26411003 -0.17636643 -0.24527028 -0.31430835
000170 d6 4e 2b bf ea 54 c9 bd c4 ef 60 3e 4d 91 d4 be
       -0.6691717 -0.09830649 0.21966463 -0.41517106
000180 3d 61 07 3e 05 f9 74 bd 11 8f 61 be e7 7d d0 be
       0.13220687 -0.059807796 -0.22027232 -0.40721056
000190 b2 65 a3 be 87 1d e5 3d 19 12 10 3e be 31 a3 be
       -0.31913525 0.111872725 0.14069404 -0.31873888
0001a0 79 74 e7 3b 2e 6e a2 be 2c 22 a1 3d 67 45 a6 bd
       0.007063445 -0.31724685 0.07867846 -0.08118706
0001b0 fc fa 73 be 5a c3 19 bf e5 6c 89 be be c8 9c 3e
       -0.23826212 -0.6006371 -0.26840892 0.30621904
0001c0 54 df e5 3c 19 64 97 3e 51 f1 28 3d b1 5b 3d 3e
       0.028060593 0.29568556 0.041245762 0.18492009
0001d0 75 de 4e 3c d6 f8 b2 bc 2e 0b a1 be b9 7f ff be
       0.01262628 -0.02184717 -0.31453842 -0.49902132
0001e0 e2 31 d1 bd 62 f6 05 be 3a fe ba bc e6 8d da bd
       -0.102145925 -0.13082269 -0.022826303 -0.10671596
0001f0 32 07 d7 be 75 e1 13 bf 44 41 ac 3e 3a f8 0b be
       -0.41997677 -0.57765895 0.33643544 -0.1366891
000200 74 e9 16 3e 49 6d 0f 3e d9 d8 fd 3d 44 95 a7 be
       0.14737493 0.14006533 0.12394876 -0.32731068
000210 04 c2 04 3c 2a 94 19 bf bd 96 59 3d ae a1 45 3e
       0.008102898 -0.59991705 0.05312227 0.19299957
000220 ab b3 5f 3c ba b2 3c be 95 93 bf bd a2 9e 73 3e
       0.013653676 -0.18427554 -0.09354321 0.23790982
000230 a6 dc e0 be 60 1a 9e bd 0e f5 d4 bd 3a 41 23 3e
       -0.4391834 -0.077198744 -0.10398303 0.1594285
000240 6d ab e5 3b 79 8f c3 3d 94 27 86 be a8 30 10 be
       0.007008961 0.095488496 -0.2620207 -0.14081061
000250 8d 79 4c be 9f 52 ac be aa 5e a9 3c 2d f1 05 bf
       -0.19968243 -0.33656785 0.020675022 -0.5232113
000260 73 8e b5 be b2 1d c0 be 0b 06 b7 be 77 f9 61 3e
       -0.35460243 -0.37522656 -0.35746798 0.2206782
000270 dc 2e a4 3e 37 a7 2d be 45 a5 dc be 29 45 24 bf
       0.32067 -0.16958319 -0.4309484 -0.6416803
000280 92 8c 2c bd 81 aa fc 3d e3 de ab be 94 cc f3 be
       -0.042126246 0.123372085 -0.33568487 -0.47617018
000290 a3 b5 93 3c 6b f7 35 3e e0 bf b8 be a8 13 89 bd
       0.018030947 0.17770164 -0.3608389 -0.06693202
0002a0 d6 b7 4e 3d 5b ac 18 be 92 94 52 3d 91 6b 14 be
       0.05046829 -0.14909498 0.05141122 -0.14494158
0002b0 ad 34 7f 3d d3 d5 0e be e3 83 a4 3c 8e 65 00 be
       0.062306095 -0.13948755 0.02008242 -0.1253874
0002c0 4e ee aa 3c bc c6 3c 3d e4 e7 f2 3d 35 9a 22 bd
       0.020865586 0.046087965 0.11860636 -0.039697845
0002d0 08 22 af bc a7 a5 80 be 27 86 97 3d e3 16 66 3e
       -0.021378532 -0.25126383 0.073986344 0.22469668
0002e0 87 6c 74 bd 18 4d 91 3e 05 59 15 3e f5 08 87 be
       -0.059673812 0.2837913 0.1458474 -0.2637402
0002f0 5c 82 2e 3e f3 f7 e5 bd 8f 49 3f bd 68 04 1d be
       0.17041916 -0.11228933 -0.04670101 -0.15333712
000300 75 26 bb 3c a9 d7 3c bc 95 2f 11 be 13 76 03 be
       0.022845486 -0.011526027 -0.14178307 -0.1283801
000310 ea 73 86 be fb c8 18 3d 72 8b e3 bd cf 04 c6 be
       -0.2626031 0.037301045 -0.111105815 -0.38675544
000320 56 8f 1a 3e 3f 3d d8 3d 4d 3c 21 3e 5a 5f dd 3d
       0.15093741 0.10558557 0.15745659 0.108092025
000330 e9 68 20 bd dc 87 c3 bd 28 ab 27 3e 96 c1 8e 3e
       -0.03916255 -0.095473975 0.16373885 0.2788207
000340 53 67 06 bd 1b 9d e4 3c ea 69 c6 bb ce 76 8d 3c
       -0.03281338 0.027906945 -0.0060551064 0.017268565
000350 0d 4a 4b 3e 6a f6 a1 3d a4 a6 94 be c0 36 b8 be
       0.19852467 0.07908328 -0.29033387 -0.3597927
000360 97 83 ae bc 41 50 83 3e da 8d 24 be a5 09 da be
       -0.021302981 0.25647166 -0.16069737 -0.42585483
000370 f0 7d 47 3e ad a9 af bc 04 50 78 be 7c c7 c3 b9
       0.19481635 -0.021443212 -0.24249274 -0.00037341926
000380 9a b9 11 3e 56 03 1f be 4e 9d 49 bf 8a 64 a2 3d
       0.14230958 -0.15528616 -0.7875565 0.079293326
000390 ef 59 d9 bd fa 67 16 bd 87 30 86 bd ee 17 28 3e
       -0.106128566 -0.036720254 -0.065522246 0.16415378
0003a0 f4 a9 22 3e 13 d8 8c 3e 03 df c2 bc 68 5f a3 be
       0.15885144 0.27508602 -0.02378798 -0.31908727
0003b0 0f b5 0f bf 27 1e 1c bc 71 0b 73 be c0 2c 43 be
       -0.5613565 -0.009528673 -0.23734833 -0.1906004
0003c0 8b f0 93 bd 4a e7 39 3e 08 96 ee be 68 97 a7 be
       -0.07223614 0.18154636 -0.4659884 -0.327327
0003d0 10 91 77 be ab 5f f1 bc a8 9d 8d be d5 cb 3d bd
       -0.2417643 -0.029464563 -0.27659345 -0.046336967
0003e0 a0 9d 36 3c d8 ee 13 3e f2 54 88 be 0b 90 96 be
       0.011145979 0.1444658 -0.26627308 -0.2940677
0003f0 67 ab b0 be 7a 8a b2 3c 42 38 ed 3d 33 4a f3 be
       -0.3450577 0.021794546 0.11582996 -0.47517547

linear_relu_stack.4.bias f4 [80]
000000 0d d0 37 3e 4a c5 3d be bc 8b 19 3d 16 26 3c be
       0.17950459 -0.18532291 0.037486777 -0.18373904
000010 d3 b4 4e 3d 41 b0 85 3d 8f b1 b4 3a 06 1f 6d 3c
       0.050465416 0.065277584 0.0013785827 0.014472729
000020 fb 1f f3 3c 92 ff 19 be 26 73 46 bc 2c 4b 87 be
       0.029678335 -0.15038899 -0.012112414 -0.2642454
000030 83 00 d8 3c ab eb 05 3e fc c2 bd bd 7f 03 88 3c
       0.026367432 0.13078181 -0.09265706 0.01660323
000040 e4 9a 5d be 7a ea b5 3e 3d 3a 35 be 1d 00 ca bd
       -0.21641117 0.35530454 -0.17697997 -0.09863303
000050 7b 4c 8c be 8f 48 a9 3c 49 46 2c be 84 ae 93 bd
       -0.274021 0.020664481 -0.16823687 -0.072110206
000060 ed 89 84 3e c1 9a 8b bd 80 bb 04 3e 32 c5 2c 3d
       0.2588648 -0.06816626 0.1296215 0.042180248
000070 c8 61 59 3e e0 f8 92 3d 26 d8 0a be 77 a9 3b bc
       0.21228707 0.071763754 -0.13559017 -0.011453978
000080 db 52 fc bd 67 8c af bd 8d 2c b1 3e 23 ec 72 3d
       -0.12320491 -0.085717015 0.34604302 0.05930723
000090 2a a9 9c bd 93 70 02 be ff ab 05 be c4 64 4d be
       -0.07649453 -0.12738256 -0.13053893 -0.2005797
0000a0 11 b4 0b be 1a a7 d9 3d 01 a9 a2 bd 09 a6 28 3e
       -0.13642909 0.10627575 -0.07942391 0.16469587
0000b0 0f f2 15 3e 09 57 26 be 6d a2 93 3e d4 99 03 be
       0.1464312 -0.16244139 0.2883486 -0.1285165
0000c0 b1 1f 05 3e ab 28 d8 3d cd f4 4d bd 0b 20 4c be
       0.1300037 0.10554632 -0.05028229 -0.19934098
0000d0 19 84 0c be 3e 2f be be 41 23 cd be 9e 0f 59 be
       -0.13722266 -0.37145418 -0.4006596 -0.21197364
0000e0 88 b9 2f bc 88 26 27 be ef 4f 2d be 13 31 f2 3d
       -0.010725386 -0.16323292 -0.16925023 0.118257664
0000f0 ee d2 a3 3e fa 2a 06 bd d6 19 a0 3d 76 f3 93 be
       0.31996864 -0.03275583 0.07817428 -0.28896683
000100 80 92 be bd 5e ef 5a bd 5d 41 8a be cf d6 4c bd
       -0.093052864 -0.053450935 -0.27002993 -0.050009545
000110 d3 34 26 be 49 c4 0e 3e 3d ea 45 3d 77 2d 29 3e
       -0.16231088 0.13942064 0.04831909 0.1652125
000120 6b 10 6a be 5a fe cd 3d a7 6d a4 bd 97 d7 87 3e
       -0.22857825 0.10058279 -0.08028727 0.2653167
000130 5b ad 1a 3d 2c 76 d5 bd 91 18 a3 3e 19 5a 83 be
       0.03776298 -0.1042293 0.3185468 -0.25654677

linear_relu_stack.6.weight f4 [80, 80]
000000 3a f7 1f 3d 1f a6 d8 3e e2 ab 15 be b5 ea 05 3e
       0.039054133 0.4231424 -0.1461635 0.13077815
000010 79 09 54 be f4 a7 fb 3d 5d cf bb be a1 66 76 3d
       -0.20706739 0.12287894 -0.36681643 0.06015647
000020 d6 26 7e bd fc 5e c4 bd 13 b5 9b bd 62 71 f3 bd
       -0.062048756 -0.09588429 -0.076028965 -0.118868604
000030 5e 8f 41 3e 8c 45 52 3d f5 72 26 be 42 25 51 3e
       0.18902346 0.051335856 -0.1625479 0.20424369
000040 f9 bc 8e be 22 f6 31 3e 1e 1c 31 be 9c 63 a4 be
       -0.2787855 0.17379048 -0.17295882 -0.32107246
000050 16 35 8d 3d d0 9f 04 3d 1d 0c 8b be cf 8d 2b be
       0.06894891 0.03237897 -0.2715768 -0.16753314
000060 bb 56 8e 3e 8a 6d ab be fd 7d 76 be 84 88 13 3e
       0.27800545 -0.3348201 -0.24071498 0.14407545
000070 6a d1 18 3d 45 00 f9 3b 65 78 37 bb 5f 18 ba 3d
       0.037309088 0.007598909 -0.0027995345 0.0908668
000080 98 17 06 be 2e 2a 56 be 64 eb b6 3e e5 79 5e 3d
       -0.13094938 -0.20914528 0.35726464 0.054315466
000090 d2 08 51 be 30 49 7a 3e 88 29 7c bd 17 e9 ac ba
       -0.20413521 0.24441981 -0.061563045 -0.0013192025
0000a0 29 76 dc 3d 77 fa f3 bd 51 5f 3e 3e 03 4c 25 be
       0.10764725 -0.11913007 0.18591048 -0.16142277
0000b0 20 6c 4c 3e a9 4d a5 be 8a ab 32 be 47 f0 66 3e
       0.19963121 -0.32285812 -0.1744825 0.22552596
0000c0 78 da e1 bd d3 44 60 3d 6d 7b 4f be 5a 59 f6 3c
       -0.11027998 0.054753136 -0.20261927 0.030071903
0000d0 32 7b 6a 3e 77 68 75 be 9b 7f 41 be ec 9e 99 be
       0.22898558 -0.23965631 -0.18896334 -0.3000406
0000e0 c9 b0 0d 3d a9 97 5e be 7b b1 bc 3d ee b7 dc be
       0.034592424 -0.21737541 0.09213539 -0.43109077
0000f0 6d 74 0b 3d 50 40 56 3e ad c8 7f be b3 56 a6 3d
       0.03404658 0.20922971 -0.24978895 0.08122005
000100 16 81 54 3e c1 98 2b be 8e a0 08 be 9f 1a ae bd
       0.20752367 -0.1675749 -0.13342497 -0.08501171
000110 55 f9 be bd 37 8f 83 3c b6 fa 7e 3d 3d 7c 34 3e
       -0.093249 0.016059501 0.062250815 0.17625518
000120 57 46 2f 3d d6 6b 9c bd e6 d2 cc bd 62 17 9d 3d
       0.04279169 -0.076377556 -0.10001163 0.076704755
000130 e6 84 40 3c cb 1e 2c be 4b 88 bb 3d 88 83 b7 bd
       0.011750435 -0.16808622 0.09156855 -0.089606345
000140 5d 8e ca bb ed 70 a0 be f5 21 11 3e 3d 1c 95 be
       -0.006181522 -0.31336156 0.1417311 -0.29123107
000150 31 a2 c6 3d b4 a2 fe b8 74 1e 3f bd 3c 6d 40 be
       0.09698904 -0.0001214197 -0.0466599 -0.1879167
000160 a0 80 0b be 2b 75 fe bd 4e 46 6d 3d 83 2c 6b 3d
       -0.13623285 -0.12424692 0.057928376 0.057415497
000170 98 fd 37 bf f7 26 c3 3d 51 aa a9 bd c7 67 56 3e
       -0.7187133 0.09528916 -0.082844384 0.20938025
000180 1e d8 9a 3e 05 10 88 3e 5f 55 1d 3e c6 41 8c bd
       0.3024301 0.26574722 0.15364598 -0.06848483
000190 82 c8 12 be 30 0e 4b be 1c e1 ec bb 05 db 24 3e
       -0.143343 -0.19829631 -0.0072289836 0.16099174
0001a0 a4 14 03 3e 8f 0c e2 be 99 36 7d be 34 9b a3 3e
       0.12800843 -0.44150206 -0.24727859 0.31954348
0001b0 b2 17 ec 3d ca b4 1e 3e 3a 8d 84 bd bf eb 8f 3e
       0.11527957 0.15498653 -0.06472249 0.28109547
0001c0 b3 ae 31 3e 94 cc b3 be 38 35 ca 3d f3 a7 8e be
       0.17351799 -0.35117018 0.09873432 -0.2786251
0001d0 22 84 c4 be 69 d8 2b bd 9e ac 35 be e1 3a 16 be
       -0.3838206 -0.04195443 -0.1774163 -0.14670898
0001e0 dd 29 05 be e7 cd 94 bd c4 f8 5d bd 49 42 31 3e
       -0.13004251 -0.07265835 -0.05419232 0.17310442
0001f0 8a 26 9e be 8b 9d a2 bd bf 51 ad 3d 6a d3 87 3c
       -0.30888778 -0.07940205 0.084628575 0.016580302
000200 13 b6 92 3d 0b 92 2a 3d 4c 20 42 3c 62 b5 d5 3b
       0.07163634 0.041643184 0.0118485205 0.0065218667
000210 71 2b 91 be 40 d7 8f 3d 58 f9 9e 3e 01 91 50 3d
       -0.28353456 0.070234776 0.3104961 0.050919537
000220 9b 39 c9 3d 21 fb f1 bd ec d6 91 3e 05 18 a7 3e
       0.098254405 -0.11815477 0.28484285 0.32635513
000230 04 a1 0f 3e 0d 97 01 bf e7 7c 6e be 60 8e 73 be
       0.14026266 -0.5062111 -0.23289834 -0.2378478
000240 e2 87 bb 3c aa 40 b0 be ba 51 4c 3c 06 b3 09 be
       0.022891942 -0.34424335 0.012470657 -0.13447198
000250 f8 52 72 3e bf 31 15 3e af 8f e3 be 72 c8 53 3e
       0.23664463 0.14569758 -0.4444556 0.20681933
000260 6a 9f f1 be fa 81 b0 3d 7f e8 98 be b8 d3 60 3d
       -0.47191936 0.08618541 -0.2986488 0.05488941
000270 f4 4a 20 be 88 0a 0a be 88 9a b8 3c 5c 81 da bd
       -0.15653592 -0.1348058 0.022534624 -0.106692046
000280 86 75 dd 3d b8 e4 af be 7b 86 60 be b1 ed af be
       0.108134314 -0.34354186 -0.219263 -0.34361032
000290 fe 1a 2f be c0 1b b9 3d d8 9e 45 bd b8 07 5c 3e
       -0.1710014 0.09038496 -0.04824719 0.2148732
0002a0 d7 12 4d be df 42 59 3d 23 ba a0 3c a7 17 db 3e
       -0.20026718 0.05304229 0.019620007 0.42791483
0002b0 3c db 8e 3e d0 db f9 bd 95 37 8c be 1b 7c d2 bd
       0.27901638 -0.12200129 -0.27386156 -0.102775775
0002c0 e7 ae 09 3e 50 51 38 be f7 6b 0a be 9b 41 3c be
       0.13445626 -0.17999768 -0.13517748 -0.18384402
0002d0 b6 a0 07 be 9b ba 89 3e 94 27 e0 bd 1f 77 c0 be
       -0.132449 0.2690018 -0.10945049 -0.37590882
0002e0 89 7f 80 bd 5f c1 b8 bc 2b 49 f6 be 80 49 73 be
       -0.062743254 -0.022553144 -0.48102698 -0.23758507
0002f0 09 92 a9 3d 5e ea 2f be 9e 92 05 3e fc d3 d1 bd
       0.08279807 -0.17179248 0.13044211 -0.10245511
000300 44 c8 17 3e ec 83 cc be db c2 cc bd f2 fc 22 3e
       0.14822489 -0.39944398 -0.09998103 0.15916803
000310 20 88 7f be ee f3 a3 bc fa 95 25 3e be d2 99 bd
       -0.24954271 -0.020013776 0.16170493 -0.07510899
000320 0d 74 60 be 8e 87 5d 3e d2 e6 8c be ea 7a d5 bd
       -0.2191927 0.21633741 -0.27519852 -0.104238346
000330 8b 7f 1f bd fa dd 74 bd f9 f3 04 bd 71 e2 55 be
       -0.038939994 -0.059782006 -0.032459233 -0.20887162
000340 1a 8e 43 be 6f e2 05 3d b7 2d 85 be cc ee 87 bd
       -0.19097176 0.032686647 -0.2601144 -0.06637344
000350 cd 9f 0e be e0 31 4a be 96 45 f1 3d 6e 29 59 be
       -0.13928147 -0.19745588 0.117808506 -0.2120721
000360 e1 91 8c bd 41 69 1b bd 36 dd 81 3b 97 f9 ad be
       -0.06863762 -0.037942175 0.003963138 -0.33979484
000370 ff e0 bb 3d e3 d2 1a be 40 52 fc bd 5e 97 80 bd
       0.09173774 -0.1511951 -0.123203754 -0.06278871
000380 35 58 eb bd 05 61 99 bd e8 60 24 3e 31 d8 b7 3e
       -0.114914335 -0.07489208 0.16052592 0.35907128
000390 cc 58 11 3e 06 22 59 be 45 e3 00 bd f4 ac e9 be
       0.1419403 -0.21204385 -0.03146674 -0.45639765
0003a0 01 33 c9 3d 9f d7 03 3d aa 13 d4 3d 59 4b c0 bd
       0.09824181 0.032188054 0.10355313 -0.093893714
0003b0 63 ec 94 be 3e 86 a6 3e 26 8a 41 be 21 b9 31 be
       -0.290866 0.32524294 -0.18900356 -0.17355777
0003c0 e7 05 20 be eb ab 01 3f 62 a6 d4 bd 24 71 85 3e
       -0.15627252 0.5065295 -0.103832975 0.26062882
0003d0 1d f4 4e be 27 29 87 bc 3a 87 53 3e b0 b5 18 bd
       -0.2021031 -0.016499115 0.20657054 -0.037282646
0003e0 08 8f bc be ba 18 85 be a3 75 b6 be f7 6f 19 3d
       -0.36827874 -0.25995427 -0.35636625 0.037460294
0003f0 fc df a9 3c 29 83 40 be 35 ce 48 bd f8 29 13 3d
       0.020736687 -0.18800034 -0.04902478 0.035928696

linear_relu_stack.6.bias f4 [80]
000000 4d 46 43 3e e2 88 16 3e 24 67 df 3c 3a ac 27 3c
       0.19069786 0.14700654 0.027270861 0.010233933
000010 b9 ac 52 3e 25 1b a6 3d 47 bc 0d 3d 22 3d ad be
       0.20573701 0.08110646 0.034603383 -0.33835703
000020 3f e6 10 bd 23 ab 06 be dc a4 27 3d 4d 69 52 be
       -0.03537583 -0.13151221 0.040928707 -0.20547982
000030 a6 af 0b 3b 92 c9 47 bd e9 b8 14 3e 6a ea 5e 3e
       0.0021314411 -0.048776217 0.14523663 0.2176911
000040 6c fd f8 be e8 10 89 3d 5b 94 cf 3d 25 54 4f be
       -0.48630846 0.06692678 0.101357184 -0.20246942
000050 53 cf 31 3e b0 d6 df 3e 27 ee 3e be d0 66 82 be
       0.17364244 0.4371848 -0.18645535 -0.25469065
000060 62 a0 63 be ac 90 0f 3e e6 58 11 bf c0 24 03 bf
       -0.2222915 0.14020032 -0.56776273 -0.5122795
000070 94 13 41 3d 42 62 20 bd f0 65 2e 3e b7 a3 e1 bc
       0.04713781 -0.039156206 0.17031074 -0.027543886
000080 b9 56 a1 bd aa df 8e 3c 8d d7 2b be d0 7e 18 bf
       -0.07877869 0.017440636 -0.16781445 -0.595685
000090 b8 69 35 3e 00 2f c6 3d c5 66 1a be db 24 65 3d
       0.1771611 0.09676933 -0.15078266 0.05594335
0000a0 a6 99 dd be 1d 66 50 be 44 fa 16 3d c8 e0 2c be
       -0.43281287 -0.20351453 0.036859766 -0.16882622
0000b0 f6 fa ba be 71 98 4e bd 35 ff 97 3d 22 84 1f 3d
       -0.36519593 -0.05043835 0.07421724 0.03894437
0000c0 b7 dc d4 bc e0 d1 14 be 99 31 67 3e e2 20 64 bd
       -0.025984151 -0.14533186 0.22577514 -0.055695422
0000d0 4a 7a 12 3e 4d 68 e2 bd 40 c0 a5 be 46 1e 77 3e
       0.14304462 -0.1105505 -0.32373238 0.24132642
0000e0 01 33 4e 3e 62 62 02 3e 4b 5d 47 3e 17 b3 91 3e
       0.20136644 0.12732843 0.19469182 0.28456947
0000f0 c6 61 db 3d 13 49 31 be 33 5d 1d 3e e6 1b c5 3b
       0.10712008 -0.17313032 0.15367584 0.0060152886
000100 60 fa 81 bd c8 69 0b be 55 c9 03 be bc 6a ee bd
       -0.06346583 -0.13614571 -0.12869771 -0.11641452
000110 d8 90 d2 be 9a 73 68 3e 43 12 e5 bb b6 8f 81 be
       -0.41126132 0.22700348 -0.0069907024 -0.25304955
000120 78 ed 69 3e 44 e6 8d 3b 12 1e 2f 3e 7b ce 1d 3e
       0.22844493 0.0043304283 0.17101315 0.15410797
000130 9d be 94 bb 3a b2 8b 3e 91 e0 4f bb be 8b 39 be
       -0.0045393244 0.27284414 -0.0031719545 -0.18119714

linear_relu_stack.8.weight f4 [80, 80]
000000 29 b8 70 3d 7d 42 ed bd 42 f9 0e be 9b b4 0c be
       0.05876938 -0.11584947 -0.13962272 -0.1374077
000010 85 eb ac bc 49 0f c3 3c a6 56 5b bd 94 e7 dc 3c
       -0.021108398 0.023811 -0.05354943 0.026965894
000020 9d d8 f1 bc ed 1b ca 3d ed a7 a1 bc 90 14 56 be
       -0.029522235 0.09868608 -0.019733394 -0.20906281
000030 b0 5a 17 3d b5 3e 4a be 5b 23 d6 bd b2 58 94 bd
       0.03695172 -0.19750483 -0.10455962 -0.0724348
000040 5f 39 98 3c f3 9e d7 3c c3 d5 00 3c b9 70 ff 3d
       0.018582044 0.02632091 0.007863465 0.12472672
000050 a0 e0 9a 3e 31 8c 31 3d 70 1d 87 be f1 7c 3d be
       0.302495 0.043346588 -0.26389647 -0.18504693
000060 e5 71 17 be 5a 2e 39 3d 55 6c 7d be 46 36 16 be
       -0.14789541 0.04521022 -0.24748357 -0.14669141
000070 50 d8 0e be 05 4f 69 bb 13 f9 c2 be 01 97 60 be
       -0.13949704 -0.0035600078 -0.38080654 -0.21932603
000080 b9 66 18 be 1c fd c6 bd e0 0e 69 bd c2 ed 46 3e
       -0.14882936 -0.097162455 -0.05689895 0.19426635
000090 57 13 49 be 89 61 80 3d dc 60 91 3c b8 58 c6 bb
       -0.19636284 0.06268603 0.017746381 -0.0060530566
0000a0 dd 86 93 bd ef 38 aa 3e be cd 39 be 81 a6 2b bd
       -0.072034575 0.33246562 -0.1814489 -0.041906837
0000b0 3c 59 d2 3c c5 77 20 3d a2 a9 4c be e3 a3 91 bc
       0.025677316 0.03917672 -0.19986585 -0.017778343
0000c0 e2 b9 f4 bd 56 cf 53 3d 83 c4 ea 3a 63 e8 6a 3c
       -0.11949517 0.051711403 0.0017911348 0.014337632
0000d0 b5 f5 ea 3c 65 f7 00 be 8a 92 76 3e bc 8f 50 3d
       0.028681615 -0.12594374 0.24079338 0.050918326
0000e0 35 f4 be be b6 97 90 be 9d 07 51 3d f6 7f 19 3e
       -0.3729569 -0.28240746 0.05103265 0.1499022
0000f0 3f 0c 69 3d 79 6d 05 be fa de 6f bd 8a 05 88 be
       0.056896444 -0.13030042 -0.058562256 -0.26566726
000100 8e f2 20 bc f7 82 6f 3e 72 ca 12 3f 09 ae d3 bc
       -0.009823455 0.23389803 0.5734016 -0.025839822
000110 66 c1 49 3e c3 d2 cd 3e d8 89 e0 3d 6a 04 31 bd
       0.19702682 0.4019986 0.109637916 -0.0432171
000120 51 cf d0 3e 59 53 2c be 88 13 86 be 0d 81 7b bd
       0.4078317 -0.1682867 -0.26186776 -0.06140237
000130 ab f6 e9 bd 4c e9 03 bd 31 9e 91 bd c6 74 b6 3e
       -0.11424001 -0.03220491 -0.07110251 0.35635966
000140 21 c3 50 3c cd a3 be 3c 23 a9 44 3d 50 00 96 3d
       0.012741835 0.023271466 0.048012864 0.07324278
000150 d9 8e a2 bc 93 ad 83 3e b3 48 b5 be 9b 8f c5 3e
       -0.019843506 0.25718364 -0.35407028 0.38586125
000160 9f 3c 93 be 16 26 f8 3b d0 46 88 bd 63 fa 7e be
       -0.28757188 0.0075728996 -0.066541314 -0.24900202
000170 ee ab f6 bd de 3e 04 bc dd 96 96 3d 4c d4 43 be
       -0.12044512 -0.008071629 0.07352994 -0.19123954
000180 6a 6d b9 bb 79 6b e5 3d ee da 16 bc e5 ec 8e 3d
       -0.005658795 0.112021394 -0.00920747 0.06978778
000190 8d 7c 08 bd de cf ff bd 56 59 73 be d6 95 d4 bd
       -0.033321906 -0.124908194 -0.23764548 -0.103801414
0001a0 a0 56 b5 3d 2d b5 6f 3e 65 c0 58 3e 10 88 8e 3c
       0.08854413 0.23408957 0.21167143 0.017398864
0001b0 12 69 30 3d 57 57 07 be 6f d9 44 bd 49 e5 e6 bc
       0.043068953 -0.13216911 -0.048058923 -0.028185504
0001c0 95 d0 cc bd 1c d5 ef 3d 88 76 02 bd 2e 8f f6 3d
       -0.10000721 0.11710569 -0.03185132 0.12039028
0001d0 7a cf 9c be 72 b5 52 3e 6a ad 4f bd 93 9f 8e 3d
       -0.30627042 0.20577028 -0.05070249 0.0696403
0001e0 fc cb de 3c ba fa 1d be 3c 5e 90 bd fb c6 91 be
       0.027196877 -0.15427676 -0.07049224 -0.28472123
0001f0 a3 f7 28 3d d0 12 f7 3d b7 59 12 3a a4 59 df 3d
       0.04125179 0.12064135 0.00055828266 0.109057695
000200 4d 8b 88 bd 99 b9 13 bd d1 0a bc bb bd 35 79 3c
       -0.066671945 -0.03606567 -0.005738594 0.015210566
000210 83 8d f1 bd 21 34 2f 3b 8b 89 a8 bd 04 87 98 bd
       -0.11794569 0.0026733952 -0.08229359 -0.07447627
000220 b3 c3 cf 3d f1 b8 25 3e 0b 9e a6 bd 37 00 dd bc
       0.101447485 0.16183831 -0.08135613 -0.026977642
000230 e3 ef 82 bc c5 83 2f be 41 66 7e bc 71 d8 21 be
       -0.015983528 -0.1714011 -0.015527309 -0.15805222
000240 da 9f a7 3c 0d 95 1f bc 61 92 eb bd da 31 50 bc
       0.020461965 -0.009740126 -0.11502529 -0.012707198
000250 d0 1f a6 be 6b 80 93 be 3d 45 8e be fb 4c 51 be
       -0.32446146 -0.28808913 -0.277872 -0.20439522
000260 a2 aa 27 3d 7e d7 de bd 97 c4 4b bd 38 1f 07 be
       0.040934213 -0.108809456 -0.04974803 -0.13195503
000270 83 49 1c 3d b4 3f 64 be 25 c6 df bd 9a 00 da bd
       0.038156044 -0.22289926 -0.10926465 -0.10644646
000280 96 05 46 be 65 61 f6 bd e0 d9 bc bc 74 d0 43 3b
       -0.19338068 -0.12030295 -0.02305311 0.0029878886
000290 8d e9 f7 bd 71 6d 5f 3e f5 1b 89 bd 58 53 7a 3e
       -0.12105093 0.21819092 -0.066947855 0.24445856
0002a0 bd e4 8a bd af b4 27 3e ad d3 39 3e 51 69 60 3e
       -0.067819096 0.16377519 0.18147154 0.21915175
0002b0 3d e9 42 bd 44 64 6f 3c b2 3f 04 bd 56 fa 58 be
       -0.047585715 0.0146113075 -0.032287307 -0.21189246
0002c0 d9 d0 f7 3d db 98 68 bd 12 23 06 be e1 28 13 3f
       0.121003814 -0.0567864 -0.13099316 0.5748425
0002d0 b3 6a 4b 3d 1f d7 a1 3c 4f 1e 7c bd ae 31 21 3d
       0.049662303 0.019755898 -0.061552342 0.03935402
0002e0 8d e2 41 3d b2 9a f0 bc 87 45 7b 3e 1f 62 b7 3d
       0.047335196 -0.02937064 0.24538241 0.08954262
0002f0 bb 9b 1b 3e 59 64 b3 3e ce e3 3e 3e 0f 38 db 3c
       0.15196125 0.35037497 0.18641588 0.02676013
000300 5e b9 a4 bb 60 45 0b 3e 48 f8 62 3e 66 ed 82 3d
       -0.0050269803 0.13600683 0.22165024 0.063929364
000310 95 36 94 bc 67 da 54 bd f8 73 97 3d 1e 10 61 bd
       -0.018092433 -0.051966097 0.07395166 -0.05494701
000320 2a 1f 80 3e 46 9f 87 3e 79 f3 98 3d 4b 12 0a 3f
       0.25023776 0.26488703 0.07468314 0.5393416
000330 5c ac 94 3e 1d 9b 3f 3e 85 b1 4f bd 95 3f 93 bd
       0.2903775 0.18711515 -0.050706405 -0.07189862
000340 65 f8 ba 3e c6 b1 93 bd 09 eb 83 3d ee 95 59 3e
       0.36517635 -0.07211642 0.06441314 0.212486
000350 0a ee 65 be 80 ba 57 3c 7c 20 2f 3e 90 43 14 be
       -0.22454086 0.013167024 0.17102236 -0.14478898
000360 a1 56 d1 3e 96 68 55 bd 34 e5 4d 3e 59 23 f3 3d
       0.40886405 -0.052101694 0.20106965 0.118719764
000370 f5 e9 5e bd 61 75 ea 3c 42 1f 01 be 84 0c dc bd
       -0.054422338 0.028620424 -0.1260958 -0.10744575
000380 35 2b cb bc a0 b4 8d 3e 98 05 d1 bd fa a8 96 3e
       -0.024800876 0.27676868 -0.10206145 0.29425794
000390 7c 1c 3a 3e e7 e9 3c be 4b 41 e5 bd 10 e4 cc 3b
       0.18174928 -0.18448602 -0.11194094 0.006252773
0003a0 ba 23 47 3e a9 65 e2 bd 9e 58 00 bd 5d 79 7b 3d
       0.19447222 -0.110545464 -0.031334512 0.061395038
0003b0 8a 08 f1 3c d1 59 b1 bd 8a 43 29 be 12 40 dd 3e
       0.029423017 -0.08659709 -0.1652967 0.43212944
0003c0 e0 54 c2 3a 89 e5 96 be e3 80 87 be c1 35 f1 3e
       0.001482632 -0.29471996 -0.2646552 0.47111323
0003d0 02 18 0a be cd cc 7f bc 04 b4 b0 be c1 76 49 3e
       -0.13485721 -0.015612793 -0.3451234 0.19674207
0003e0 19 e7 c0 bd 25 e7 b9 3b 3c 23 26 3e 87 60 ce bd
       -0.094190784 0.0056733065 0.16224378 -0.10077005
0003f0 f0 60 97 3e d4 10 ec 3c 1c 98 a6 bd 21 58 68 bd
       0.29566145 0.028816618 -0.08134481 -0.05672467

linear_relu_stack.8.bias f4 [80]
000000 97 5a 05 3e d7 4b 38 be 3e f7 9a be 04 b9 3d 3e
       0.13022839 -0.1799768 -0.30266756 0.18527609
000010 d6 9d 95 3d 59 11 6c 3d 54 86 21 be 2e d7 68 bc
       0.073054954 0.05763373 -0.15773898 -0.014211459
000020 02 7b 88 bd d9 bc 8e be 69 b7 24 3c 0e 1b ff 3d
       -0.06664087 -0.27878454 0.010053494 0.12456332
000030 e1 9e 49 3e ad 33 5f 3d 4c 6b e8 3d cc af 4c be
       0.19689514 0.05449264 0.1134859 -0.19988936
000040 57 d2 0e be 97 41 26 3e e1 d2 8d be 4e 0f e9 be
       -0.13947426 0.16235958 -0.2769995 -0.4551949
000050 b7 64 32 3a 99 39 0c be 87 54 c4 3d fa da 47 3e
       0.0006805169 -0.13693847 0.09586435 0.19517127
000060 95 51 bd 3d a4 f0 85 be 2e 5e 3b 3d 33 f5 52 3c
       0.09244076 -0.26160157 0.045744114 0.012875843
000070 bf ed b2 bd 17 ba 9d bd b4 e5 a0 3d b4 96 42 bc
       -0.08736753 -0.077015094 0.078563124 -0.011876751
000080 bb 71 b8 bd 22 a0 1f bd fa 1c ac be 09 cf bb 3d
       -0.09006067 -0.038971074 -0.33615857 0.09170348
000090 7a 78 85 be 70 dd 95 be f6 1c 06 be e3 0d 2f 3d
       -0.2606848 -0.29270506 -0.13096985 0.042737853
0000a0 e8 52 0d 3e 16 a3 b1 3b 4f cc 55 be a7 3e fd 3d
       0.13801157 0.0054210527 -0.20878719 0.123654656
0000b0 68 1e 0d be 12 3b 26 3e a3 b4 04 3e 6f 33 31 be
       -0.1378113 0.16233471 0.12959532 -0.17304777
0000c0 cb 1b ad 3c 0e 0b d3 3c 1b 44 99 be 1e f7 6b bd
       0.021131417 0.025762107 -0.29934773 -0.057608716
0000d0 72 d6 4a bd 14 cd e6 bd 2a d2 66 be 2a 10 ba be
       -0.049520917 -0.11269584 -0.22541109 -0.36340457
0000e0 87 c7 9d 3d dd d8 1d 3e 72 d3 a8 3e c9 90 08 bf
       0.077040724 0.15414758 0.3297382 -0.53345925
0000f0 93 ce 41 be 02 b2 e5 bd e3 6f ba be d7 a3 2b be
       -0.18926458 -0.11215593 -0.36413488 -0.16761719
000100 00 88 a4 bd 9a 15 84 3d 4a 94 57 3e a9 06 ac 3d
       -0.080337524 0.06449433 0.21052662 0.08399708
000110 3b 07 23 3e 34 38 46 bd 0d 6a c5 bd 86 34 e5 bd
       0.15920727 -0.048393443 -0.09639368 -0.11191659
000120 39 80 24 3c db 23 7b 3d 10 af 13 be d7 ce 75 3d
       0.010040336 0.06131349 -0.1442225 0.06001171
000130 c9 24 ad 3d 71 a8 29 3e d2 89 9f be b7 fc ec 3d
       0.08454282 0.16568162 -0.31159836 0.11571639
