sart/models/mnist_new_5x80/mnist_net_new_5x80.pth (torch, 361921 bytes, 12 tensors)

linear_relu_stack.0.weight f4 [80, 784]
0	0x3c886767	0.016650869
1	0xbce169c1	-0.027516248
2	0x3cbcd393	0.023050105
3	0xbb6adf01	-0.0035838487
4	0xbcfbe363	-0.030748075
5	0xbc6cf0a1	-0.014461667
6	0x3cba7ed5	0.022765556
7	0xbc8a04fc	-0.01684808
8	0xbbe709c1	-0.0070507233
9	0x3d0a2f62	0.033736594
10	0x3c63eb05	0.0139110135
11	0xbd0ced44	-0.03440596
12	0x3d0a3cd0	0.0337494
13	0x3daa3a29	0.083118744
14	0xbd39041c	-0.045169935
15	0xbc11127e	-0.008854507
16	0xbcba12fa	-0.022714127
17	0x3c50ed0a	0.012751827
18	0x3c5a5537	0.013325981
19	0xb9d249b7	-0.00040109243
20	0x3cb77a8c	0.022397302
21	0x3d093ae0	0.033503413
22	0x3c57a57c	0.013162013
23	0x3cc56141	0.024094226
24	0xbcaef8f5	-0.021358946
25	0xbaf659dc	-0.0018795091
26	0x3cb8ec6a	0.022573669
27	0x3a91fbb7	0.0011137639
28	0x3c830a40	0.015996099
29	0xbd058675	-0.03259893
30	0xbd111ca0	-0.03542769
31	0x3aa3d125	0.0012498243
32	0x3d587af6	0.05285164
33	0x3b977c65	0.0046229833
34	0x3d69b99d	0.05706178
35	0x3df57fb8	0.11987251
36	0x3e0d39f2	0.13791636
37	0x3dd2cf25	0.10293416
38	0x3c0e90c0	0.008701503
39	0x3c9db673	0.019252038
40	0x3e621fb3	0.22082405
41	0xbeac7cad	-0.3368887
42	0xbf08bc50	-0.5341234
43	0x3cafa85f	0.02144259
44	0x3d8e8980	0.0695982
45	0x3e91d1c0	0.2848034
46	0x3eea77ea	0.45794612
47	0x3dd0375a	0.101668075
48	0x3db591eb	0.08865722
49	0x3d86ee75	0.06588451
50	0x3cc867d4	0.024463572
51	0xbca67f2f	-0.020324318
52	0x3d0bc378	0.03412196
53	0xbd0c5668	-0.03426209
54	0x3cf193e8	0.029489473
55	0x3cb1c77e	0.02170157
56	0xbcfb413a	-0.03067075
57	0xbcc7cec3	-0.024390584
58	0x3d37423e	0.044740908
59	0x3cf06216	0.029343646
60	0x3d5b9f74	0.053618863
61	0x3cd112d5	0.025521675
62	0x3d71b887	0.05901387
63	0x3db39462	0.08768536
64	0x3d9b9427	0.07596617
65	0x3e44319b	0.19159548
66	0x3ed342c5	0.4126188
67	0x3f27a83e	0.6549109
68	0x3f035597	0.51302475
69	0x3ef7cb62	0.48397356
70	0x3e24419e	0.16040656
71	0x3e1fc636	0.15602955
72	0x3f06359c	0.5242555
73	0x3f2110e5	0.62916404
74	0x3f0cbc24	0.5497458
75	0x3f04dc91	0.5189906
76	0x3eac2b67	0.33626863
77	0x3ead7a61	0.3388243
78	0x3f0ceeb0	0.5505171
79	0x3ee64a81	0.44978717
80	0x3dd71fc5	0.105041064
81	0x3dfb31c1	0.12265349
82	0x3c7d752e	0.015469832
83	0xbd11210b	-0.035431903
84	0x3bc92c37	0.006139304
85	0x3c2df025	0.010616337
86	0xbe05ee88	-0.13079274
87	0x3e7d3649	0.2472774
88	0x3e8aaeb8	0.27086425
89	0x3f220ab7	0.632976
90	0x3ebbf909	0.36713436
91	0x3ea4e00b	0.3220218
92	0x3f0833e2	0.53204167
93	0xbe1dd963	-0.15414958
94	0x3c6e617d	0.01454961
95	0xbe1dc438	-0.15406883
96	0x3dc0ea82	0.09419729
97	0x3da3d325	0.07999257
98	0x3e4e6fbb	0.2015981
99	0x3f227621	0.634615
100	0x3f15bf32	0.58494866
101	0x3e236489	0.1595632
102	0x3df9a037	0.12188762
103	0x3ed24d3f	0.4107456
104	0x3ee33182	0.4437371
105	0x3ddba6f8	0.10725206
106	0x3dad5959	0.08464307
107	0x3f66797a	0.9002911
108	0xbdb6cc28	-0.089256585
109	0xbea2a692	-0.31767708
110	0xbe8be7dc	-0.27325332
111	0xbc4d5b41	-0.012533964
112	0x3c860da5	0.016363928
113	0xbc81989f	-0.015819846
114	0xbe40dee8	-0.18835032
115	0x3da3e79c	0.0800316
116	0x3e281936	0.16415867
117	0x3ebfbb68	0.37447667
118	0xbd6a5e36	-0.057218753
119	0x3e12d646	0.14339551
120	0x3f0b769b	0.5447785
121	0x3e92ab49	0.28646305
122	0x3e834fc5	0.25646797
123	0x3e02eade	0.12784907
124	0x3dc16c5e	0.094444975
125	0x3d5a3a46	0.05327823
126	0xbd494495	-0.04913767
127	0x3e02b290	0.12763429
128	0x3e67cd87	0.22636996
129	0x3e7a57ee	0.24447605
130	0x3e1b4abf	0.15165232
131	0x3e863ace	0.2621674
132	0x3ee42e0f	0.4456639
133	0xbdb570eb	-0.08859428
134	0xbe251c8d	-0.16124173
135	0xbe04f019	-0.12982215
136	0xbe9390bc	-0.2882136
137	0xbf0cb30a	-0.5496069
138	0x3e969133	0.29407653
139	0x3f3559b3	0.70839995
140	0x3cb607e7	0.022220565
141	0x3cc0d871	0.023540707
142	0x3dc73cac	0.09728369
143	0x3c82499e	0.015904244
144	0xbdf56932	-0.11982955
145	0x3ebeaadd	0.37239733
146	0xbd3b4a9c	-0.04572545
147	0x3ec0f84d	0.37689438
148	0x3db5fdf4	0.08886328
149	0x3d6fdd1a	0.05856047
150	0x3e8ab34b	0.27089915
151	0x3d344dd2	0.044019528
152	0xbc496300	-0.01229167
153	0x3e6cb986	0.23117647
154	0x3d2cbf47	0.042174604
155	0x3e35a02c	0.17736882
156	0x3e354acb	0.17704313
157	0x3ebdbdb1	0.37058786
158	0x3d894a0f	0.06703579
159	0x3e6dcad9	0.23221911
160	0x3f06381d	0.5242937
161	0x3e608f12	0.21929577
162	0x3e6eb8f8	0.23312747
163	0x3d0852a9	0.033281956
164	0xbe3ac755	-0.18240102
165	0xbe193b9a	-0.14964142
166	0x3f1fa03c	0.62353873
167	0x3f300b7c	0.68767524
168	0xbc57ec33	-0.013178873
169	0x3c40cfdf	0.01176831
170	0xbe98b135	-0.29822698
171	0xbe105c0b	-0.14097612
172	0xbe238ad1	-0.15970923
173	0xbe3bc34c	-0.18336219
174	0xbe9850cd	-0.29749146
175	0x3e33ebb6	0.17570385
176	0x3e542142	0.20715812
177	0xbca78685	-0.020449886
178	0x3d639eb4	0.055571273
179	0xbe596978	-0.2123164
180	0xbdf2a3de	-0.118476614
181	0x3c8fcaa0	0.017552674
182	0x3db0dac2	0.08635475
183	0x3ce9f3cc	0.028558634
184	0x3d6dc4b6	0.058048926
185	0x3dc1ba8d	0.0945941
186	0xbceac399	-0.028657721
187	0xbe329723	-0.17440467
188	0xbd47e79d	-0.048804868
189	0xbe83b888	-0.25726724
190	0xbdae791f	-0.08519196
191	0x3e07f851	0.13278319
192	0x3e27f61d	0.16402479
193	0x3d23579c	0.039878473
194	0x3e827a8a	0.25484115
195	0x3eb27ee7	0.34862444
196	0xbc8eeac4	-0.01744593
197	0xbd061193	-0.032731604
198	0xbe4e1e69	-0.20128788
199	0xbd8b2fab	-0.06796201
200	0xbee9255a	-0.4553631
201	0x3d07b87b	0.03313492
202	0xbe598fce	-0.21246263
203	0xbcff7b62	-0.031186763
204	0xbe1d0dcb	-0.15337293
205	0xbed0234f	-0.40651938
206	0x3d49bba0	0.0492512
207	0xbd154801	-0.03644562
208	0xbe833794	-0.2562834
209	0xbdcdb310	-0.10043919
210	0x3cb8ce7f	0.022559403
211	0x3e0c4092	0.13696507
212	0x3df5fe48	0.12011391
213	0x3cddd768	0.027080253
214	0x3cc1efab	0.023673853
215	0xbadd27af	-0.0016872789
216	0x3c248078	0.010040395
217	0xbd1b1d0b	-0.037869494
218	0x3d7fe2c1	0.06247211
219	0x3c89a2bd	0.016801232
220	0x3d96a2a2	0.073552385
221	0xbe8d4622	-0.2759257
222	0xbc3ea079	-0.011634939
223	0x3e9d5bd2	0.30734116
224	0xbcc47f62	-0.023986522
225	0xbe48fd05	-0.1962777
226	0x3e11e6c5	0.14248188
227	0xbe1b0975	-0.15140326
228	0xbeb87a9c	-0.36031044
229	0xbc86f498	-0.016474053
230	0x3e15ac73	0.14616565
231	0x3bf9d2fd	0.0076240287
232	0xbe5bb9e3	-0.21457629
233	0xbe0de0b4	-0.13855249
234	0x3daafcdf	0.083490126
235	0xbd8e6e84	-0.06954673
236	0x3d9f01eb	0.07764038
237	0x3d844f71	0.06460465
238	0xbceace23	-0.028662747
239	0xbc677e07	-0.014129168
240	0x3db63c60	0.08898234
241	0x3e2d4ff9	0.16925038
242	0xbda143a0	-0.078742266
243	0xbe729146	-0.2368823
244	0x3d291e57	0.0412887
245	0x3de23db3	0.110469244
246	0x3e506cec	0.2035405
247	0x3dfbc4fc	0.12293431
248	0xbd0b164c	-0.03395681
249	0xbccbac89	-0.024862545
250	0x3e0ff5aa	0.14058557
251	0x3d9eafe6	0.07748394
252	0xbd17c373	-0.03705163
253	0xbde79098	-0.11306876
254	0xbe0a83aa	-0.13526788
255	0xbed146b5	-0.40874258

linear_relu_stack.0.bias f4 [80]
0	0xbea68862	-0.32525927
1	0xbcc18979	-0.023625122
2	0xbdf1295d	-0.117754675
3	0xbee8acd8	-0.4544437
4	0x3d86ce9d	0.06582377
5	0x3e9c9ffb	0.30590805
6	0xbe7dc3ba	-0.24781695
7	0x3e88327a	0.2660101
8	0x3db4b659	0.088238426
9	0x3eca327f	0.3949165
10	0x3e4d7423	0.20063834
11	0xbd39b40b	-0.045337718
12	0xbd2dd2e1	-0.042437438
13	0xbde70cae	-0.11281715
14	0xbde48e5e	-0.11159967
15	0x3d3a3c4e	0.045467667
16	0x3bd01b6f	0.0063509266
17	0xbe3e9d0b	-0.18614595
18	0x3e819924	0.2531215
19	0x3dacf96c	0.08446011
20	0xbdf42789	-0.11921603
21	0xbb57306f	-0.0032835265
22	0xbd0e7eaf	-0.034788784
23	0xbed91a90	-0.42403078
24	0x3e94a1d0	0.29029703
25	0xbd3fe218	-0.04684648
26	0xbee49e63	-0.4465209
27	0xbe2f6748	-0.17129242
28	0xbe8adb98	-0.27120662
29	0x3db005eb	0.08594879
30	0x3e24cc53	0.16093569
31	0xbddc5d64	-0.1076
32	0x3c330495	0.010926385
33	0xbcc8fdfc	-0.024535172
34	0x3da66d5a	0.08126326
35	0xbbbd49b2	-0.0057766074
36	0x3e2292b3	0.15876274
37	0xbee3de1a	-0.44505388
38	0xbe6e2858	-0.23257577
39	0xbec2866e	-0.37993187
40	0xbd1e22fe	-0.03860759
41	0xbc8afd4e	-0.016966488
42	0x3d4b8d66	0.049695395
43	0xbd96ae74	-0.07357493
44	0xbe036a9c	-0.12833637
45	0x3d90d33d	0.070715405
46	0xbebf7c52	-0.37399536
47	0x3da99b56	0.08281581
48	0xbe29e4d6	-0.165912
49	0x3daf9787	0.085738234
50	0x3ba1daf0	0.0049394295
51	0x3e644380	0.22291374
52	0xbe826d17	-0.25473854
53	0xbea14237	-0.3149583
54	0xbe926bb9	-0.2859781
55	0xbe82f1d4	-0.25575125
56	0xbcf55756	-0.029948872
57	0x3e06c94c	0.13162726
58	0x3e9d5cfa	0.30734998
59	0x3e9fcd95	0.31211534
60	0xbd433c7b	-0.0476651
61	0xbe9e656a	-0.30936748
62	0x3d309f40	0.043120623
63	0xbd604bce	-0.054759793
64	0x3e0da81c	0.1383366
65	0xbde90360	-0.11377597
66	0x3de1ca6d	0.11024938
67	0x3cb6b60e	0.022303607
68	0x3cca207a	0.02467369
69	0xbd50b52e	-0.050954036
70	0x3eb73a7e	0.35786813
71	0xbe438637	-0.19094168
72	0x3de0af26	0.10970907
73	0x3e894ce0	0.26816463
74	0xbe476b6a	-0.19474569
75	0xbe601cba	-0.21885958
76	0xbcdd7508	-0.027033344
77	0x3c85f9d4	0.016354479
78	0xbe9c17b3	-0.3048683
79	0x3e02db58	0.12778986

linear_relu_stack.2.weight f4 [80, 80]
0	0xbf0296b9	-0.51011235
1	0xbec9eadd	-0.39437
2	0x3ee675e6	0.45011824
3	0x3d80049a	0.06250878
4	0xbee5508f	-0.44788024
5	0xbd8f4565	-0.06995658
6	0xbe921710	-0.2853322
7	0xbdafd303	-0.08585169
8	0x3e98114f	0.29700705
9	0xbf6a38ed	-0.9149311
10	0x3de38d2f	0.11110913
11	0xbe9b8bcf	-0.30380103
12	0x3cabb03b	0.020958057
13	0xbe2708bf	-0.1631193
14	0x3df539e0	0.119739294
15	0xbf3ae834	-0.73010564
16	0x3e2b322a	0.16718355
17	0xbee8a537	-0.4543855
18	0xbe083b8e	-0.13303968
19	0x3d908325	0.07056264
20	0x3da6ff57	0.08154171
21	0xbcb48ec8	-0.02204074
22	0x3e0fe23f	0.1405115
23	0x3c84f5b8	0.01623045
24	0xbcb0d498	-0.021585748
25	0x3e52a7d5	0.20571835
26	0x3c389b04	0.011267427
27	0xbd041783	-0.032248985
28	0xbe2738b7	-0.16330229
29	0x3e1d311a	0.15350762
30	0x3dfb7fbe	0.12280224
31	0xbddf2e3b	-0.1089749
32	0xbe8b3e65	-0.2719604
33	0xbd050e90	-0.03248459
34	0x3e0bd0ef	0.1365392
35	0xbe9ec0fe	-0.31006616
36	0x3eb9f05e	0.36316198
37	0x3e0e833e	0.13917252
38	0x3e65894f	0.2241566
39	0x3e39e2b6	0.1815289
40	0x3e8f95d6	0.28044003
41	0xbf2ed223	-0.68289393
42	0x3daa477f	0.08314418
43	0x3d8f6b32	0.07002868
44	0xbd33a135	-0.04385491
45	0xbf0265a1	-0.50936323
46	0xbe3b5291	-0.18293215
47	0x3ddd4ec4	0.10806039
48	0xbddcec39	-0.107872434
49	0xbec563c5	-0.3855268
50	0xbf202181	-0.6255112
51	0x3d86caab	0.065816246
52	0x3c55ba5e	0.013044922
53	0xbbe74f6c	-0.0070590284
54	0xbeb5f37d	-0.3553733
55	0x3e6cdb5f	0.23130558
56	0x3dc0e7d6	0.09419219
57	0x3e157ec3	0.14599137
58	0x3ddb7453	0.107155465
59	0x3ea2dfc1	0.31811336
60	0x3cb4bad6	0.022061747
61	0x3d703a22	0.05864919
62	0xbdd7bb35	-0.10533754
63	0xbf193f20	-0.59861946
64	0x3e711ad2	0.23545387
65	0x3e4a27c3	0.1974173
66	0x3e60c436	0.21949849
67	0x3e9c260b	0.30497774
68	0xbe4a49c9	-0.1975471
69	0x3cf300df	0.029663501
70	0x3e066d68	0.13127673
71	0xbef2d3a8	-0.47427106
72	0x3d42f7f4	0.047599748
73	0xbd1b05ce	-0.037847333
74	0xbef84284	-0.48488247
75	0x3e8008b6	0.25006646
76	0xbdfb4a38	-0.122700155
77	0x3c7fffd3	0.015624958
78	0xbe9538f3	-0.2914501
79	0x3ea366fb	0.31914505
80	0x3e707786	0.23483095
81	0xbf2d0658	-0.67587805
82	0xbe8130e9	-0.25232628
83	0xbed34cbb	-0.41269478
84	0xbdc421f0	-0.095767856
85	0x3eaa959f	0.33317277
86	0x3e7cd4ed	0.246906
87	0xbe49510d	-0.19659825
88	0xbcffb59a	-0.031214524
89	0xbe0714cf	-0.13191532
90	0x3e813ee2	0.25243288
91	0x3dad2d61	0.08455921
92	0x3d0a7253	0.033800434
93	0xbe3127bb	-0.17300312
94	0x3e1363d4	0.1439355
95	0xbef5969d	-0.4796647
96	0xbe29e34f	-0.16590618
97	0xbc203b86	-0.0097798165
98	0x3e475b1b	0.19468348
99	0x3e1bc8ae	0.15213272
100	0xbd98fbf8	-0.07469934
101	0xbee7f277	-0.45302173
102	0xbe95d5ef	-0.2926478
103	0x3eb9ad3b	0.36264977
104	0xbd70e113	-0.058808398
105	0xbeff61a6	-0.49879187
106	0xbe1d961c	-0.15389293
107	0xbe95c961	-0.29255202
108	0xbe57c52c	-0.21071309
109	0x3e3c2424	0.18373162
110	0x3b530560	0.0032199249
111	0x3c941e58	0.018080875
112	0x3cc15cec	0.023603879
113	0x3da7fe65	0.08202819
114	0xbe5c9734	-0.21542054
115	0x3eaa927b	0.3331488
116	0xbb9a4b41	-0.004708678
117	0xbd9a6da5	-0.07540444
118	0xbe99bc84	-0.30026639
119	0x3d8c5da3	0.06853797
120	0x3f36aa92	0.7135402
121	0x3edcbc6c	0.43112504
122	0x3e67d6f7	0.22640596
123	0xbd75fc57	-0.060055103
124	0xbe7c8380	-0.24659538
125	0x3e129885	0.14315994
126	0xbebc7d82	-0.36814505
127	0xbe53be0d	-0.20677967
128	0x3d972152	0.07379402
129	0xbda676b7	-0.08128112
130	0x3e5f3612	0.2179797
131	0xbed2afce	-0.41149753
132	0xbe7b1819	-0.24520911
133	0x3e0f229a	0.13978043
134	0x3db377d4	0.0876309
135	0xbda7446f	-0.081673495
136	0xbe9014c2	-0.28140837
137	0x3dfc2588	0.12311846
138	0x3e1a46e7	0.1506611
139	0xbd1ab47c	-0.03776978
140	0x3e672cf7	0.22575746
141	0xbcc98267	-0.024598313
142	0x3dd6c7f8	0.1048736
143	0xbdc5b380	-0.096533775
144	0xbc48072e	-0.012208743
145	0xbe144a38	-0.14481437
146	0x3db853be	0.090003476
147	0xbce6657f	-0.028124569
148	0x3e93ba52	0.2885309
149	0xbe598917	-0.21243702
150	0xbc7b2c07	-0.015330321
151	0xbe82c969	-0.2554429
152	0x3c45af6a	0.012065748
153	0xbe40ccc3	-0.1882811
154	0xbde897dc	-0.1135709
155	0xbe9c35fc	-0.30509937
156	0x3ed1ad63	0.40952596
157	0xbede8f32	-0.43468624
158	0x3d6e47bf	0.05817389
159	0x3ed2bafe	0.4115829
160	0x3d5c9f9f	0.053863164
161	0xbe994024	-0.29931748
162	0x3e3f4ce2	0.18681672
163	0xbe4de04d	-0.20105095
164	0x3de3b434	0.111183554
165	0x3e41c73d	0.1892366
166	0xbe89e6d8	-0.26933932
167	0xbe860aff	-0.26180264
168	0xbec4ed09	-0.38462093
169	0xbeb71aef	-0.35762736
170	0xbe265591	-0.16243578
171	0xbdae82f1	-0.08521069
172	0x3d641ef8	0.055693597
173	0x3e6e88e7	0.23294412
174	0x3e77e662	0.24208978
175	0xbe9f3b78	-0.3110006
176	0xbd5dcc7a	-0.054150082
177	0xbecea3dc	-0.4035939
178	0x3ddc52e7	0.10758
179	0x3e118db0	0.14214206
180	0x3c1821d2	0.009285407
181	0xbcce512b	-0.025185188
182	0x3daab05b	0.083344184
183	0xbe4b61ec	-0.19861573
184	0x3d9fb992	0.077990666
185	0x3df78073	0.120850466
186	0xbebb15a5	-0.3653995
187	0xbf3d3f5d	-0.7392481
188	0xbf016e93	-0.5055935
189	0x3e7d6edb	0.2474932
190	0xbde4d7f5	-0.11174003
191	0x3e2fad90	0.17156053
192	0x3e1a764d	0.1508419
193	0xbcf1759c	-0.029475026
194	0xbe8925dc	-0.26786697
195	0x3ea8b497	0.3295028
196	0x3e0cfba9	0.13767876
197	0xbd998ef6	-0.07497971
198	0x3e0fd10f	0.14044593
199	0xbe164cf8	-0.14677799
200	0xbd75c8d7	-0.06000599
201	0xbea6d025	-0.32580677
202	0xbcbbe059	-0.022934126
203	0xbd7b0524	-0.0612842
204	0xbed86b8c	-0.42269552
205	0x3d9f55bc	0.077800244
206	0xbe1c4893	-0.1526206
207	0xbe1fb9d9	-0.15598239
208	0xbdc31cb0	-0.09526956
209	0xbe654546	-0.22389707
210	0xbc87c2b1	-0.016572328
211	0x3d9c5640	0.076336384
212	0x3ea59f90	0.323483
213	0xbe59a473	-0.21254139
214	0xbeade19f	-0.33961198
215	0x3bd4f07e	0.0064983955
216	0xbeb7a172	-0.3586536
217	0x3e3cf163	0.18451457
218	0xbdb27514	-0.08713737
219	0xbe25b2bd	-0.16181464
220	0x3dbf4c3f	0.09340715
221	0x3d09cd27	0.033642914
222	0xbe9381cf	-0.28809974
223	0xbd7d186c	-0.06179087
224	0xbd03833a	-0.03210757
225	0xbe88f9d7	-0.26753113
226	0xbed5c5e7	-0.4175255
227	0xbeb55d53	-0.35422763
228	0xbe653504	-0.22383505
229	0xbf21dffa	-0.63232386
230	0x3db1346f	0.08652579
231	0x3e4956a2	0.19661954
232	0xbe0f7e78	-0.14013088
233	0x3e2317c8	0.1592704
234	0xbe78159b	-0.24226992
235	0xbe14c941	-0.14529897
236	0x3dacf1e4	0.084445745
237	0x3e029366	0.1275154
238	0x3df87448	0.12131554
239	0x3e9e39cd	0.30903473
240	0xbddc0148	-0.10742432
241	0xbe815898	-0.25262904
242	0xbd229359	-0.039691303
243	0x3e7e0ebe	0.24810311
244	0x3d11ceaf	0.0355975
245	0x3c4c376c	0.0124643855
246	0x3e0aee1b	0.13567393
247	0xbf340ef7	-0.70335335
248	0xbf03c9e3	-0.5147993
249	0xbef9380c	-0.48675573
250	0x3df1e2bc	0.11810824
251	0xbe285177	-0.16437326
252	0xbd3090eb	-0.043106955
253	0x3e42e407	0.19032298
254	0xbf30e87c	-0.69104743
255	0xbda871a9	-0.08224804

linear_relu_stack.2.bias f4 [80]
0	0x3dc8f7c8	0.098128855
1	0x3e72de49	0.23717608
2	0xbe27047f	-0.16310309
3	0x3dd0c61d	0.10194037
4	0xbe66302c	-0.22479314
5	0x3e3e9f40	0.18615437
6	0x3de472dc	0.1115472
7	0xbe735ba8	-0.23765433
8	0x3e36b65c	0.17843002
9	0x3e8f1a97	0.27949974
10	0x3e458777	0.19289957
11	0xbdae6ee0	-0.085172415
12	0x3e7ef9b0	0.24899936
13	0x3df88e3d	0.12136505
14	0xbe5e9dab	-0.21739833
15	0xbd8b5e52	-0.068050995
16	0x3e0ec76e	0.13943264
17	0xbc3086e2	-0.010774346
18	0xbdc69fef	-0.09698474
19	0xbe370a07	-0.17874919
20	0xbd89eb83	-0.067343734
21	0x3e85d40d	0.26138344
22	0x3dd3a2e0	0.103338
23	0x3dbd1f8f	0.09234535
24	0xbe086872	-0.13321093
25	0xbe23e1db	-0.16004126
26	0x3c855b2e	0.01627883
27	0xbdb610e7	-0.088899426
28	0xbe824d9f	-0.25449845
29	0xbed26bde	-0.4109792
30	0x3d780633	0.060552787
31	0x3e1aeb5c	0.15128845
32	0xbd7c50d0	-0.061600506
33	0x3e2baf56	0.16766104
34	0x3e64dcea	0.22349897
35	0xbec31b44	-0.3810674
36	0x3e9767cf	0.29571387
37	0xbdb6c239	-0.08923764
38	0x3d38d068	0.045120627
39	0xbd302a1f	-0.04300892
40	0xbea09594	-0.3136412
41	0x3e6b4d61	0.22978736
42	0x3d9910a3	0.07473876
43	0xbe35f806	-0.17770395
44	0xbec14e0c	-0.37754858
45	0x3e1a9353	0.15095262
46	0xbe37a0f1	-0.17932488
47	0xbde207ba	-0.1103663
48	0x3e883221	0.26600745
49	0x3d5230ab	0.051315945
50	0x3e4001ad	0.1875064
51	0x3e3b7b9f	0.18308876
52	0xbd68c7e0	-0.05683124
53	0xbe26048e	-0.16212675
54	0x3e47a5af	0.19496797
55	0x3ce7c9ac	0.028294407
56	0x3ccb79e4	0.024838395
57	0x3f1af45a	0.605291
58	0xbd98193d	-0.07426689
59	0xbe3002e8	-0.17188609
60	0xbebc9c5e	-0.3683805
61	0xbd8f4b50	-0.069967866
62	0xbe19100b	-0.14947526
63	0x3db79862	0.089646116
64	0x3de3269a	0.11091347
65	0xbdb8b124	-0.09018162
66	0xbd8bb7e9	-0.068221875
67	0xbea8d07b	-0.32971558
68	0xbf07e96b	-0.5309054
69	0x3ce707d3	0.028201973
70	0xbd478798	-0.048713297
71	0x3e80bc83	0.25143823
72	0x3eb01c52	0.34396607
73	0x3e6362f9	0.22205724
74	0x3dc2960c	0.095012754
75	0xbe13306d	-0.14373942
76	0xbd9cc981	-0.07655621
77	0x3e969180	0.29407883
78	0xbe37d700	-0.1795311
79	0xbe0ad338	-0.13557136

linear_relu_stack.4.weight f4 [80, 80]
0	0xbe960798	-0.2930267
1	0x3dd18aff	0.102315895
2	0xbe6daf27	-0.23211347
3	0xbea36fb9	-0.31921175
4	0x3cc8fccb	0.024534604
5	0x3cb00cc7	0.021490468
6	0xbd4a6a6d	-0.0494179
7	0x3e6c8859	0.23098888
8	0xbee06201	-0.4382477
9	0xbd928a23	-0.07155254
10	0x3d1b74ec	0.037953302
11	0xbe42c08a	-0.1901876
12	0xbe5d0e81	-0.21587564
13	0x3dc296c1	0.0950141
14	0x3e2f0ee0	0.17095518
15	0xbbe83110	-0.007085927
16	0xbe59f48e	-0.21284696
17	0x3f33c0cb	0.70216054
18	0xbc7ab16d	-0.015301091
19	0x3d8447b0	0.06458986
20	0xbe2a0a1a	-0.16605416
21	0x3d899450	0.067177415
22	0x3e0c6700	0.13711166
23	0x3d402bf2	0.04691691
24	0x3e6a6aa5	0.22892244
25	0x3a8de5d7	0.0010825944
26	0xbef4da77	-0.47822925
27	0x3c7b8b0e	0.015352977
28	0xbd3a21ea	-0.0454425
29	0x3cb05d17	0.021528764
30	0x3ed246c1	0.41069606
31	0xbe08769f	-0.133265
32	0xbe727fb9	-0.23681535
33	0xbef63bb2	-0.4809242
34	0x3dc50d7d	0.09621713
35	0xbeec8d58	-0.46201587
36	0x3dbbe61c	0.09174749
37	0xbd447d02	-0.04797078
38	0xbc0e0ef2	-0.008670555
39	0xbdf1ac86	-0.11800484
40	0x3d8b3041	0.06796313
41	0xbe86520c	-0.26234472
42	0xbe10cafb	-0.14139931
43	0x3ed28d8e	0.41123623
44	0x3dd7d19a	0.10538025
45	0xbce6dac4	-0.028180487
46	0x3ebefbf8	0.37301612
47	0xbf0a09a8	-0.53920984
48	0xbf092814	-0.5357678
49	0x3e18f837	0.14938436
50	0xbdff426e	-0.12463842
51	0xbd710f99	-0.058852766
52	0xbe9ee0ca	-0.31030875
53	0x3e340845	0.1758128
54	0xbdc42cf2	-0.09578885
55	0xbdbdf419	-0.092750736
56	0x3d183a99	0.037165258
57	0xbf33d824	-0.7025168
58	0xbd320a7d	-0.043467034
59	0xbd530625	-0.05151953
60	0x3e8fe51a	0.28104478
61	0x3c4f5822	0.01265529
62	0xbd1d8517	-0.038457002
63	0x3e8d5873	0.27606544
64	0x3bf09155	0.0073415437
65	0x3e210cde	0.15727565
66	0x3d7f6d6a	0.062360205
67	0x3d0da623	0.03458227
68	0x3e895333	0.26821288
69	0x3ebf5b80	0.37374496
70	0xbd950268	-0.072758496
71	0xbb326028	-0.0027217958
72	0xbc84ce46	-0.01621164
73	0xbe5111e1	-0.20416977
74	0xbee1b7b7	-0.44085476
75	0x3e7b7acd	0.24558564
76	0xba83ac81	-0.0010045917
77	0xbe4748c6	-0.19461355
78	0xbd8b86e0	-0.06812835
79	0x3ce73fde	0.028228696
80	0xbd204375	-0.039126832
81	0x3d1138b9	0.035454486
82	0x3d75f05c	0.060043678
83	0xbc116c50	-0.008875921
84	0x3d764177	0.060121026
85	0x3da264ac	0.07929358
86	0xbe859377	-0.2608907
87	0x3d727669	0.059194956
88	0x3e7b6a34	0.24552232
89	0x3c541de2	0.012946578
90	0xba0cc242	-0.0005369523
91	0xbe12b987	-0.14328586
92	0xbddd2784	-0.10798553
93	0x3e0b5267	0.13605653
94	0x3d50c9b5	0.050973613
95	0xbe85a9be	-0.26106066
96	0x3d7d1fa0	0.061797738
97	0xbd48a9c0	-0.04899001
98	0xbec54acc	-0.38533628
99	0x3e88cf4b	0.26720652
100	0xbe39bd54	-0.18138629
101	0xbe01c967	-0.12674485
102	0xbdf71c63	-0.12065961
103	0x3e1ca5b3	0.15297584
104	0xbd991bd6	-0.074760124
105	0xbe32d09f	-0.17462395
106	0xbd5ac715	-0.053412516
107	0x3d1f03a2	0.038821824
108	0x3d451b8f	0.048121985
109	0x3d48d564	0.04903163
110	0xbf3a9d7a	-0.7289654
111	0xbd94fe1c	-0.0727503
112	0x3e761b58	0.24033868
113	0x3df38735	0.11891023
114	0xbe86df07	-0.2634203
115	0x3e458935	0.19290622
116	0x3e316aa1	0.17325832
117	0xbeb1766a	-0.34660655
118	0xbd2d8581	-0.042363647
119	0x3dd138ab	0.10215887
120	0x3dc31791	0.09525979
121	0x3dabc02b	0.083862625
122	0xbe91ae06	-0.28453082
123	0xbd90cef9	-0.07070727
124	0x3d861505	0.06546978
125	0x3e09ca06	0.13455972
126	0x3d5f516e	0.054521017
127	0x3e65d94d	0.22446175
128	0xbe492f5e	-0.19646975
129	0xbcff4956	-0.031162899
130	0x3d48bd5b	0.04900871
131	0xbdebde56	-0.115170166
132	0xbd74b66d	-0.059744287
133	0xbee8061b	-0.45317158
134	0xbdf43140	-0.11923456
135	0xbeb2db7f	-0.34933087
136	0xbd00664d	-0.03134756
137	0x3ddfbf64	0.10925177
138	0xbf13132e	-0.5745114
139	0x3c087a72	0.0083299745
140	0x3d56ea97	0.052469816
141	0xbe731326	-0.23737773
142	0xbe70bebc	-0.2351026
143	0xbe0d4dbc	-0.13799185
144	0xbc1f632a	-0.009728232
145	0xbe5d761d	-0.21627088
146	0xbe9110b9	-0.2833307
147	0x3e2cf4f5	0.16890319
148	0xbda5dd31	-0.080988295
149	0xbe3c8783	-0.18411069
150	0x3c55c7ff	0.013048171
151	0xbea3eb45	-0.32015434
152	0x3e0d1042	0.13775733
153	0x3e963792	0.29339272
154	0xbd73b705	-0.059500713
155	0xbe397faf	-0.18115114
156	0x3c7e798c	0.015531909
157	0x3cff9c5f	0.031202493
158	0xbe617b06	-0.22019586
159	0x3d587b83	0.052852165
160	0xbe23a772	-0.15981844
161	0xbeea4454	-0.45755255
162	0xbce9bf93	-0.028533733
163	0xbf204115	-0.6259931
164	0x3e687b70	0.22703338
165	0xbf087327	-0.5330071
166	0x3d0ddcc4	0.034634367
167	0x3f0a6aa0	0.54068947
168	0x3e19bbb2	0.15013006
169	0x3e1c97af	0.15292238
170	0x3de86d16	0.113489315
171	0xbed3c574	-0.41361582
172	0xbe610da6	-0.21977863
173	0x3d4ba84b	0.049721044
174	0x3dd6da20	0.10490823
175	0x3dc64cbc	0.09682605
176	0x3e81448b	0.25247607
177	0xbed038b9	-0.40668276
178	0xbe9385e8	-0.288131
179	0xbec72546	-0.38895625
180	0x3f14991c	0.58046126
181	0x3de29323	0.1106322
182	0xbea73db3	-0.3266426
183	0xbd85ddea	-0.065364674
184	0xbd4b7cc9	-0.04967955
185	0xbecc5d63	-0.39914998
186	0x3ea968d5	0.33087793
187	0xbe6c94ce	-0.2310364
188	0x3c837afc	0.016049854
189	0x3e47c0c4	0.19507128
190	0xbf5d5d9e	-0.86470973
191	0x3c4c7baa	0.012480656
192	0xbda1c813	-0.07899489
193	0xbdc923ec	-0.09821305
194	0xbf10d868	-0.5658021
195	0x3d10ac77	0.035320725
196	0xbf028630	-0.50986004
197	0xbd3e1f9b	-0.04641686
198	0x3d1bb428	0.038013607
199	0x3de36a77	0.11104291
200	0x3cae730d	0.021295095
201	0xbdfde775	-0.123976626
202	0x3df3f123	0.119112276
203	0xbe970813	-0.29498348
204	0x3ea367c0	0.31915092
205	0x3d7bdfe9	0.061492834
206	0xbe302163	-0.17200236
207	0xbe9c081c	-0.30474937
208	0xbe6da63a	-0.23207942
209	0xbcf38f06	-0.029731285
210	0xbedbafcd	-0.42907563
211	0x3eae7462	0.34073168
212	0x3e01317f	0.12616538
213	0xbd3803c3	-0.044925462
214	0xbeffbb2e	-0.49947494
215	0xbf029986	-0.5101551
216	0xbeb7e53d	-0.35917082
217	0xbd1e7b74	-0.038691953
218	0xbec2be45	-0.3803579
219	0x3e29855b	0.16554777
220	0x3e25bda0	0.16185617
221	0x3d9fdedc	0.07806179
222	0xbecb560f	-0.39714095
223	0xbe7f5a71	-0.24936844
224	0x3dd189b3	0.10231342
225	0x3d6a7774	0.057242826
226	0xbf00a4d4	-0.5025151
227	0x3f051bd6	0.519956
228	0x3d8c68c1	0.06855918
229	0xbe69a422	-0.22816518
230	0x3e208dfe	0.15679166
231	0xbe37e868	-0.1795975
232	0xbee76142	-0.4519139
233	0xbf20b37b	-0.62773865
234	0xbe1a739d	-0.15083165
235	0x3d9ac79f	0.07557606
236	0x3dc96722	0.09834124
237	0xbefc454b	-0.49271616
238	0xbd5d6e72	-0.054060407
239	0x3e2f388b	0.17111413
240	0xbebcf388	-0.3690455
241	0x3d69f67a	0.057119824
242	0x3e1df448	0.15425217
243	0x3e9c06c5	0.30473915
244	0x3e20993f	0.15683459
245	0xbe9b805d	-0.3037137
246	0x3dd410aa	0.10354741
247	0x3d4f42b9	0.05060074
248	0x3e6e9a0c	0.23300952
249	0x3cc379bd	0.02386176
250	0xbdb7c603	-0.089733146
251	0x3e567b96	0.20945582
252	0xbe9572f5	-0.29189268
253	0xbe99f5fc	-0.30070484
254	0xbb9e3d55	-0.0048290887
255	0xbf006f1f	-0.5016956

linear_relu_stack.4.bias f4 [80]
0	0xbe23bdfc	-0.15990442
1	0x3e8edd98	0.27903438
2	0xbe9e8b86	-0.30965823
3	0x3c199c4e	0.009375645
4	0xbed30991	-0.41218236
5	0x3e28b7c7	0.16476355
6	0x3ed0ea02	0.40803534
7	0x3e59bd14	0.21263534
8	0x3e4e476a	0.2014443
9	0xbd8aa8de	-0.0677049
10	0x3e543eb9	0.20727052
11	0xbeb9e328	-0.3630612
12	0xbe7fe1e2	-0.24988511
13	0x3edc4b67	0.43026277
14	0xbdb67cb5	-0.08910505
15	0x3d29dd80	0.041471004
16	0xbe8f4861	-0.27984908
17	0x3d61e464	0.05514945
18	0x3eabd6a5	0.33562198
19	0x3e6c7e70	0.23095107
20	0xbe388402	-0.18019107
21	0xbd124300	-0.035708427
22	0xbe0f5498	-0.13997114
23	0x3dbafdd8	0.09130448
24	0xbe0b595d	-0.13608308
25	0xbe1a1212	-0.15045956
26	0x3ea5fdf0	0.324203
27	0xbcd67f5d	-0.026183778
28	0x3ec1b6b7	0.37834713
29	0xbdf6fe92	-0.12060274
30	0xbe8754d3	-0.26431903
31	0x3e0e4e0c	0.1389696
32	0x3d5e30f9	0.054245923
33	0xbe1944a1	-0.14967586
34	0x3e11e0bb	0.14245884
35	0xbd571537	-0.052510466
36	0x3ec2c9f6	0.3804471
37	0xbda21754	-0.07914606
38	0x3d955264	0.072911054
39	0xbe2f2ea2	-0.17107633
40	0xbd48d54e	-0.04903155
41	0xbeb5da74	-0.3551823
42	0x3eed07fd	0.46295157
43	0xbdd3af55	-0.10336176
44	0xbe0e8829	-0.13919128
45	0xbddfc566	-0.10926323
46	0xbcff737a	-0.031182993
47	0xbe9f7c7a	-0.31149656
48	0x3e32b5a7	0.17452107
49	0x3bf16760	0.0073670596
50	0xbdb25213	-0.08707061
51	0xbd2615c5	-0.040548105
52	0xbe66a7e3	-0.22524981
53	0xbc6385fb	-0.013886924
54	0xbe8b7ea1	-0.27245048
55	0x3de1222c	0.10992846
56	0x3de09b14	0.10967079
57	0xbda7897b	-0.08180519
58	0xbc9fdfa3	-0.019515818
59	0xbd9a3298	-0.07529181
60	0xbe2d788a	-0.16940513
61	0x3e54a521	0.20766117
62	0x3e27dafc	0.1639213
63	0xbddc4e23	-0.10757091
64	0xbecd40d0	-0.4008851
65	0x3e9448c5	0.2896177
66	0xbe1a8e9f	-0.15093468
67	0xbd9448c8	-0.072404444
68	0xbeaa1a6d	-0.33223286
69	0xbd5542b2	-0.05206556
70	0xbe6befcc	-0.23040694
71	0x3e3dbdd1	0.1852944
72	0x3d6f82fc	0.058474526
73	0xbeb96d1a	-0.3621605
74	0xbdbb8ef3	-0.09158125
75	0x3e465362	0.19367746
76	0x3e42b4b3	0.19014244
77	0xbecb7c04	-0.39743054
78	0x3e7728c7	0.24136649
79	0x3f18f8d1	0.59754664

linear_relu_stack.6.weight f4 [80, 80]
0	0xbd816608	-0.06318289
1	0x3e703d98	0.23460996
2	0xbd52a117	-0.05142316
3	0x3e1d2a7f	0.15348242
4	0xbe813948	-0.25239015
5	0xbc40b254	-0.011761267
6	0xbd952f9f	-0.07284474
7	0xbdb8f8b1	-0.09031809
8	0x3edad447	0.4274008
9	0xbc73a28c	-0.014870297
10	0xbd12a41f	-0.03580105
11	0x3d89d349	0.067297526
12	0xbd0103cb	-0.031497758
13	0xbd27df72	-0.04098458
14	0xbd9768d5	-0.07393042
15	0xbe627299	-0.22114028
16	0x3ef57c8b	0.4794658
17	0x3db1ac65	0.0867546
18	0x3d1f5e26	0.038908146
19	0xbbf5ae4e	-0.0074975854
20	0x3e820aa4	0.25398743
21	0xbc57851a	-0.0131542925
22	0xbdc1d1e5	-0.09463862
23	0x3f259cfb	0.6469266
24	0xbdc3ea64	-0.09566191
25	0xbd038319	-0.032107446
26	0x3d936417	0.07196825
27	0xbe512aa8	-0.20426428
28	0xbe0561a4	-0.13025528
29	0xbe8a9882	-0.2706948
30	0xbc80105e	-0.015632804
31	0x3dedb118	0.116060436
32	0xbdc3ce77	-0.095608644
33	0xbe401ef4	-0.18761808
34	0xbe78d44d	-0.24299736
35	0xbe75686f	-0.2396562
36	0x3cabcbd5	0.020971218
37	0xbe6158a9	-0.22006477
38	0xbab33b59	-0.0013674303
39	0x3eaa1848	0.3322165
40	0x3d6e1262	0.058123
41	0x3eb00929	0.3438199
42	0x3e07084a	0.13186756
43	0x3d92b84b	0.07164057
44	0x3c0b9cb1	0.008521245
45	0xbdad0d63	-0.08449819
46	0xbdc1c318	-0.09461039
47	0xbc5df07c	-0.0135461055
48	0xbd0073d3	-0.03136046
49	0xbe86c727	-0.26323816
50	0x3d95475e	0.07289003
51	0x3d276b15	0.040873606
52	0x3dd89be5	0.105766095
53	0x3e7ad661	0.24495842
54	0xbd1548b2	-0.03644628
55	0xbdd63fba	-0.104613736
56	0xbe8e7e43	-0.27830705
57	0x3e230570	0.15920043
58	0xbe35d76b	-0.17757957
59	0xbdad6467	-0.08466416
60	0xbdc0ebb4	-0.09419957
61	0x3d9acbdc	0.07558414
62	0xbc184853	-0.009294587
63	0xbb55e0de	-0.0032635252
64	0x3e49db4c	0.19712561
65	0xbb606b64	-0.0034243697
66	0xbe2ded95	-0.16985162
67	0x3e58b7b9	0.21163835
68	0x3d2d02b2	0.0422389
69	0xbe577b3f	-0.21043108
70	0xbcaac78a	-0.0208471
71	0xbcda4ffd	-0.02664947
72	0xbd7d7f7c	-0.061889157
73	0xbd8c51a4	-0.06851509
74	0x3eaee431	0.3415847
75	0x3c057751	0.008146123
76	0xbd9707dc	-0.07374546
77	0xbe6aa277	-0.22913538
78	0x3eafa1eb	0.3430322
79	0xbdc05e1d	-0.09392951
80	0xbdfff457	-0.12497776
81	0xbe9d968d	-0.30778924
82	0x3d916795	0.07099835
83	0x3d92887f	0.07154941
84	0xbe3b5551	-0.18294264
85	0x3d527e4d	0.05138998
86	0xbbeccf56	-0.007226865
87	0x3e3b8f77	0.18316446
88	0x3e569dfe	0.20958707
89	0x3c97439a	0.018464852
90	0x3dd77d95	0.10522
91	0x3d89a98c	0.067217916
92	0xbf1d16f9	-0.6136318
93	0xbf03a0f4	-0.5141747
94	0xbdcfd2e1	-0.10147644
95	0x3da3ebd5	0.08003966
96	0x3d9bcb8a	0.07607181
97	0xbefd69b7	-0.49494717
98	0x3e805334	0.2506348
99	0xbe275729	-0.16341843
100	0xbe1918ca	-0.14950863
101	0xbe6f8d00	-0.23393631
102	0xbd0e2acd	-0.034708787
103	0x3e7bc496	0.2458671
104	0x3e152dde	0.14568278
105	0xbc9deade	-0.019277032
106	0xbdb7ed74	-0.089808375
107	0x3e867a07	0.26264974
108	0xbd912399	-0.07086868
109	0x3c73d5d8	0.014882527
110	0xbe353824	-0.17697197
111	0x3e73cc6d	0.23808451
112	0xbed08335	-0.40725103
113	0x3da83fa1	0.08215261
114	0xbe7a0d93	-0.2441924
115	0x3e7764bc	0.24159521
116	0xbe28ccdb	-0.16484396
117	0x3efd4669	0.4946778
118	0xbd1ecdf9	-0.03877065
119	0x3dc4bbdf	0.09606146
120	0xbdc4099f	-0.095721476
121	0x3deb86d2	0.11500324
122	0x3d8b83fe	0.06812285
123	0xbe93c4ea	-0.2886117
124	0x3e14b21b	0.14521067
125	0x3ddc3e17	0.1075403
126	0xbba7da8d	-0.005122489
127	0xbf149217	-0.58035415
128	0x3d88f3ac	0.06687102
129	0xbd85a17a	-0.0652494
130	0xbc2147f6	-0.009843817
131	0x3e8a8075	0.2705113
132	0xbcbc342c	-0.022974096
133	0x3d865d89	0.06560809
134	0x3de0b49f	0.10971951
135	0xbd32ef10	-0.04368502
136	0xbf20e633	-0.62851256
137	0x3e0be442	0.13661292
138	0xbe05a53e	-0.13051316
139	0xbdfa08c8	-0.12208706
140	0x3d16f097	0.036850538
141	0xbe9f9243	-0.31166276
142	0x3d8b308a	0.067963675
143	0x3e3673a6	0.17817554
144	0xbea13c98	-0.31491542
145	0xbeb68080	-0.35644913
146	0x3e3a37db	0.1818537
147	0x3e73d713	0.23812513
148	0xbe267719	-0.1625637
149	0xbf111104	-0.5666659
150	0xbdcfd212	-0.101474896
151	0xbf089192	-0.5334712
152	0x3e0a5c57	0.13511787
153	0xbed0c9a4	-0.4077884
154	0xbf0915cd	-0.5354889
155	0xbf00ed75	-0.5036233
156	0xbeb4c5ae	-0.35307068
157	0xbe2f0d75	-0.17094977
158	0xbd01abc9	-0.031657968
159	0xbe03b77d	-0.12862964
160	0x3e7a4825	0.24441583
161	0xbeca6af0	-0.39534712
162	0xbe3abee1	-0.18236877
163	0xbdb04691	-0.086072095
164	0x3c105cf1	0.008811221
165	0xbdc8a5fe	-0.097972855
166	0xbca4fa52	-0.020138893
167	0xbdd9c81c	-0.10633871
168	0x3bf4b197	0.0074674594
169	0x3dbe365c	0.09287712
170	0x3dbe4587	0.09290605
171	0xbdb834d3	-0.089944504
172	0xbd1a3baf	-0.037654575
173	0xbebbc34c	-0.36672437
174	0x3de026f3	0.10944929
175	0xbe03b4a6	-0.1286188
176	0xbe7c70c0	-0.24652386
177	0xbe10d4ca	-0.14143673
178	0x3e1a45a0	0.15065622
179	0xbb32062c	-0.0027164323
180	0x3d583531	0.052785102
181	0xbe5e0867	-0.21682893
182	0xbe4411d4	-0.19147426
183	0xbeb087c7	-0.3447859
184	0x3e1372d4	0.14399272
185	0xbd311df1	-0.043241445
186	0x3d31c465	0.043400187
187	0xbd8c7145	-0.06857542
188	0xbd06105e	-0.032730453
189	0x3e8081f1	0.25099137
190	0xbe6b2a60	-0.22965384
191	0xbeb4ba9a	-0.35298616
192	0xbeb8d1f4	-0.36097682
193	0x3c24a407	0.010048873
194	0xbea8bb32	-0.3295532
195	0xbe8197ac	-0.2531103
196	0xbe32eeb3	-0.17473869
197	0x3dd6ef13	0.104948185
198	0xbeb0127e	-0.34389108
199	0x3dddd68c	0.10831937
200	0x3e2bb2a4	0.16767365
201	0xbd92689f	-0.07148861
202	0x3d5c4699	0.053778265
203	0x3cba53ca	0.022745032
204	0x3d7998d9	0.060936783
205	0xbd1f4274	-0.038881734
206	0xbe377892	-0.17917088
207	0x3e1d6f54	0.153745
208	0xbd94643d	-0.072456814
209	0xbbe7e755	-0.0070771375
210	0x3de3dfa9	0.11126644
211	0xbeb60b18	-0.3555534
212	0x3e1ce6f5	0.15322478
213	0xbdeec145	-0.11657957
214	0xbd87f661	-0.0663879
215	0xbf030b1b	-0.5118882
216	0xbc3e24cb	-0.011605452
217	0xbeff66a2	-0.4988299
218	0xbd9a2f35	-0.07528535
219	0xbef2e1ab	-0.47437796
220	0x3de1b614	0.11021057
221	0xbe2e0f02	-0.16997913
222	0xbe470a61	-0.19437553
223	0xbee276ee	-0.4423136
224	0xbc6c3959	-0.01441797
225	0xbe5e025c	-0.21680588
226	0xbd88eab9	-0.06685395
227	0xbeb84e18	-0.3599708
228	0x3d183777	0.03716227
229	0xbed4fb65	-0.4159805
230	0xbec35458	-0.38150287
231	0xbe163462	-0.1466842
232	0xbe12225c	-0.1427092
233	0x3eba6886	0.3640787
234	0x3ddf23dc	0.108955115
235	0xbea1f935	-0.31635442
236	0xbd973d6f	-0.073847644
237	0xbd8ebe99	-0.06969947
238	0xbe297872	-0.16549852
239	0xbd45e5de	-0.04831492
240	0x3d494f49	0.049147878
241	0xbdfcda21	-0.12346292
242	0x3dcef5a4	0.10105446
243	0xbe62b2d2	-0.22138527
244	0x3d0a29f7	0.033731427
245	0xbed51716	-0.41619176
246	0x3d93e120	0.072206736
247	0x3e81f104	0.25379193
248	0x3de275ec	0.11057648
249	0x3cf0abac	0.029378735
250	0xbe0fc0f9	-0.14038457
251	0x3ec2f6d2	0.38078934
252	0x3df295e2	0.11844994
253	0x3e3bed62	0.18352273
254	0x3d17eac9	0.037089143
255	0x3e80360c	0.25041234

linear_relu_stack.6.bias f4 [80]
0	0xbe7bfbaf	-0.24607728
1	0xbe7c906c	-0.24664468
2	0xbe21956e	-0.15779659
3	0x3e0fa32c	0.14027089
4	0xbe34ecaa	-0.17668405
5	0x3ebd6dbd	0.36997786
6	0x3ca9ec73	0.02074263
7	0xbc9770c4	-0.018486388
8	0x3ee99b03	0.45626077
9	0x3db1719b	0.08664247
10	0xbe1fca45	-0.15604503
11	0x3ec49864	0.38397515
12	0xbda1b2df	-0.07895445
13	0xbcceade5	-0.025229404
14	0x3eacf524	0.33780777
15	0xbe82f7a5	-0.25579563
16	0x3b06b294	0.0020553218
17	0x3d3785a1	0.044805173
18	0x3ed1e101	0.40991977
19	0x3e0cfccd	0.13768311
20	0x3e030dc3	0.12798218
21	0x3e13ae0d	0.14421864
22	0xbd48df00	-0.049040794
23	0x3ee11586	0.43961734
24	0x3ebcf9c5	0.3690931
25	0x3e3923d6	0.18080077
26	0x3cecf16e	0.028923716
27	0xbb6779c7	-0.0035320388
28	0xbe154084	-0.14575392
29	0xbf00aebf	-0.5026664
30	0x3e220e7f	0.15825842
31	0x3dc15761	0.09440494
32	0x3d05b157	0.032639828
33	0xbeedddb8	-0.4645822
34	0x3e547513	0.20747785
35	0xbed48657	-0.41508743
36	0x3e8a313e	0.26990694
37	0x3d92626d	0.071476795
38	0x3da81adf	0.0820825
39	0x3e404f97	0.18780361
40	0xbdf5c7b5	-0.12000982
41	0xbe89f23e	-0.2694263
42	0x3da29244	0.07938054
43	0x3de0ed7e	0.10982798
44	0x3eae3d9f	0.34031388
45	0xbb9f932f	-0.0048698406
46	0x3df9bfd1	0.12194789
47	0x3e0d0024	0.13769585
48	0xbea56abe	-0.32308
49	0x3e1c1dc1	0.15245725
50	0xbb80c6e7	-0.003929961
51	0xbd8952be	-0.06705235
52	0x3ea683f5	0.3252255
53	0xbe416398	-0.18885648
54	0x3e21a215	0.15784486
55	0xbddb5612	-0.10709776
56	0xbe0e74e7	-0.13911782
57	0x3e603910	0.21896768
58	0x3e005612	0.12532833
59	0xbebf0c71	-0.3731418
60	0x3e4f1799	0.20223846
61	0x3f04f813	0.5194103
62	0x3e384bdc	0.17997688
63	0xbe2326ec	-0.15932816
64	0x3e3c498b	0.1838743
65	0xbdec9d63	-0.11553457
66	0xbd930f96	-0.07180707
67	0xbdb1f7ce	-0.08689843
68	0x3e8702ff	0.26369473
69	0xbdfe1a4b	-0.12407359
70	0xbe8aeca7	-0.27133676
71	0x3dba43d3	0.09094968
72	0x3e4f3cd1	0.20238043
73	0xbdae725d	-0.08517907
74	0x3e909508	0.28238702
75	0x3c33d852	0.010976868
76	0xbec6795a	-0.3876446
77	0x3e6ebaa8	0.23313391
78	0x3e48e74c	0.19619483
79	0x3f03adcc	0.5143707

linear_relu_stack.8.weight f4 [80, 80]
0	0x3ecd4938	0.40094924
1	0xbd856d1b	-0.06514951
2	0x3cd3fbf1	0.025876971
3	0x3dcb07bd	0.09913585
4	0x3d3c5dd4	0.04598792
5	0x3e20dd7f	0.15709494
6	0xbe71084e	-0.23538324
7	0x3e0b1e7f	0.13585852
8	0xbd8d3e36	-0.068966314
9	0xbba5d246	-0.005060467
10	0xbe486745	-0.19570644
11	0xbe1a5b1c	-0.15073818
12	0xbeda8e0e	-0.42686504
13	0x3e6a6d09	0.22893156
14	0xbcbadecb	-0.022811314
15	0x3e82cfd5	0.25549188
16	0xbda02d2d	-0.078211166
17	0xbdbe597e	-0.09294413
18	0xbe286ee8	-0.16448557
19	0xbe4d604b	-0.20056264
20	0xbe37980c	-0.17929095
21	0x3e19dcbc	0.1502561
22	0xbcd56ade	-0.026051935
23	0x3e5c8bb6	0.2153767
24	0x3df146e6	0.11781101
25	0xbe992c9c	-0.29916847
26	0x3e02763f	0.1274042
27	0xbe2bd685	-0.16781051
28	0xbe112be6	-0.14176902
29	0xbdf8c359	-0.121466346
30	0x3d28c245	0.041200895
31	0x3d1188fe	0.035531037
32	0xbe9f44d0	-0.31107187
33	0x3e8f30b4	0.27966845
34	0x3e1172be	0.14203927
35	0x3e83d2b6	0.25746697
36	0x3e54824a	0.20752826
37	0x3e0bbc3d	0.13646026
38	0xbeb6d97b	-0.357128
39	0x3d4f24ef	0.050572332
40	0xbd1b57fe	-0.037925713
41	0xbe4c6614	-0.19960815
42	0xbd47bc69	-0.048763666
43	0xbdb80576	-0.089854166
44	0x38f6d3e6	0.00011769663
45	0xbe0f3f50	-0.13988996
46	0x3e09ba0d	0.13449879
47	0xbda3b6bd	-0.07993839
48	0xbd8b5ef8	-0.06805223
49	0xbe979c16	-0.29611272
50	0xbd77555e	-0.060384147
51	0xbd840328	-0.064459145
52	0xbdbae99c	-0.09126589
53	0x3e90cf83	0.2828332
54	0x3dc5383d	0.09629867
55	0xbe2fc260	-0.17163992
56	0x3dad5a89	0.08464534
57	0xbdc46ad4	-0.09590688
58	0x3e58db15	0.21177323
59	0x3e91d961	0.2848616
60	0xbe5d243b	-0.21595852
61	0x3e7243e9	0.23658718
62	0xbd61043d	-0.054935683
63	0xbdd5d4df	-0.104409926
64	0x3eaadad9	0.33370093
65	0x3edddcb5	0.4333245
66	0xbe5c7e3f	-0.21532534
67	0xbdb4f816	-0.08836381
68	0xbd75a301	-0.059969906
69	0xbd35de25	-0.044401307
70	0x3e1e1580	0.15437889
71	0xbdc55a7d	-0.096364
72	0xbd61fb1d	-0.05517112
73	0xbec1049e	-0.37698835
74	0xbdabede7	-0.08394986
75	0xbc02f93b	-0.0079939915
76	0x3e166e0f	0.14690422
77	0xbdb4edf7	-0.08834451
78	0xbec8920b	-0.39173922
79	0xbd8e06ca	-0.06934889
80	0xbdcc7ee6	-0.099851415
81	0xbe5ae97b	-0.21378128
82	0x3e2ba22b	0.16761081
83	0x3da21ef5	0.07916061
84	0x3d412415	0.04715355
85	0x3a5e3b46	0.00084774604
86	0x3e9d72dc	0.30751693
87	0x3d1b3f1d	0.037901986
88	0x3dd39a60	0.10332179
89	0x3d69629c	0.056978807
90	0xbd7ae70b	-0.061255496
91	0xbd5db80b	-0.054130595
92	0xbea744f1	-0.32669786
93	0x3e898f83	0.26867303
94	0xbd19849f	-0.037479993
95	0x3d4e76e2	0.050406344
96	0x3c17f898	0.009275578
97	0x3dcb56ac	0.09928641
98	0x3e34721b	0.17621653
99	0x3d99f046	0.07516532
100	0x3e8b3eb1	0.27196267
101	0x3e706189	0.23474707
102	0xbe64c56c	-0.22340935
103	0x3e3a4779	0.18191327
104	0x3e119ee3	0.14220767
105	0xbb3d96bd	-0.0028928958
106	0x3d685379	0.05672023
107	0xbd502216	-0.050813757
108	0xbd5191d0	-0.05116445
109	0x3eea41e1	0.45753387
110	0x3cc4f327	0.024041725
111	0x3d7a7171	0.061143342
112	0x3e9f16bc	0.31072032
113	0x3e659e52	0.22423676
114	0x3e38ee97	0.18059765
115	0x3de7018c	0.11279592
116	0x3e24b3b4	0.16084176
117	0x3dbd5f60	0.09246707
118	0xbeacd88b	-0.3375896
119	0xbc4f16c2	-0.012639703
120	0xbd6269a4	-0.055276528
121	0xbe06ee0e	-0.13176748
122	0x3d3a303d	0.04545616
123	0xbed2e129	-0.4118741
124	0xbd8cd533	-0.06876602
125	0xbeac1966	-0.33613127
126	0x3bd1b05b	0.006399197
127	0xbd89c681	-0.06727315
128	0xbdb2618c	-0.08710012
129	0xbe3e0403	-0.18556218
130	0xbdaa7313	-0.0832273
131	0xbe454240	-0.19263554
132	0x3ddd5e83	0.10809042
133	0x3dedcc6c	0.11611256
134	0x3e55b256	0.20868811
135	0xbea6aafc	-0.32552326
136	0xbe8b1412	-0.2716375
137	0xbdf46f05	-0.11935238
138	0xbe12e3e8	-0.14344752
139	0x3c02a458	0.007973753
140	0x3e791a5f	0.24326466
141	0x3e43ebea	0.19132963
142	0x3ed99577	0.42496845
143	0x3e4bf983	0.199194
144	0x3d92acdd	0.07161877
145	0x3dc68427	0.09693175
146	0xbe50e431	-0.20399548
147	0x3d9ae7df	0.07563757
148	0x3ddec7ac	0.10877928
149	0xbda54647	-0.08070045
150	0xbeaa3315	-0.33242097
151	0x3e77c913	0.24197797
152	0xbd0a02ee	-0.0336942
153	0x3e8853c6	0.26626414
154	0xbd549de0	-0.051908374
155	0xbe0b8311	-0.13624217
156	0x3ea658e4	0.32489693
157	0x3e56fc15	0.20994599
158	0x3da25120	0.079256296
159	0x3e7d1cb5	0.24717982
160	0x3da94370	0.08264816
161	0xbe0a2384	-0.1349011
162	0x3dbd1c47	0.09233909
163	0x3dd365e2	0.10322167
164	0xbccaf91c	-0.024776988
165	0x3e634d9d	0.22197576
166	0x3d0807c2	0.033210523
167	0x3da3d8b9	0.08000321
168	0xbd9d81f3	-0.076908015
169	0x3e09c66a	0.13454595
170	0xbe17dacd	-0.1482956
171	0x3e86b28a	0.2630809
172	0xbdbeda12	-0.09318937
173	0xbdd87df4	-0.10570899
174	0x3e5a0f69	0.21294941
175	0x3dda5ab2	0.1066183
176	0xbe85314e	-0.2601418
177	0x3daaa373	0.08331957
178	0xbd8c6c00	-0.06856537
179	0x3dc03764	0.09385565
180	0x3d40e4ad	0.047093082
181	0xbab28177	-0.0013618906
182	0xbeb5572a	-0.35418063
183	0xbdf1bd7b	-0.11803719
184	0x3df1c118	0.11804408
185	0x3df17855	0.1179053
186	0xbe1a62bc	-0.15076727
187	0x3eca0d61	0.39463332
188	0xbe8e4dea	-0.2779382
189	0xbde65fc4	-0.112487346
190	0xbf0d53b9	-0.55205876
191	0x3dd74636	0.105114385
192	0x3e353964	0.17697674
193	0x3e294b1a	0.16532555
194	0xbd0c5e28	-0.034269482
195	0x3e60a015	0.21936066
196	0x3e899abe	0.2687587
197	0x3ee69c61	0.45041183
198	0x3d80f1fa	0.06296153
199	0x3d8a8457	0.06763523
200	0x3d96677e	0.07343958
201	0xbe073579	-0.13203992
202	0xbe7640bc	-0.24048132
203	0xbe33154a	-0.1748859
204	0xbe3595b8	-0.17732894
205	0x3e1b8dfb	0.1519088
206	0xbe6330e6	-0.22186622
207	0xbdcfde04	-0.10149768
208	0xbe501096	-0.20318827
209	0x3c94ae41	0.018149497
210	0xbea968c4	-0.33087742
211	0xbddf3c20	-0.1090014
212	0xbda4c018	-0.080444515
213	0x3e915bdd	0.283904
214	0x3da4c3e3	0.08045175
215	0xbdc2c621	-0.09510446
216	0xbefccd08	-0.49375176
217	0xbe06bed4	-0.13158733
218	0x3d3bbe1e	0.045835607
219	0x3d3b8fc2	0.045791395
220	0xbf2a3d6b	-0.66499966
221	0xbe1b2f0e	-0.15154669
222	0xbe7adfd3	-0.24499445
223	0xbdabd530	-0.08390272
224	0x3e957163	0.2918807
225	0x3dfc8868	0.12330705
226	0xbccb8264	-0.024842449
227	0x3db6719b	0.08908387
228	0x3e120346	0.14259061
229	0xbd012d53	-0.031537365
230	0x3d6b0aec	0.057383463
231	0xbdf170b9	-0.11789078
232	0xbed4619e	-0.41480726
233	0x3e897d2a	0.26853305
234	0xbd8747db	-0.06605502
235	0xbebd9a87	-0.37031958
236	0x3e9dc946	0.30817622
237	0x3d1aabbf	0.037761446
238	0x3d30446a	0.043033995
239	0x3e02f0f1	0.12787224
240	0x3e75fa4a	0.24021259
241	0x3cc7542f	0.024332134
242	0xbe4bd228	-0.19904387
243	0xbdb799b8	-0.089648664
244	0x3ccc9ad5	0.024976173
245	0x3e734df9	0.23760213
246	0x3dda9210	0.106723905
247	0x3c0caa7a	0.008585567
248	0xbdc9a5e7	-0.098460965
249	0xbe376a49	-0.17911638
250	0xbe7647f6	-0.24050888
251	0x3e2ea265	0.17054136
252	0x3d0517a6	0.032493256
253	0xbeb415f5	-0.35173002
254	0xbea1289a	-0.3147629
255	0x3d07fccd	0.033200074

linear_relu_stack.8.bias f4 [80]
0	0xbe5cd9d8	-0.21567476
1	0x3ed53059	0.4163845
2	0x3dafdc18	0.085869014
3	0x3df2807e	0.11840914
4	0x3eeb2395	0.45925584
5	0xbdf95fe9	-0.121764965
6	0xbe63fe90	-0.22265077
7	0x3e09fd0f	0.1347544
8	0xbe57ad5f	-0.2106223
9	0x3f0091c7	0.5022244
10	0xbe47fd48	-0.19530213
11	0x3de1fb80	0.11034298
12	0x3ed4354b	0.4144691
13	0x3dc4db93	0.09612193
14	0x3f175195	0.5910886
15	0x3ee1a7cb	0.44073328
16	0x3e193b30	0.14963984
17	0xbd553024	-0.052047864
18	0x3eedb872	0.46429783
19	0xbe2d86e2	-0.16945985
20	0xbde311fb	-0.11087414
21	0x3e1cb9d0	0.15305257
22	0xbda73d3d	-0.08165977
23	0xbe19ddfc	-0.15026087
24	0x3e1cdb44	0.15318018
25	0x3e4d5e47	0.20055495
26	0x3e735414	0.23762542
27	0x3ddac991	0.10682977
28	0x3e93cd23	0.28867444
29	0x3d0c81a5	0.034303326
30	0x3e55d768	0.20882952
31	0xbdc45e58	-0.09588307
32	0x3d77b18e	0.060472064
33	0x3f605528	0.8762994
34	0xbefd6568	-0.4949143
35	0x3e974331	0.2954345
36	0xbe92bd29	-0.28659943
37	0xbe071ef6	-0.13195404
38	0xbe8d59b8	-0.27607512
39	0x3dbe6da1	0.09298254
40	0x3e744d2d	0.23857565
41	0x3ecac040	0.395998
42	0xbe352502	-0.17689899
43	0xbe3159c5	-0.173194
44	0x3e0eff2a	0.13964525
45	0x3f176c04	0.59149194
46	0x3e0d492d	0.13797446
47	0x3cd55909	0.026043432
48	0xbdb6f729	-0.08933861
49	0x3d4fd6d6	0.050741993
50	0x3e80f82f	0.2518935
51	0xbe94de34	-0.29075778
52	0xbe3d8ac5	-0.18509968
53	0x3ea7657a	0.32694608
54	0xbd41fcc0	-0.04736018
55	0xbcb9953f	-0.022654174
56	0x3e9da195	0.3078734
57	0xbd75cd10	-0.060010016
58	0x3e2e88c6	0.17044362
59	0xbe5b1557	-0.21394859
60	0x3ec37099	0.38171843
61	0x3f1add89	0.60494286
62	0x3ea9fb9c	0.33199775
63	0xbd8a2806	-0.06745915
64	0xbbcac638	-0.0061881803
65	0x3d64fcf1	0.055905286
66	0x3e0b18f9	0.13583745
67	0xbe7a9c5f	-0.24473713
68	0xbd5f2fb6	-0.05448886
69	0xbe1dbbf6	-0.15403733
70	0x3dc042c6	0.09387736
71	0xbe0df82a	-0.13864198
72	0xbdc82aa8	-0.09773761
73	0xbd6c2e2e	-0.057661228
74	0xbee52a43	-0.44758806
75	0xbe6bc125	-0.23022898
76	0x3e42ce45	0.19023998
77	0x3dd29f60	0.102843046
78	0xbe41becd	-0.18920441
79	0xbe4ec536	-0.20192418
