sart/models/mnist_new_5x50/mnist_net_new_5x50.onnx (onnx, 201280 bytes, 12 tensors)

linear_relu_stack.0.weight f4 [50, 784]
00000000: bc05 0d3c fc7c 29bc 0597 6d3c 65b2 983c
00000010: 350e a53c 81b5 f5bb 200d 9bbc a8b5 0f3d
00000020: 44b1 0cbd 25e6 b93c b7e0 a1ba fc25 febc
00000030: 5b84 46bd 5a42 a73d d75f 243e 8fdc 103e
00000040: 0435 0bbd 554d a33c b481 0e3d dc8e 503a
00000050: 0c20 fdbc de8b 823c ee67 b33b b717 07bb
00000060: 1d90 003d 6c57 c23c be25 a53c 11a7 b93c
00000070: be3a eb3c dc3b 14bb ded4 c3bc fa0c bebc
00000080: 30fb a83b 0f37 513c 6666 2cbd a24f 943c
00000090: 8c0e 743d 3c61 533d 7484 223e f48f ee3c
000000a0: da6a 19be 542c 383e 60f4 4f3e 9c39 653e
000000b0: 8be5 7b3e 9376 be3e 5e5f 463d d750 7fbd
000000c0: 3eed b0bc 24ca 71bc d821 b3bc 8a68 60bc
000000d0: 03f0 e7bc 3305 c5bc 4a1f ea3a 0c62 e33c
000000e0: 835e 00bd 4a38 12bc 7c7d 5a3c 3724 a2bb
000000f0: edb4 febc 418f cfbc 0eec 50bd 7917 4d3d
00000100: 4e79 14bd 0bd0 683d 530c f63e e849 d03e
00000110: 1c7a 0dbe 70a4 993d 9374 cd3e fd87 0a3f
00000120: 9b74 423f f40b d73e 18e4 af3d 1337 fb3d
00000130: b545 933e 0937 f13c a2b1 0abd 180e 98be
00000140: 8f78 6abe 31dd 153c b771 d23b ba75 06bd
00000150: 1cb6 4d3c 0580 5b3c cf93 9c3e 1da3 433d
00000160: c5df 10bd c5a2 8dbe 5a98 143f 201d 5e3f
00000170: aa0d 1f3f b320 d43e 05c7 3abe a29e 283d
00000180: c246 6f3e bdef fd3d 2b1c 1b3d 3503 753e
00000190: 6f61 bf3e 7fa2 9c3e ee51 b03d 4432 543e
000001a0: 3bc9 8dbb 5a9c e9bd 5305 a93d 930d 12bf
000001b0: 82f3 11bf 1d2a 09bf 4689 f2bd 4a45 f03b
000001c0: 5edd 003d a74f 23bc 502b d23e 41f0 723e
000001d0: d38c 3b3e e30d e43e 2119 bd3e 1039 633e
000001e0: 5280 393d 66db e63e 6566 153f 1c71 8f3e
000001f0: ecf3 7c3e 2df3 c3bb dfd7 43bd a7dd 3ebd
00000200: ebd4 dc3d 74c2 ccbd 649c 1e3e ebeb 0e3e
00000210: 90f6 7e3e e831 ba3d 87f6 e3bb a2ed 77be
00000220: 1619 bbbe b5e6 d7be 20b9 aebe 856e b3be
00000230: 6ecf d8b9 ba91 ce3c feb3 db3e 4e68 d8bd
00000240: 9b0d 2ebf b666 2dbf 6884 abbe 9da2 0abe
00000250: 5cc0 53b9 e9eb dd3b 8b9f 17bb 09b7 5a3e
00000260: e165 cc3e b69e 463e 1530 ddbc 3e74 bdbd
00000270: ccb6 5e3e b489 3d3d f85d 593d 6e25 8b3d
00000280: 8cd9 d43e 40b3 e83d 1cdf 003e 55e6 c73e
00000290: fe5f 0cbe 647b 7ebf fbe2 a5be 661b a7be
000002a0: cad7 e1bb 2caa 1b3e 92e8 143f f2fa b0be
000002b0: e482 8abe 8db8 d1be 626f 01be ec12 983c
000002c0: dc16 10bb 8f29 93bd eea6 013f b55d 2d3e
000002d0: 5f05 e13e 163c b33e 43f5 cd3e 0664 e93e
000002e0: cbdc b63e 96df b63d 85a6 0e3e e897 9c3e
000002f0: 4cac df3d 4f39 7f3d 6ee6 df3e 9fac 353e
00000300: 1f3b 0f3e 6f37 6cbf 31f2 39be e2c4 f5bd
00000310: 8d20 513c 896e 753f 48ec 0a3f 4abc 9ebe
00000320: 60d8 da3c 0ca6 0fbf ceed 25bd a333 e53d
00000330: 6526 923d e308 253e 2156 093e 91e7 403e
00000340: 84d2 9ebd 2108 543e 2891 0a3f 6999 fe3e
00000350: eb17 a33e bf7a b23c 4a8a f43d e3f6 6b3d
00000360: 481e 88bd 1650 2abd 173c f3bd c2b5 92bc
00000370: 0d13 7fbe b5c9 21bf 976e ecbd 31f5 f4bd
00000380: b458 913c dc9b dc3d 62d9 67bf 451e c8be
00000390: cd0f 343e 8f65 133e 0d02 bdbe caae 8bbc
000003a0: 3437 293b c4e3 88bc 0098 a83e ffe7 803e
000003b0: 5738 903e b113 af3d a6cc 933e c2d1 6a3c
000003c0: d97f 0b3d 17e0 4b3d 44f9 07bb cbd9 b43d
000003d0: 5aa2 77be 542c 9b3d c02d 7d3e fda9 17be
000003e0: a8e9 31bf 3c7b 26bf 0b53 5ebe bc98 cf3e
000003f0: 33d5 603c 885f 523d 3d24 c3bd 407f 93bd
0.008607324 -0.01034474 0.014501338 0.018639753 0.020148376 -0.0074984436 -0.018927157 0.03508535
-0.03434874 0.02269275 -0.0012350295 -0.031023972 -0.048466068 0.081669524 0.16052185 0.14146636
-0.033986107 0.019934336 0.034791663 0.0007955858 -0.03089907 0.015935834 0.005475036 -0.00206135
0.031387437 0.023723327 0.020159598 0.022662671 0.028714534 -0.0022618687 -0.023905214 -0.023199547
0.005156897 0.012769475 -0.042089842 0.018104378 0.059584185 0.0516064 0.1587084 0.029121377
-0.14982167 0.1798566 0.20308065 0.22385257 0.24599282 0.3719984 0.048430793 -0.062332954
-0.0215975 -0.014757667 -0.021866724 -0.013696799 -0.028312689 -0.02405033 0.0017862108 0.027756713
-0.031340133 -0.008924553 0.013335582 -0.004948165 -0.031092132 -0.025336863 -0.05100637 0.050071213
-0.036248498 0.05683903 0.48056278 0.40681386 -0.13816112 0.07502067 0.40128002 0.5411375
0.75959176 0.42001307 0.08588427 0.12266364 0.2876412 0.029445188 -0.03386081 -0.29698253
-0.22897552 0.009146974 0.0064222473 -0.032827117 0.012555625 0.013397221 0.3058152 0.04776298
-0.035369653 -0.27663246 0.5804497 0.8676319 0.62130225 0.41431198 -0.18239982 0.04116691
0.23366836 0.12399242 0.03786866 0.23927005 0.37379023 0.30592725 0.08609377 0.207223
-0.004326967 -0.11406775 0.08252969 -0.5705196 -0.5701219 -0.53579885 -0.11842589 0.0073324786
0.031461112 -0.009967721 0.4104867 0.23724462 0.18315439 0.44541845 0.36933234 0.22189736
0.04528839 0.45089263 0.58359367 0.28015983 0.24702424 -0.0059799165 -0.047813293 -0.046598103
0.107827984 -0.099980265 0.15489346 0.13957183 0.24898744 0.0909155 -0.0069568786 -0.24211743
-0.36542577 -0.42168203 -0.34125614 -0.35045257 -0.00041353278 0.025215972 0.4291076 -0.105667695
-0.6798951 -0.6773485 -0.33499455 -0.13538595 -0.00020194188 0.0067725074 -0.0023135867 0.21358885
0.39921477 0.19396481 -0.027000466 -0.09250687 0.21749419 0.046273902 0.05306813 0.067942485
0.41572225 0.11362314 0.1258511 0.39042917 -0.13708493 -0.9940703 -0.32399735 -0.3263809
-0.006892179 0.15201634 0.58167374 -0.34566456 -0.27052987 -0.40961114 -0.12640145 0.01856371
-0.0021986281 -0.07185661 0.5064534 0.16930278 0.4394941 0.3500678 0.40226182 0.45584124
0.35715327 0.089293644 0.1393071 0.30584645 0.10921535 0.062310513 0.4373049 0.17741631
0.13987397 -0.92272085 -0.18158795 -0.12000443 0.012764108 0.9587179 0.54266787 -0.31003028
0.026714504 -0.5611274 -0.04050999 0.111914895 0.071362294 0.16116671 0.13411762 0.18838336
-0.077549964 0.20706226 0.5412774 0.49726418 0.31854185 0.021787046 0.11940439 0.057608496
-0.06646401 -0.041580282 -0.118766956 -0.017908935 -0.24909611 -0.63198406 -0.11544531 -0.11960829
0.017742492 0.10771915 -0.90566075 -0.39085594 0.17584153 0.1439421 -0.36915627 -0.01705112
0.0025820257 -0.01671017 0.32928467 0.25177 0.28167984 0.08548678 0.28867072 0.014332237
0.034057472 0.049774256 -0.002074794 0.08830603 -0.24183026 0.07576814 0.24724483 -0.14810939
-0.69497156 -0.6503179 -0.21711366 0.40546215 0.013722706 0.051360637 -0.09528396 -0.072020054

linear_relu_stack.0.bias f4 [50]
00000000: 5200 93bc dd89 51be e2a2 c7bd 5870 343e
00000010: 97b0 9fbd 77d6 0f3d 7c02 693e ca8f d4be
00000020: 7e42 41be 6ac5 493d 83d8 06bf 0f4d 07bd
00000030: eb85 a2be 48d1 003d ee2b e93e 5026 bcbe
00000040: adc0 afbe d7aa f0bb 3b91 2bbe 05e9 c63c
00000050: 0c5e b8be 5296 e13d 4dc6 073e b543 5b3e
00000060: 7c2b 713d f740 7abe 53ae 8bbd 3bbe 2dbd
00000070: 1349 56be 74b5 cebc df5b 9d3e 1bd6 e23d
00000080: a370 e4bc eebb 37be 483a c4be 4e81 66bd
00000090: ad85 be3d f38a 0abe bbd7 4fbe d46c c9be
000000a0: 31ab f5be a731 98bd a9d5 ea3c 1649 c0be
000000b0: d6ab 8c3e 2eb6 563d 68e6 683e 3483 dbbc
000000c0: ac7c 8a3e 4240 d73d
-0.017944489 -0.20462747 -0.09747864 0.1762098 -0.07797354 0.03511664 0.22754854 -0.41515952
-0.18873021 0.049260534 -0.5267412 -0.033032473 -0.31742796 0.031449586 0.45541328 -0.3674798
-0.34326687 -0.0073445844 -0.1675462 0.024281034 -0.36009252 0.110149994 0.1325924 0.21412547
0.05887936 -0.24438845 -0.06820359 -0.042417746 -0.20926313 -0.025233008 0.30734155 0.110759936
-0.02788574 -0.17942783 -0.38325715 -0.05627566 0.093028404 -0.13529567 -0.20297138 -0.39340842
-0.4798217 -0.074313454 0.028666334 -0.3755576 0.2747485 0.052419834 0.22744143 -0.026795961
0.27048242 0.10510303

linear_relu_stack.2.weight f4 [50, 50]
00000000: ad47 903e d3db 263e b739 1b3e 198b 80bb
00000010: 50a6 29be ad0d 5bbe 3686 8dbd fddf 533d
00000020: d5e0 193e b66a a4bd a4c1 ac3e b9ac 173d
00000030: 30a3 9e3d 738e 2f3e 4a5e a1be 529e d5be
00000040: 0121 27be c4f4 ab3d d2f1 29bd 9585 93bd
00000050: 2aa0 b7be d3d1 5a3e aa0b 87bc 1f83 993e
00000060: 6c14 873d 23e9 203e 80a3 d1be f13e 40be
00000070: edfa c63e 41c2 d53d 2654 e6be 7ca0 d43d
00000080: 0024 75bf 4945 7c3c 4f7e 0e3e 4893 123e
00000090: 3d4f d33d 3f16 97be 9e98 81bd 7257 62bd
000000a0: 9255 013f cc46 413d 3b5d 743e a53c 903e
000000b0: 957c eb3d be85 7cbe 1818 c83d 7206 bdbe
000000c0: f354 89bf e109 b73e 7587 75bf 1693 193e
000000d0: f517 723d ef69 9a3e 2a76 3cbd e1ab 8ebf
000000e0: 1d05 1b3e 5578 a53e a99d 3abe 2960 8e3e
000000f0: fdc2 1ebe 3e39 adbd 7207 ac3e 0a7a ca3e
00000100: 1e3a dd3e c912 7a3e 71e4 bf3e 6a5e 873d
00000110: 54c9 373d 4d8b 9d3c c8ae 81bd dfe7 76be
00000120: 6cf0 7a3c 562e 38bd 848b e6be c958 553d
00000130: 1410 16bf 98e6 ea3d 053e 12bf 00aa d2be
00000140: d2c8 2fbe 0e61 5e3d c684 02bf 3346 2dbf
00000150: c590 c93e c9fa 51be 3b68 fbbe 3026 e93e
00000160: c602 3dbe 6eda 063e 61ac 423d d95d 093e
00000170: a521 51be 4d9b 77bd a752 8fbe 6884 923e
00000180: c212 dc3d e683 12bf ee16 1b3e a63c 6e3e
00000190: 6307 543e 708f e33d 7c0f 9abe 9dff 643e
000001a0: d58c bd3d beae 803e 7727 21bf 120b a0bd
000001b0: 6d9e 37bc a109 b6bd 634d 8dbe 570a 9bbd
000001c0: 2d86 e13e 7c61 f13c bc71 6d3e 4b2c 223e
000001d0: a3b9 4b3d 964f cbb9 aaf6 31bd 1ea7 4dbf
000001e0: e42d ce3e ad8a f13d 5d51 8b3c aaa3 eb3e
000001f0: 96c5 ccbe 2371 603e fe15 b0be ae7a e7bd
00000200: bdf2 2d3d 03a6 1bbf a680 6a3e 52ce 2d3f
00000210: ca7c 4abe 505b 453e d53e 2bbf d9d8 6cbe
00000220: 7843 f9be d418 4f3d 65d7 b33e b379 73bd
00000230: c198 5f3d f21a 403d 4bb7 8a3e b138 65be
00000240: 74d5 8abe b4ae c73d ab96 9a3e d940 9b3d
00000250: 6019 efbd f17d 6b3f 1143 edbe ad1b 013e
00000260: 1751 b43e e07d 983e 2b69 053c e351 2dbf
00000270: f227 1237 0444 fabd 658b 4b3c 1abe 85bb
00000280: 3d60 6fbe 564c f33d 676a 17bf 1825 633e
00000290: 65c0 67be 6939 af3d ba2a ae3e 39eb 67bd
000002a0: 9971 cabe 3fdd e23d 0711 1bbf 5819 f9be
000002b0: c31c d8be 2a3c ad3e c585 693e 6be4 d03e
000002c0: 48e0 aa3d 8161 56be aa7e 86bc f020 e4bb
000002d0: d15f d2be 4218 3bbd b436 2ebd 14d0 0e3d
000002e0: ba74 303e 24fa b53e 6d4f de3a 8c5b a13e
000002f0: 77c3 b1be b503 f4be 5523 d73d cef2 2abe
00000300: 3683 493e c732 0d3e f4e0 b33d d658 14bf
00000310: 8dd2 0a3d 3ca3 833e 415b 01be 7a98 88be
00000320: ebc4 04be b9ae 79be 8780 68bf f6b7 0f3c
00000330: 99bb 643d 069c bbbe c7c0 0d3e 8d56 7fbe
00000340: 0038 fb3d 2835 d93d 7a0d d03d a23b 01bd
00000350: 8531 a2bc f20d c5bd f0c1 db3e 255f 99be
00000360: aad9 c1bd 76c9 d33c 49b7 333e f83e 75be
00000370: 33fd 5f3e a461 a83e d52c c2be 0b07 59bd
00000380: bb14 d43e 8098 9f3e fa0f b23e 1209 5bbe
00000390: 5e5b ac3e 1758 733d 4b07 943e b2ea df3c
000003a0: a0f6 20be 006b 903e 50f0 7cbe ae85 503e
000003b0: 4c2e f2bd 624e d3be eef3 0dbe 6e06 823e
000003c0: f398 1dbe 9b27 2e3e 0f9a 40bf 0d23 883e
000003d0: f02a 8d3e 526a 543e 6ae3 273b 86e2 d43c
000003e0: 6da8 ca3d ad8a 5d3d 780e 953e f8ee da3d
000003f0: 9326 263e b162 8cbd ed74 8e3e 698b c9bd
0.28179684 0.16294794 0.15158735 -0.0039228317 -0.1656735 -0.21391936 -0.06910364 0.051727284
0.15027173 -0.08028166 0.33741486 0.037029956 0.07745969 0.17144184 -0.3151725 -0.4172235
-0.16321184 0.08396295 -0.041490383 -0.07203213 -0.35864383 0.21369104 -0.016485054 0.2998285
0.06595692 0.15713935 -0.40945053 -0.1877401 0.38863316 0.104374416 -0.44986075 0.103821725
-0.95758057 0.015397378 0.1391537 0.14313996 0.10317848 -0.2950916 -0.063279375 -0.055259176
0.50521195 0.047186658 0.2386369 0.28171268 0.114983715 -0.24660394 0.097702205 -0.3691898
-1.072905 0.35749725 -0.95909816 0.14997515 0.05910488 0.30158946 -0.046011128 -1.1146203
0.1513867 0.3231837 -0.18224205 0.2780774 -0.1550407 -0.08458184 0.3359943 0.39546233
0.43208402 0.24421228 0.37478974 0.06609805 0.044869736 0.019231463 -0.06332165 -0.2411189
0.01531611 -0.044966064 -0.45028317 0.052086625 -0.58618283 0.114697635 -0.57125884 -0.41145325
-0.1716645 0.054291777 -0.50983846 -0.6768524 0.39368263 -0.20505823 -0.4910296 0.45536947
-0.18458089 0.13169262 0.047527675 0.13414706 -0.2042299 -0.06045084 -0.27992746 0.28616643
0.10745765 -0.5723251 0.15145466 0.23265323 0.20705943 0.11111343 -0.3008994 0.22363134
0.09255377 0.25133318 -0.62950844 -0.078146115 -0.011207205 -0.08888555 -0.27598104 -0.075703315
0.4404768 0.02946543 0.23187917 0.15837209 0.049737584 -0.00038778473 -0.043448128 -0.80333126
0.40269387 0.117940284 0.01700657 0.46023303 -0.39994496 0.21918158 -0.3439178 -0.11302696
0.04246782 -0.6080019 0.22900638 0.67892945 -0.19774166 0.19273114 -0.6689275 -0.23129596
-0.48684287 0.050560787 0.3512527 -0.059442233 0.054589037 0.046900697 0.27092966 -0.22384907
-0.27115977 0.09750119 0.30193076 0.07580728 -0.11674762 0.91989046 -0.4634023 0.12608214
0.35218117 0.29783535 0.00814275 -0.67703074 8.711579e-06 -0.12220004 0.012423371 -0.0040814998
-0.23376556 0.11879794 -0.5914673 0.22182119 -0.22631986 0.08555872 0.34016973 -0.05662081
-0.39539793 0.110773556 -0.60572857 -0.48652148 -0.42209443 0.33834964 0.22804935 0.4079927
0.083435595 -0.20935632 -0.01641782 -0.0069619343 -0.41088727 -0.04567743 -0.042532638 0.034866408
0.17232028 0.35542405 0.0016960927 0.31515157 -0.3471944 -0.47659078 0.10504786 -0.16694185
0.19678959 0.13788901 0.08783141 -0.5794805 0.033892203 0.25710475 -0.12632467 -0.2667883
-0.12965743 -0.24383058 -0.9082112 0.008771887 0.05584297 -0.36642474 0.1384307 -0.2493536
0.122665405 0.10605842 0.101588205 -0.03155101 -0.019799003 -0.096218005 0.429214 -0.29955402
-0.09465344 0.0258529 0.17550386 -0.23949802 0.21873932 0.32886994 -0.3792483 -0.052985232
0.41422066 0.31171036 0.34777814 -0.21390179 0.33663458 0.05941018 0.28911814 0.027333591
-0.1571908 0.28206635 -0.24701047 0.20363495 -0.11825237 -0.4127074 -0.13862583 0.2539553
-0.15390377 0.17007296 -0.75235075 0.26589242 0.2757182 0.20743683 0.0025617727 0.025986921
0.09895406 0.05408733 0.291126 0.10690111 0.16225652 -0.068547614 0.27823582 -0.098410435

linear_relu_stack.2.bias f4 [50]
00000000: e7e5 96be b3c0 bdbe b5e8 7a3e ae36 1f3f
00000010: fe20 953e 2ca0 ca3c 7ec0 833d d34c 253e
00000020: c020 a63c 033f 10bd bc92 18be fc21 aebc
00000030: 609f 7e3e 34b2 d2bd 9f1a 12be bb22 d7be
00000040: a8b4 46be 2987 743c 9b27 94be fd28 9a3e
00000050: 748c 003f f2ec 863e 2714 fb3e c32f bd3d
00000060: 0100 72be 9b38 d5bd 06a5 e6be a2b6 bebc
00000070: 2d26 6cbe 8927 97be 8521 38be e44d a4be
00000080: 3316 c93e 2ea6 f3bd 2399 123e 192b 203e
00000090: 5e9a 343e 62fa a2be 7fdc 4a3d 9b42 a6be
000000a0: d50c e83d d578 d33e 3831 203e 8187 023d
000000b0: b362 ab3d 8897 4e3e 7c91 e03e 4f8e 14be
000000c0: 9d4f 1c3e bde1 8f3e
-0.29472277 -0.3706108 0.24502833 0.6219281 0.29126734 0.024734579 0.06433199 0.16142587
0.020279288 -0.035216343 -0.14899725 -0.02125644 0.24865484 -0.10287896 -0.14267968 -0.42018685
-0.19404852 0.014924803 -0.28936467 0.30109397 0.50214314 0.2635265 0.49038813 0.092376254
-0.23632814 -0.10411187 -0.45047778 -0.023280445 -0.23061438 -0.2952235 -0.17981537 -0.32090676
0.3927475 -0.11896931 0.1431623 0.1564144 0.17637011 -0.31831652 0.049526688 -0.3247269
0.113305725 0.41303125 0.15643775 0.031867508 0.08368435 0.20174992 0.43860996 -0.14507411
0.15264745 0.28101912

linear_relu_stack.4.weight f4 [50, 50]
00000000: e05e 053e 43b9 de3c 9384 803e 2045 76bc
00000010: dfaf e43d 4ecb 623e a43e e73e a8ca 1dbe
00000020: 11fe 79bd 50f2 93be d2c0 59be 4f8f 34bf
00000030: 4dc4 53be 7064 bfbe 8940 f63c 767a 21bf
00000040: 5d65 34bf 436c 1b3e ad29 d2be 6b9c 8fbd
00000050: d8ab 973e eb05 b13e e065 503f 17a5 ef3d
00000060: 130f efbe 56d4 14be 51db a0be f2c9 9d3d
00000070: 957c 9ebe 3cf4 08bc 6796 51be b6d5 bcbe
00000080: 0129 a9be ff83 e2be 062a 833e 6038 92bd
00000090: cf8a 203f ca34 90bd 4be6 be3d 350e de3e
000000a0: 3252 e5bd f6e8 183e 3aa5 013e 9de0 d1bd
000000b0: 048d 77be ad28 b2be 2f09 093f 5420 9c3e
000000c0: 72cd 42bd 12a7 893e 47ef 3a3d 6b04 f23e
000000d0: 3eaa 963d b038 253e b241 88be cb7e 4ebe
000000e0: e162 0abf 8238 12be c643 2a3e 6889 e7bd
000000f0: 1127 063e 755b c03d c07f 45bc 8140 8e3e
00000100: 4273 013e 5ad2 373d e98e d93e 37c1 863e
00000110: e4a2 a93d f132 07be 9efb 1fbd 0a9e fcbd
00000120: 872d ec3e 798d 96be 0c6a d33e 9061 91be
00000130: 061b 593d 06bd 18bf cfd4 00bf f431 bebe
00000140: df21 193b ad64 443e 9cd1 4d3e eb40 183d
00000150: 08ec 9abe de90 673a 3948 bfbe 1726 9e3d
00000160: 5199 5b3d 9319 b43d 2b11 293d b86f 82be
00000170: 2beb 81bb c221 003e 4386 e9be faff 7cbe
00000180: 5b93 0cbe 7e04 8bbe c8d4 b63e 7821 abbe
00000190: 1e9d 3dbf 491a 063f 2fb5 11bc a052 e23e
000001a0: 41e2 d93d 5a66 f3bd 7683 993e b78a 17be
000001b0: f32a 2e3e 56da 59be 4089 be3e f94b 53be
000001c0: 3373 d73c 07b3 103d 1cdf 94bd 9916 c0be
000001d0: 7ee2 b9ba 1502 8a3e b773 663d 7674 813d
000001e0: efae 073f 8a08 afbe 2d6d cb3c ab04 093e
000001f0: f4e1 2c3f 3a2d 373e 5041 a23c 9929 0cbe
00000200: 9632 34be f142 d1be d991 ffbd 6f75 ccbc
00000210: 3bdb dabe b808 48bf 2c80 91bd 0fe6 8a3e
00000220: a9bb c43e fe99 21bf a12d 64be 8009 a33e
00000230: 3951 ac3d 5517 a73d fb54 abbe e58b 713e
00000240: d13d b7be b962 c3bd a137 473e 01bc 85be
00000250: f2b4 b6bd c214 553d ac12 ca3b b360 2dbd
00000260: 24a1 173f cd39 603e 0a54 a83d 4b55 1abe
00000270: 0f93 23be c148 4d3d 85ad f23d 36e4 563e
00000280: 648e 183e f7a0 45be dce3 12bd 3895 823e
00000290: 4bfc c1bd ec37 3dbe e448 5bbe e0ef 7fbe
000002a0: d7df a23c 7912 1cbd 1e3c 66be f298 e4bd
000002b0: e27f 0cbf 5dd9 783e df0b 523e a828 a9bd
000002c0: 0b86 1bbe 4332 143e 4db7 6dbe e5d1 4ebe
000002d0: 4461 be3e 1c1d 04be 5c86 973e 05fd a23d
000002e0: 1100 363e 6988 e73d d122 2d3e 0c3e 06be
000002f0: 2aef e5bd 5773 0e3e 247e 91bb c092 85bd
00000300: 9aa9 c6be 559a 0b3e c964 acbe e278 42be
00000310: 5775 f23a 388a fbbc 42cc 963e ea3e 193f
00000320: ef88 a53d 0eeb 95be 9da0 dabd ea0a 9abe
00000330: 9c1d 8e3e 8560 613d 2ace b43d 0904 b83e
00000340: e3e4 333e 1e70 ab3e 2f37 903e ad4e 0f3f
00000350: ed01 88be 5ff9 e6bb 9666 cc3d 9191 073e
00000360: 3eeb edbe 7c95 cebd 2971 55be f162 e9bd
00000370: 5919 bd3e d102 e5bc cf40 48be 888e 8bbd
00000380: 79f8 1ebd 6899 5cbe 0ffc 3c3e d513 ecbd
00000390: f220 593e 6aec 813e 1526 b73d 6b2e 0fbe
000003a0: 81f4 a53e 9443 d83d 9118 37be f151 b0be
000003b0: f42f 0b3f 5160 b4be 53a1 bcbd 1c4e 28bf
000003c0: c735 cebd 00d7 babe 4b13 273d b882 f43d
000003d0: 324d 49bd a9eb 393e 0d69 1d3f 2712 71bd
000003e0: 79bc e63c 1e85 633e 318c 113e 34e7 87bf
000003f0: 0f51 acbe 85b8 393d 79fb 8e3e a160 92bd
0.13024473 0.027187949 0.25101146 -0.015031129 0.11166357 0.22147867 0.45164979 -0.15409338
-0.061033312 -0.28895807 -0.21264961 -0.7053117 -0.20680352 -0.37381315 0.03006007 -0.63077486
-0.7046717 0.15178017 -0.4104742 -0.07012256 0.29623294 0.34574828 0.8140545 0.1170141
-0.46691188 -0.14534125 -0.31417325 0.07704534 -0.30954424 -0.008359011 -0.2046753 -0.36881799
-0.33039096 -0.4424133 0.25618 -0.07139659 0.62711805 -0.07041319 0.09321269 0.43370214
-0.11197318 0.14932618 0.12660685 -0.1024792 -0.24174887 -0.34796658 0.5352964 0.30493414
-0.04755921 0.26885277 0.04563835 0.47268996 0.0735669 0.16134906 -0.26612622 -0.20165555
-0.5405713 -0.14279369 0.16627416 -0.11305505 0.1310084 0.09392444 -0.012054384 0.27783588
0.12641624 0.04487834 0.42491844 0.26319286 0.08283022 -0.13203026 -0.03905832 -0.12334831
0.46128485 -0.2940481 0.41291845 -0.28394747 0.053004287 -0.59663427 -0.5032472 -0.37147486
0.0023366136 0.1917903 0.20099491 0.037171286 -0.30258203 0.00088335376 -0.3735979 0.07722109
0.05361301 0.087939404 0.04127614 -0.2547586 -0.003964802 0.12512878 -0.45610246 -0.24707022
-0.13728087 -0.27151865 0.35709214 -0.33423972 -0.74067867 0.5238386 -0.008893295 0.44203663
0.10638858 -0.118847564 0.2998311 -0.1479901 0.17008571 -0.21274695 0.37214088 -0.2063445
0.026300048 0.035326984 -0.07269117 -0.3751724 -0.001418188 0.26954713 0.056262698 0.06321041
0.530013 -0.34186202 0.024832333 0.13380687 0.6753228 0.17888346 0.019806534 -0.13687743
-0.17597422 -0.40871385 -0.1247899 -0.02495834 -0.42745385 -0.78138304 -0.07104525 0.27128646
0.38424423 -0.631256 -0.22283031 0.31843185 0.084139295 0.08158747 -0.33463272 0.23588522
-0.3578935 -0.09540314 0.19454814 -0.26119998 -0.08921231 0.05202175 0.0061667766 -0.042328548
0.59230256 0.21897049 0.08219154 -0.15071599 -0.15974067 0.05011821 0.118495025 0.20985493
0.14898068 -0.19299684 -0.035861835 0.2550447 -0.09471949 -0.18478364 -0.21414524 -0.24993849
0.019882126 -0.038103554 -0.2248387 -0.111619845 -0.54882634 0.24301668 0.20512341 -0.08259708
-0.15187852 0.14472298 -0.23214455 -0.20197256 0.37183583 -0.1290173 0.29594696 0.07958416
0.17773463 0.11305315 0.16907813 -0.13109607 -0.112272575 0.13911186 -0.004440086 -0.06522131
-0.3880127 0.13633092 -0.33670643 -0.18991426 0.0018498105 -0.030705556 0.2945271 0.59861624
0.08082759 -0.29280895 -0.10675166 -0.30086452 0.27756965 0.05502369 0.08828385 0.3594058
0.17567782 0.33483976 0.28167102 0.55979425 -0.2656397 -0.0070487703 0.09980504 0.13239123
-0.46468538 -0.10087106 -0.20843948 -0.11395825 0.369334 -0.027955445 -0.19555973 -0.06814295
-0.03881118 -0.21542895 0.18455528 -0.1152722 0.21203974 0.25375682 0.089428104 -0.13982551
0.32413104 0.105597645 -0.17880465 -0.34437516 0.54370046 -0.35229734 -0.09210458 -0.65744185
-0.10068851 -0.36492157 0.040789884 0.11938995 -0.049145885 0.18156303 0.6148842 -0.058855202
0.028166043 0.22218749 0.14213635 -1.0617433 -0.33655593 0.045341987 0.27926233 -0.07147337

linear_relu_stack.4.bias f4 [50]
00000000: 1b91 d73e 129a 113e 1984 d83e 9d53 a13d
00000010: b71c ef3e ca84 613e c6c7 c93e d806 2b3e
00000020: a5e9 7f3e 592d 0cbd b24f 06bf 2ed3 813c
00000030: 4c97 30be 6522 823d 2051 4e3e 2b94 97bd
00000040: bdbe 923e 612c 2d3e a6a7 c33e ea05 7dbe
00000050: 98b0 33be 0f31 ff3e 21b0 a63e 1707 c63e
00000060: db8f 21bc b290 a0be f05d 1b3f 6dac f0bd
00000070: 17c4 29be 611f d83c 8173 84bc 8327 473e
00000080: 3844 dbbd cab4 b03d 89c7 b1be 6237 183e
00000090: dba4 823e 1dcb 443e ad8f a8be 31cb c23c
000000a0: a987 233e e45f ac3e 2566 aabe d85d cebd
000000b0: 9598 503d 927f 9abd d90d a23d c8ca 9bbc
000000c0: 0fbf 7dbe b430 bd3d
0.42102894 0.1421893 0.42288283 0.07877276 0.46701595 0.22023311 0.39410228 0.1670183
0.24991472 -0.034222934 -0.52465355 0.015847769 -0.17245215 0.063542165 0.20148134 -0.07401308
0.28661147 0.1691146 0.38213843 -0.24709287 -0.17547834 0.49842116 0.3255625 0.38677284
-0.009860958 -0.31360394 0.6069021 -0.117516376 -0.16578709 0.02638215 -0.016168358 0.19448666
-0.10706371 0.08628233 -0.34722546 0.14864877 0.255164 0.19218107 -0.32922116 0.02377853
0.15969719 0.3366691 -0.33281055 -0.10076493 0.050926764 -0.07543863 0.079127975 -0.019017592
-0.24779914 0.09237805

linear_relu_stack.6.weight f4 [50, 50]
00000000: 653a 31bc 1900 bdbe dbc6 8bbe 06a7 273e
00000010: 31e0 b5be 6cf3 423e cbda 3a3e 43b8 95bd
00000020: 14fc 2a3d 0f19 123e 10ca 44be 56f4 033e
00000030: 3d82 a23e 828f 333e 72c0 66bd 518c b3be
00000040: 8c2e d93d 0914 003f 1152 693e 6afb 8a3c
00000050: 1375 2b3d baad 963e e2f9 a2be ada7 193c
00000060: aa7b 4cbe db12 f4be baa4 b5bd 43ae e63d
00000070: 87dc 3f3e fa47 f3bc 6bfa 95bd 00a0 b83e
00000080: f2b7 06bf 366b aa3d 5231 0abf f89f 0c3f
00000090: 23e5 68bf ffa5 b6be f570 94be 6b4a ffbd
000000a0: e910 b8be e8d3 d7bd 4e41 6abd 8e9d aebe
000000b0: a8c9 273e 68a6 6ebe 93dc de3d 1171 95bd
000000c0: 02a8 103e bb2d 903d 7c11 4dbe 80a9 89bd
000000d0: ae16 dcbe f89c a2bc 29ed a53e 0892 f0be
000000e0: bcb6 93bd 15d5 c1be 8d6e 4b3d 9512 b8bd
000000f0: a780 113d 8ea3 973e 571a a6bd d48f c33e
00000100: 8f6c 29be d1d8 4d3e 37db 4dbe e040 0abc
00000110: afdb 0dbf cb72 3e3d 56c2 993c fa6b 2c3d
00000120: 4ad6 4b3d 3511 f1be 228e c03e 5072 863e
00000130: 9757 8bbd 1915 5ebd 71a2 20bf d190 a03e
00000140: ab5a 893d 1635 973e c2be 53bf c548 893e
00000150: e199 96bd a18d 0c3e 9139 2dbe 8df9 943e
00000160: 5932 613e dd91 98bf b8b5 6b3d 778f 45bf
00000170: 985e 2bbe 169e 6e3e fe98 3b3e 77da d63e
00000180: ae1c 93be bb02 a0be e530 533e de48 a53e
00000190: a5c3 833e 3471 c33e 03ab 4d3e c50d 98be
000001a0: e677 81be 75a5 bb3d bd15 a43d 423b da3c
000001b0: 2440 43be 8eff 513e e8d4 b1be 07f0 423d
000001c0: 3fb0 26bd 11ad bbbe 13b9 a2bb 1735 9bbe
000001d0: 44c2 e0bd 2d7c 0fbf 30d7 31bd d780 24be
000001e0: b323 8bbc 6747 bc3e 773c a13e 17fa 4b3e
000001f0: 5f10 1bbf 340a 7d3c 75f6 19bf feb7 76bb
00000200: c75b 2a3e 3aff d2be 718d 97bd 8ee2 65be
00000210: 25d1 3fbe 2cd8 0a3d 447a 553e 716d 3dbf
00000220: 69f9 39be cd9a 8cbc ef96 c1be 7c83 5b3e
00000230: 8c9f 87bc 1d13 c33c 8678 153e 65e9 20bc
00000240: 2e73 32be 9a1d 163f d0ef c03e 4c01 50be
00000250: 1675 923d 0dce 83bc a2db 043e e2ed 5cbe
00000260: 7911 35be bd49 51bb 6882 d8bd 043e d33b
00000270: fda6 82bd d1c1 cabe 1d38 8abe 27cd b53b
00000280: a13d acbd f198 7e3d 8c3d 9e3e c14c 0abe
00000290: d3d6 f2bd 52d9 5bbe eef1 a33e 13a3 143f
000002a0: 8229 f0bd 6f6e 7cbd 15a3 8bbd cb9e 973d
000002b0: bc3a 33be 34a4 f9bd 6a28 1c3c deea 60bd
000002c0: 475e b1be 33ae 2cbe 667a cf3d 5613 973e
000002d0: bffb dfbd 9bcc c63e add5 f7bd 2a82 0cbf
000002e0: 3b81 273e 8074 413f d3ad 9dbd 4b26 5ebe
000002f0: b4cf 103e 79c1 58be d8fe ffbd 7174 8cbe
00000300: ceb3 fdbc d048 70be 244c a13e 39c4 553d
00000310: d8f3 b13e 65bd 93be 1cfb 51be 4c59 053e
00000320: e007 36bd a7c3 6c3e 9482 993e eedc 5cbe
00000330: 9806 d53d 1156 bbbe ce0f 5bbe e283 0b3e
00000340: 7ab2 8cbe c365 573e d404 663d 3b49 423e
00000350: 21d4 93be 5be0 a73d 4b84 8d3e 2c9e b3bd
00000360: 461a 74be 121d b4be 0f0b 47be 670a 8bbe
00000370: ee45 47bd e0d1 80be 2377 b4be 88dc 13be
00000380: a768 2f3e 747b 393e bc2f ddbe 034e 44be
00000390: e508 973e c3ad f7be 312b c8bd 10ed d6be
000003a0: f4b5 e2be 7e17 f43a 7012 1f3e cbfc 23be
000003b0: 1d0c 1ebe c6c9 763d 3380 0dbd 1b52 a7be
000003c0: 1e9b babe 15ee 3ebe 3be5 e63d 2360 83be
000003d0: 48b6 95be a5d1 d5be 5478 c9bd 7b52 8d3d
000003e0: 2fb5 cd3d d121 7e3d 5606 89bf 50b3 86bd
000003f0: d5a2 e7bb 9bbb aa3d 792e e4bd 32bc eebe
-0.010817145 -0.36914137 -0.27300152 0.16372308 -0.35522607 0.1903817 0.18247525 -0.07310536
0.041744307 0.14267372 -0.19217706 0.12886176 0.3173999 0.17535213 -0.056335874 -0.3506799
0.10604581 0.5003057 0.22785212 0.016965587 0.041859698 0.29429418 -0.3183127 0.009378356
-0.19969049 -0.47670636 -0.0886931 0.112637065 0.18736468 -0.029697407 -0.07323154 0.3605957
-0.5262443 0.0832123 -0.53981507 0.5493159 -0.90974635 -0.3567352 -0.2899243 -0.12465366
-0.359504 -0.10538465 -0.057191186 -0.3410458 0.1638552 -0.23305666 0.10881915 -0.07296956
0.1412659 0.070399724 -0.20026201 -0.06721783 -0.42986053 -0.01985024 0.324075 -0.46986413
-0.07212588 -0.3785788 0.049665976 -0.08987919 0.035523083 0.2961697 -0.08110493 0.3819567
-0.16545318 0.2010224 -0.20103155 -0.008438319 -0.55413336 0.046496194 0.018769424 0.042095162
0.04976491 -0.4708344 0.3760844 0.2625909 -0.06803816 -0.05421934 -0.62747866 0.31360486
0.06706747 0.2953269 -0.8271295 0.2681333 -0.07353569 0.13725902 -0.16916491 0.29096642
0.21991862 -1.1919514 0.057546347 -0.77172035 -0.16735303 0.23302492 0.1832008 0.4196355
-0.28732818 -0.31252083 0.2062412 0.32282156 0.25735202 0.38172305 0.20084767 -0.29698005
-0.25286788 0.09162418 0.08011959 0.026639584 -0.19067436 0.20507643 -0.34732747 0.04759219
-0.040695425 -0.36655477 -0.00496591 -0.30313942 -0.10974553 -0.5604885 -0.04341811 -0.16064773
-0.016984796 0.36773226 0.31491444 0.1991962 -0.60571855 0.015444327 -0.6014169 -0.003764629
0.16636573 -0.41210347 -0.07400025 -0.22449705 -0.18732126 0.033897564 0.20847422 -0.7399512
-0.18161549 -0.017163659 -0.37810466 0.21436876 -0.01655557 0.023812825 0.14596757 -0.009821271
-0.1742675 0.5863892 0.37682962 -0.20312995 0.071512386 -0.016089464 0.12974408 -0.2157512
-0.17682447 -0.003193482 -0.10571748 0.006446602 -0.06379507 -0.39600995 -0.26995936 0.0055481377
-0.08410192 0.062157575 0.30906332 -0.13505842 -0.11857381 -0.2146962 0.32020515 0.5806133
-0.11726667 -0.061628755 -0.06818215 0.07403334 -0.17502874 -0.121895224 0.00953112 -0.054911487
-0.3464224 -0.16863327 0.101307675 0.2950694 -0.10936689 0.38827977 -0.12101302 -0.54886115
0.16357891 0.7556839 -0.0769917 -0.21694295 0.14141732 -0.21167554 -0.124997795 -0.27432588
-0.030969527 -0.23465276 0.31503403 0.052189086 0.3475635 -0.28855434 -0.20505947 0.13022345
-0.044441104 0.2312151 0.29982436 -0.21568653 0.10401648 -0.365891 -0.21392748 0.13624528
-0.27479917 0.21034913 0.05615695 0.18973248 -0.2887278 0.08197089 0.27639994 -0.08770403
-0.23838148 -0.3517843 -0.19437812 -0.27156374 -0.048650675 -0.25160122 -0.35247144 -0.14439595
0.17129765 0.181135 -0.4320048 -0.19170384 0.29498973 -0.48374757 -0.09773863 -0.4197774
-0.44279444 0.0018622724 0.15534377 -0.16014402 -0.15434308 0.06025102 -0.03454609 -0.3267983
-0.3644647 -0.18645509 0.11274191 -0.25659284 -0.29240632 -0.4176151 -0.09837404 0.069004975
0.10044324 0.06204397 -1.0705059 -0.0657717 -0.0070689716 0.08336564 -0.111416765 -0.46627957

linear_relu_stack.6.bias f4 [50]
00000000: 516f 04be 4ce5 29be 226f e9bc ae7a 743d
00000010: f723 93be fdde 92be 466a db3e ba5c a9be
00000020: ebae 2f3f 1c70 ba3e bd71 13be 2f78 2c3f
00000030: cca6 9d3d 4604 b2be a655 013f c45d 91bc
00000040: 0a24 183f 8c22 3c3f e8ea 2abe fa1d b93e
00000050: 80bd ae3e d52a 71be 6e53 37be 7f36 3fbe
00000060: c6b6 3b3d 4021 993e 560a af3e 1a30 983e
00000070: a91a 233d afb1 0c3f 20d6 04be 010d 02be
00000080: 0c9c 3b3f be2c 053e 8cc3 333f 165d 3d3e
00000090: 81ab 18bd 5ef7 bb3e 5cb4 30bd d743 233f
000000a0: 2422 1cbe e232 ba3c d6f2 213e 4008 643e
000000b0: cb21 343f 86ca 8e3d 7cee 973e 0351 4b3d
000000c0: 32dd 3d3f ac19 db3b
-0.12933089 -0.16591376 -0.028495375 0.05968731 -0.28738376 -0.28685752 0.42854518 -0.33078557
0.6862628 0.36413658 -0.14398856 0.67370886 0.076978296 -0.34768885 0.50521314 -0.017744906
0.5942999 0.73490214 -0.16691172 0.36155683 0.34128952 -0.23551495 -0.1790292 -0.18673132
0.045828603 0.2990818 0.34187573 0.297242 0.039820347 0.54958624 -0.12972307 -0.12700273
0.73284984 0.13005349 0.70220256 0.1849254 -0.037272934 0.36712164 -0.043140754 0.6377539
-0.15247399 0.022729341 0.15815291 0.22268772 0.70364064 0.06972222 0.29674137 0.049637806
0.7416564 0.00668641

linear_relu_stack.8.weight f4 [50, 50]
00000000: eca6 93bd 8f65 81be 68a2 063f cbb3 58be
00000010: b977 f03d 122f 2b3d 933a 5fbe 6d9f 26bd
00000020: 09e7 aa3e de3d eebd af5a 05be 2b4a bcbc
00000030: aea7 923d 0119 a1be d93d 163e 2527 eb3c
00000040: 6742 55be ec5d 01bd 87c1 2ebe 1061 933e
00000050: 6d8c 70be 4082 89be cc7b f0bc b84d 97be
00000060: c112 fb3d 464d c73d 55b3 1bbc 93a2 babd
00000070: b46d 0fbf e32b 5ebe a023 c13d ab1e d23d
00000080: 916b 5f3e 798a 043e a1b0 ba3d 099d 003d
00000090: 12ce 383e 9d28 8e3e 78f3 a6bd 901c ecbd
000000a0: 1f93 223d dee2 71bd 2177 cdbd 65ce 5bbe
000000b0: a5e0 f73d 46f2 413d 4485 783e 9ea5 87be
000000c0: f066 133e 3ef7 773e ac25 dfbe b256 c23e
000000d0: bf9d 6d3e 557a fabc 4f5a 813e a9af 213e
000000e0: 310a 5d3e 9686 75bd 1abc c1bd b74e e1bd
000000f0: 33b1 793e fef4 d5be ff62 fd3d 2b2f 58be
00000100: 6280 003e 7dcb 2e3e 0a37 3abe 448c aebe
00000110: 8c69 343e 27b2 fcbd 0347 703e e020 27be
00000120: 2eef c43d 0a77 1a3d 5bb8 06bd 7051 343e
00000130: daf3 8a3e f79b 583c 1806 37bf 4ca2 e43d
00000140: ecc5 85be fb50 963e 2f01 32bd b4a5 0a3d
00000150: f3f0 933e 9333 84be 6469 233e 1487 6cbb
00000160: 0a64 5abe 5999 7dbd b61b f93e 02ad e13e
00000170: 7abc 94be 4ae5 93be 6236 c63c ee02 263e
00000180: 9d02 193d 6267 383e 96c2 3cbf 7053 613e
00000190: f1c8 893c d167 efbd 7193 abbd f582 3fbe
000001a0: de62 39be 7e06 e9bc 9ced 2dbe 79b1 00be
000001b0: d763 debd 4583 faba b477 533d 37ee 02bc
000001c0: d8e0 11bd 1b18 31be a56c 373d c8bb 27be
000001d0: 7b27 05bd 3d56 90be 0509 6abe 2fed e0bd
000001e0: 0fb1 b43b 36c0 96bd 17ce 3e3c f7f8 3fbe
000001f0: a92f 213d 4506 9c3d 96cd 66bd ba6c b0bd
00000200: 3f0f 89bd 124f 173d 8703 43bd 5df8 853d
00000210: 25e9 a4bc 1bf0 683a f07a 1bbe f6da 85be
00000220: ae94 39be 3ac9 e4bd 4d9c 3cbd 1eaf 563d
00000230: cdcc 22be a980 653d c6a9 963d ef9f c2bd
00000240: e08c cebd 8f93 ed3d dd71 163d b0fe 3cbe
00000250: ffaa e4bd b944 e9bc ab4f da3e 9aec 02bf
00000260: 54de 773d eea0 0dbd e210 71be da9e 1f3d
00000270: 3460 95be f096 b0bd fcb9 bc3d 0aa3 3a3e
00000280: f562 9b3e 9e1d ca3e 40aa a8be e29f 373e
00000290: 1fa8 c4bc 165f babe 93fd 873e 196a b13e
000002a0: e6cd c7bd a2b4 97bd 305a c2be ccee 373e
000002b0: 8428 0cbe 779d 48be c283 25bd be49 063e
000002c0: a0be 963e 395c 7e3d f21b 793e d06b a0bd
000002d0: a065 123e 6c33 b73d 8476 bd3e 20e4 32bf
000002e0: ce81 34bd efe7 dc3d b7c8 5bbd bd9c 583d
000002f0: a189 80bd 2050 eabc 237c e0be 2c6c 303c
00000300: b753 85be 9ad5 f0be 0bb6 c03d 78a4 b6bd
00000310: 664e 683d 2b98 f9bd da02 cc3e 728b da3d
00000320: e38d f8be 8c8b d7bc b20c adbe 3845 95bd
00000330: d411 9b3d f642 1ebe 68b7 323d 11b8 1ebe
00000340: 2249 18bd d730 a63d 43ec fc3d a6ef 67be
00000350: d17e 29bd d40f 033e 9505 f03d 98f0 c8bc
00000360: 73a9 ac3d faed d3be 86ec 9dbd 45a9 37be
00000370: 75fc ec3d 7d2c e8bd 41b0 00be 4825 b6bd
00000380: a4f5 29bd 4160 6bbd 0054 963b 15ec 67bd
00000390: 774b 383e 37ad 33be 709d 5cbd a11f 243e
000003a0: f391 21be 112a c5bc 4d1b 923e 4839 86bd
000003b0: 5187 283e d329 84be 7c5b 2cbe fd5e e23e
000003c0: f92e 88be eeb3 033e ab0f 98be b8d5 c6bd
000003d0: bfcf 97bd 2ad8 c13d 0f60 52be 3036 7bbe
000003e0: ab9e b6be f004 0e3e 0819 57be e6ea bf3d
000003f0: 5cda ea3d fda8 08bd f357 a2bd 8d2c d1be
-0.07209572 -0.25272796 0.5259156 -0.21162336 0.11741585 0.041792937 -0.21799688 -0.040679384
0.3337939 -0.11632894 -0.13022874 -0.022984585 0.071608886 -0.3146439 0.1467203 0.028705189
-0.20826112 -0.03158371 -0.17066012 0.2878499 -0.23491068 -0.26857185 -0.029355906 -0.29551482
0.122594364 0.097315356 -0.009503205 -0.0911304 -0.5602677 -0.21696429 0.09430623 0.10259756
0.21818377 0.12943448 0.091157205 0.03139976 0.1804736 0.2776536 -0.08151907 -0.11528885
0.039691087 -0.059054248 -0.10032488 -0.21465452 0.121033944 0.04735019 0.24269587 -0.26493543
0.14394736 0.24215409 -0.4358343 0.37956768 0.23204707 -0.03057591 0.25264212 0.15789665
0.21585919 -0.059942804 -0.09459706 -0.11001342 0.24384002 -0.41788477 0.12372398 -0.21111743
0.12548974 0.17069812 -0.18185058 -0.3409139 0.17618388 -0.12338667 0.23464589 -0.16321135
0.096159324 0.03771118 -0.03289066 0.17609191 0.2713917 0.013220779 -0.71493673 0.11163768
-0.26127565 0.29358658 -0.04345816 0.033849433 0.28894767 -0.25820598 0.15958172 -0.0036091255
-0.21327224 -0.06191382 0.48653954 0.44077307 -0.29050046 -0.2888587 0.024195854 0.16212055
0.037356008 0.18008187 -0.73734415 0.22004485 0.01681945 -0.11689723 -0.083777316 -0.187023
-0.18104121 -0.028445479 -0.16985172 -0.125677 -0.10858887 -0.0019112608 0.05162783 -0.007991365
-0.03561482 -0.17294352 0.044781346 -0.16380227 -0.032508355 -0.28190795 -0.22855003 -0.10982739
0.005514271 -0.0736088 0.011645815 -0.18747316 0.039352093 0.07618383 -0.056348406 -0.08614488
-0.06692361 0.03694064 -0.047610786 0.06541512 -0.020130703 0.0008885876 -0.15183616 -0.26143616
-0.18123123 -0.111711934 -0.046047498 0.0524131 -0.15898438 0.056030903 0.073566005 -0.09503161
-0.100854635 0.1160041 0.036729682 -0.1845653 -0.111654274 -0.028475152 0.42638907 -0.51142275
0.060514763 -0.034577303 -0.23541597 0.038969852 -0.2917496 -0.08622539 0.09215161 0.18226257
0.30348936 0.3947572 -0.3294239 0.17932084 -0.024005948 -0.3640067 0.2656065 0.3465126
-0.09756069 -0.074075 -0.37959433 0.17962188 -0.1368733 -0.19591318 -0.040408857 0.13114068
0.2944231 0.06209967 0.24327067 -0.078330636 0.1429658 0.08945355 0.37004483 -0.6987934
-0.044069104 0.10786425 -0.053658213 0.052883852 -0.06276251 -0.02860266 -0.4384471 0.010767978
-0.26040432 -0.47037965 0.09409722 -0.08918089 0.05671539 -0.12187227 0.39845926 0.10671128
-0.4854575 -0.026311658 -0.33798748 -0.07288593 0.0757176 -0.15455231 0.04363194 -0.15499903
-0.03717912 0.08114784 0.12349751 -0.22650012 -0.041380707 0.12799007 0.11719815 -0.024528787
0.084307574 -0.413925 -0.07711129 -0.17935665 0.1157159 -0.113366105 -0.12567236 -0.088938296
-0.041494027 -0.05746484 0.0045876503 -0.05662163 0.17997538 -0.17546545 -0.05386108 0.1602769
-0.15778331 -0.02406791 0.28536454 -0.06553894 0.16457869 -0.2581316 -0.16831774 0.44213095
-0.26598337 0.12861606 -0.29699454 -0.09708732 -0.07412671 0.09465058 -0.20544456 -0.2453239
-0.3566793 0.13869071 -0.21005642 0.09370975 0.1146743 -0.033364285 -0.07926931 -0.40854302

linear_relu_stack.8.bias f4 [50]
00000000: ed40 53be a7bd 7e3e 9c2b d1bd 399c fa3e
00000010: 6663 95be 66a6 a5bd 0caa 0f3f 8a1d 843e
00000020: ed5d d63d 472e d73e dc6a 083f 1c90 8bbb
00000030: 82e4 25be 7890 cbbe 3eba 28bc fd05 df3e
00000040: a62d 663d fddd 4d3e b95e ffbd a5a4 9d3d
00000050: 638c ce3d 1f49 87bd b7f1 1fbd 8fa8 2f3f
00000060: 5aff 7e3e 3f34 7b3e af82 263f 9b53 493f
00000070: b415 c73e 3511 1ebd 38c5 d73d 6213 fe3d
00000080: b4f3 7f3d 3274 073f af51 b23e e63f 3f3b
00000090: f75a 8c3e 8078 193f 8551 7f3d d91a a83e
000000a0: c1fa 0d3f ea55 813e f047 1f3f 4251 0d3e
000000b0: 2f4b 803e 7022 b03e cd01 a23e 33e5 6d3e
000000c0: f7f6 fd3e 3637 8abe
-0.20630236 0.24877034 -0.10213396 0.48947313 -0.29177397 -0.080883786 0.56118846 0.25803787
0.10467134 0.42027494 0.53288054 -0.0042591225 -0.1620045 -0.39758658 -0.01029831 0.43559256
0.056195877 0.20104213 -0.12469239 0.07697419 0.100853704 -0.066057436 -0.039048877 0.68616575
0.24902096 0.24531649 0.6504316 0.78643197 0.38883746 -0.03859063 0.10535663 0.12406041
0.062488273 0.52911675 0.34827945 0.0029182374 0.2741315 0.59949493 0.062333602 0.32832983
0.55460745 0.2526086 0.6221914 0.13800529 0.2505736 0.34401274 0.31642 0.23231964
0.49602482 -0.26995248

linear_relu_stack.10.weight f4 [10, 50]
00000000: 6aaf 56be 9fde 463e 6268 e13d ee48 423c
00000010: 8e02 42be f344 7e3d 0bb5 00bf c380 5ebf
00000020: 2abb 293e e0e6 afbf 0796 ddbe dfe9 14b9
00000030: a33c c5be 96ca b23d 96d5 24bf 6518 9bbf
00000040: 7c23 a73d 4b95 cbbe bbb9 2a3c 8481 afbc
00000050: 7c0d b8be d3ca e93d 1be1 1ebe 57b9 cabe
00000060: 8a8d 183e 150e a2be 8600 04be a7c1 85be
00000070: 8099 3cc0 9740 66be bdcd b9be af3a 4ebe
00000080: 76c8 13bf 4e44 e0be 265d 2d3d 70df 5a3e
00000090: 718b 4abb a1a5 11bf 1b40 e03d 5a0d 223e
000000a0: 577b 41bd fa71 a03d 1934 743e f1ce 0dbe
000000b0: 2267 ebbe fbcf 5fbf 641d febe 550a 9cbe
000000c0: ab32 4bbf e5cb 2dbf 70bd 6fbe be57 e7be
000000d0: e92f fbbc a3b9 e0bd 1c0c adbe 9f3f 72bf
000000e0: 5768 2e3e 6d3e dc3c 1ea2 08bf 2efa de3d
000000f0: b06e 90be 8317 d63c f78d 56bd df54 a43c
00000100: 6189 21bf 3985 863e c3a4 a5be 30b8 52bf
00000110: b02c 23bf 256c f3be aedf 82bf f73e 59bf
00000120: 7f60 d3be 7286 3b3e a2c5 783a 56b4 21be
00000130: dcd4 183d 3a40 173e ed40 993e cf92 adbe
00000140: 5529 58be 1774 01bf c95a 24bf 6605 b6be
00000150: 340a 153e 2b22 573e 8f90 80bd 9013 42bd
00000160: 1fc3 0bbe 88f7 87bb 0894 9d3d 1800 443e
00000170: ee5c 02bf 4224 fbbe 1975 85be 5c4f fb3d
00000180: 8af5 45be 304f d63d 8fbc 3a3e fb40 403e
00000190: b637 6bbf 115d b33d 414f e3bd af0d e9be
000001a0: 2b0f 23be 4fad eb3d 973e 0f3e 248a 2ebf
000001b0: 1d5a b03d 4db9 bb3d 2e4a 363e 18f1 84be
000001c0: 3105 0abf f8f2 afbc 4597 e2bf 7782 f53d
000001d0: a2c7 83bd 6663 aa3d 458b 4a3e 363d 81be
000001e0: 69fc 81be 0c4b 1c3d 20a7 99be 26fd 09be
000001f0: 5e0b 68be 2217 043e b183 5ebe dae7 2fbf
00000200: 29c2 2cbe ff1c 8dbe 2af9 283e b6a9 81be
00000210: 5068 b7bd 13d9 16be 940a d5be 2c0e 2f3d
00000220: f9ec b03d 64d1 ae3d 1b42 153d 81a4 f3bc
00000230: 1a90 47bf f782 b9be 46da 07bf c37c cfbe
00000240: 9cb9 4ebb 7a80 99bf f263 b1be 1949 b03d
00000250: e480 433d db2c 92bd c8ca c0be 8e49 423e
00000260: 3302 35bd 12dd 39bf 7c30 85bc 556a 883c
00000270: b391 033e c5b6 8cbc b473 d4be 3b82 dfbe
00000280: 60c8 9fbe 0b6e 1bc0 957c abbe 92d0 93be
00000290: f967 67be 70a8 393e 6706 4b3c 4f26 443e
000002a0: 7bb8 09be 2b06 e5bf 265a 8dbf d684 ebbd
000002b0: 0e93 f63c c234 3ebe 8933 e1bd 73b1 dcbc
000002c0: 88b8 d0bc b67a 003e 3f21 cd3d c436 a7be
000002d0: 3d76 a9bd e336 c2bb 2574 d33d 8ee8 a3be
000002e0: 34ea 73be 7bc2 fcbe 32da 063e 1c6c 463e
000002f0: dd6f b73d 1460 1abf 7f42 12be 955b 0abf
00000300: 2b3f 9ebe 00d9 bcbd 2196 66bb 28a1 853d
00000310: 48fa 303e 9575 b9be 666d 8abf a0a6 5bbf
00000320: 20b8 9ebf 4d91 82bc edee 21bf 5490 a33d
00000330: 27a5 45bf c1c0 2fbe 30e5 fe3d 0227 f8bd
00000340: 292a 27bf 5a2c 8dbf d854 aebd f7aa 5abe
00000350: 1108 dabe e73b 84be bb28 30bf c525 8bbe
00000360: 0bcc 0fbf 3831 afbd ebd6 153e a10c e43d
00000370: 4613 80be a3ef 4abd 8b12 1ebf 7884 21be
00000380: 3714 173e 2246 10be 654f 16bf 78c8 77bf
00000390: 12bd 92bd bf3a 373e 4fcc 3e3e 5ccd f0be
000003a0: c4bf 813d 580c 5a3e 6bd9 c43d 3992 aabe
000003b0: 18d9 24bf ce60 a6be b7b5 1f3b c093 22bf
000003c0: 3313 debd 20d4 443d 7800 3f3e a88d 113d
000003d0: a5ef 7c3d f712 873d 282e 5ebf 6545 b4be
000003e0: 0a8b 273e 5370 cdbe 9f5e 42bf d823 f23d
000003f0: 9632 05bd 2507 0e3d a5c9 1bbd 0ddd 6bbe
-0.20965353 0.1942086 0.110062376 0.011858208 -0.18946287 0.062077474 -0.5027625 -0.86915225
0.16575304 -1.3742332 -0.43278524 -0.00014201504 -0.38522825 0.087300465 -0.64388406 -1.211682
0.08161065 -0.3976234 0.010420258 -0.021424063 -0.35947788 0.11415639 -0.15515558 -0.39594528
0.14897743 -0.3165137 -0.12890825 -0.26124308 -2.946869 -0.22485577 -0.36289778 -0.20139574
-0.57727754 -0.43802112 0.04232516 0.21374297 -0.0030905867 -0.56893355 0.10949727 0.15825406
-0.047236767 0.07834239 0.23847999 -0.13848473 -0.45977122 -0.8742673 -0.49631798 -0.30476633
-0.7937419 -0.67889243 -0.23412108 -0.4518413 -0.030662494 -0.109729074 -0.337983 -0.9462833
0.1703199 0.026885236 -0.5337237 0.10887562 -0.28209448 0.026134258 -0.052381482 0.020060001
-0.6310025 0.26273516 -0.32352266 -0.823123 -0.6374006 -0.47543445 -1.0224512 -0.848617
-0.41284558 0.18313006 0.0009489899 -0.15791449 0.037312374 0.14770594 0.29932347 -0.3390107
-0.21109517 -0.50567764 -0.6420103 -0.35550994 0.14554673 0.21009128 -0.06277572 -0.047381938
-0.13648652 -0.004149381 0.0769425 0.19140661 -0.5092305 -0.490511 -0.260659 0.12270996
-0.19331947 0.104643226 0.18235992 0.18774788 -0.91881883 0.087579854 -0.11099101 -0.45518252
-0.15923755 0.11507665 0.1398872 -0.68179536 0.08610938 0.09166203 0.17801735 -0.2596519
-0.5391417 -0.021478161 -1.7702414 0.11987775 -0.06434561 0.0831974 0.1977969 -0.25242013
-0.25387886 0.038157508 -0.3001032 -0.13475475 -0.22660586 0.1289945 -0.21729924 -0.6871315
-0.16870941 -0.27561185 0.16501299 -0.25324792 -0.08955443 -0.14731245 -0.41609633 0.042738125
0.08638949 0.08536032 0.036439996 -0.029741528 -0.77954257 -0.3623273 -0.53067434 -0.40524873
-0.0031543737 -1.1992333 -0.34646565 0.08607692 0.04773034 -0.07137462 -0.3765471 0.18973371
-0.04419155 -0.7260295 -0.01625847 0.016652266 0.12848549 -0.017176995 -0.41494524 -0.43654045
-0.31207561 -2.4285915 -0.33493486 -0.28870064 -0.22598256 0.1813066 0.012391663 0.19155239
-0.1344928 -1.7892507 -1.1043136 -0.11499946 0.030099418 -0.18574813 -0.10996158 -0.026940083
-0.025478616 0.1254681 0.10016107 -0.3265897 -0.08274505 -0.005926953 0.10324887 -0.32013363
-0.2381981 -0.49367127 0.13169172 0.19377178 0.08956883 -0.60302854 -0.14283179 -0.54045993
-0.30907568 -0.09221077 -0.0035184699 0.06524879 0.17282975 -0.3622252 -1.0814636 -0.85801125
-1.239994 -0.015938425 -0.63255197 0.07986513 -0.7720513 -0.17163374 0.12446058 -0.12116815
-0.65298706 -1.102916 -0.085122764 -0.2135428 -0.4258428 -0.25826952 -0.6881215 -0.27177253
-0.5617072 -0.085543096 0.14632766 0.11135221 -0.25014704 -0.04954494 -0.61747044 -0.15773189
0.14753805 -0.14089254 -0.58714896 -0.96790266 -0.071649686 0.17893504 0.18632625 -0.47031677
0.063354045 0.21293771 0.09611782 -0.33314684 -0.6439376 -0.3249573 0.0024369785 -0.635067
-0.10843506 0.04805386 0.18652523 0.035535485 0.06175198 0.06595414 -0.8678918 -0.35209194
0.16361633 -0.4012476 -0.7592563 0.11823243 -0.032518946 0.034674782 -0.0380341 -0.23033543

linear_relu_stack.10.bias f4 [10]
00000000: d0d5 8bbe 9eb3 2cba 4136 38be 433a b1be
00000010: 0efc 733e f737 633e 812d c4be 3e49 e8bc
00000020: fccf ba3e f8f8 03ba
-0.27311563 -0.00065880443 -0.17989446 -0.34614763 0.2382662 0.22189318 -0.38315967 -0.028355237
0.36486804 -0.00050343527
